AITests/results/Test2/MoveToGoal.onnx (onnx, 74645 bytes, 6 tensors)

network_body._body_endoder.seq_layers.0.weight f4 [128, 6]
0	0x3f0e82eb	0.55668515
1	0x3ea960c1	0.3308163
2	0xbd68c896	-0.05683192
3	0x3b87d69f	0.004145458
4	0xbf151a51	-0.5824328
5	0xbec15418	-0.3775947
6	0x3ee03ead	0.43797818
7	0xbe6119ff	-0.21982573
8	0x3eeb9b71	0.4601703
9	0x3c9c8620	0.019106925
10	0xbd9a73a1	-0.07541586
11	0x3dfb3fc3	0.12268021
12	0x3f39bf1b	0.7255723
13	0xbd46e314	-0.048556402
14	0xbee45cc8	-0.44602036
15	0x3f4084cf	0.7520265
16	0xbf08b9d5	-0.5340856
17	0x3f0700c2	0.5273553
18	0xbec21c8f	-0.37912413
19	0xbebd00cf	-0.3691468
20	0x3ed90936	0.4238984
21	0x3c51cfd4	0.012805898
22	0xbf0124f1	-0.50446993
23	0x3f1acf8d	0.6047295
24	0x3e248de0	0.16069746
25	0xbefca3b1	-0.49343637
26	0xbcadc4ad	-0.021211946
27	0xbd337066	-0.043808363
28	0xbf1c6aff	-0.61100763
29	0xbdca163b	-0.098675214
30	0x3d70d15e	0.058793418
31	0xbf30e80d	-0.6910408
32	0x3de886c0	0.113538265
33	0x3e902c34	0.28158724
34	0xbe1d5f6f	-0.15368436
35	0xbe834e0f	-0.2564549
36	0x3dce9d36	0.10088579
37	0xbeb73b3b	-0.35787377
38	0xbd27d48b	-0.04097418
39	0x3f47433b	0.7783696
40	0x3e9f458b	0.31107745
41	0xbf43196e	-0.7621068
42	0xbd0f9039	-0.03504965
43	0x3eac0da6	0.33604163
44	0x3eab3650	0.33439875
45	0x3e75548e	0.23958036
46	0xbe89a8e9	-0.2688668
47	0x3e9c121f	0.30482575
48	0xbf34374b	-0.7039687
49	0xbe75b88f	-0.23996185
50	0xbe87d2c1	-0.2652798
51	0x3d0bcffc	0.034133896
52	0xbe2573e4	-0.1615749
53	0xbe734fd6	-0.23760924
54	0x3e6822e2	0.22669557
55	0xbea5de0c	-0.3239597
56	0xbf08d95a	-0.5345665
57	0xbf7c970e	-0.9866799
58	0xbee87c0a	-0.45407134
59	0x3c2b74aa	0.010464827
60	0xbd46ab15	-0.048503
61	0x3f1505fd	0.5821226
62	0xbe8192d8	-0.25307345
63	0x3edc1a18	0.42988658
64	0x3e704a2e	0.23465797
65	0xbeca95b0	-0.39567327
66	0x3eade87b	0.3396643
67	0x3d5f7002	0.05455018
68	0xbc53742b	-0.012906115
69	0xbf71f4d8	-0.94514227
70	0xbeaaffd3	-0.33398303
71	0x3f0923c1	0.5357018
72	0x3e2e7152	0.17035416
73	0xbd01a897	-0.03165492
74	0x3f4ec2ee	0.8076619
75	0xbbc173d5	-0.005903701
76	0xbf4f775f	-0.8104152
77	0xbe886f5e	-0.26647466
78	0xbeea7888	-0.45795083
79	0x3ea8d15d	0.32972232
80	0xbd896b63	-0.067099355
81	0xbe9ffbe4	-0.31246865
82	0x3e9c2cba	0.30502874
83	0x3ecf5ce5	0.4050056
84	0x3f44cdb9	0.7687641
85	0x3c71d4ca	0.0147602055
86	0x3ec52e85	0.38512054
87	0xbe98039f	-0.29690263
88	0xbe66e95c	-0.22549957
89	0x3f0922cd	0.53568727
90	0xbcde7e90	-0.02715996
91	0xbd7b7083	-0.061386596
92	0x3ed09a48	0.40742707
93	0x3f1e5ac6	0.6185726
94	0xbd788332	-0.060671993
95	0x3e105a93	0.14097051
96	0xbe1386ab	-0.1440684
97	0x3e982e84	0.2972299
98	0xbd43fb8b	-0.047847312
99	0x3ebcbeb0	0.36864233
100	0xbe09ee4c	-0.1346981
101	0xbdaf9842	-0.08573963
102	0x3f18e1fd	0.5971983
103	0x3e5a194a	0.2129871
104	0x3e9a7fac	0.3017553
105	0x3e226dc8	0.1586219
106	0xbebdadc5	-0.37046638
107	0xbeaeb4c7	-0.34122297
108	0xbed1ae44	-0.40953267
109	0xbe9af365	-0.3026382
110	0xbe3cfc6a	-0.18455663
111	0xbda6e1d7	-0.08148544
112	0xbf3ab23c	-0.72928214
113	0x3d8d3bb1	0.06896151
114	0xbe7b0b75	-0.2451609
115	0xbe325433	-0.17414932
116	0xbd851a5d	-0.06499169
117	0xbd004a04	-0.031320587
118	0x3c8bd479	0.017069088
119	0x3f1cff25	0.6132682
120	0x3f3bf5b7	0.73421806
121	0xbea44de0	-0.32090664
122	0xbf0b47b2	-0.54406273
123	0x3d4f4104	0.050599113
124	0xbe4dcc85	-0.2009755
125	0x3e65fa18	0.22458684
126	0x3e059646	0.13045606
127	0x3ea31691	0.31853154
128	0x3ed41456	0.41421765
129	0x3eafdbe0	0.3434744
130	0xbd0bf940	-0.03417325
131	0xbeaea1c3	-0.3410779
132	0x3e3d0ada	0.18461171
133	0xbedc4f17	-0.4302909
134	0x3dafd2ea	0.085851505
135	0x3e7b0bf2	0.24516276
136	0xbfa438a8	-1.282979
137	0x3e83bc69	0.25729683
138	0x3e20d93b	0.15707867
139	0xbe61ae05	-0.2203904
140	0x3e09b772	0.13448885
141	0x3ec16e99	0.37779692
142	0xbe069ec7	-0.13146506
143	0x3f1ef249	0.6208845
144	0x3de6f12c	0.11276469
145	0xbdce8fed	-0.100860454
146	0xbbb04eba	-0.0053804787
147	0x3f267521	0.65022475
148	0xbeb07569	-0.34464577
149	0x3eae3a01	0.34028628
150	0xbf1acb97	-0.60466903
151	0x3ec6b642	0.38810927
152	0x3ecf4f61	0.4049025
153	0xbd8c3752	-0.06846489
154	0xbe5fda65	-0.21860655
155	0xbe5c5c05	-0.21519478
156	0xbdb2c370	-0.08728683
157	0x3f37fbcb	0.7186858
158	0x3e362ea3	0.17791228
159	0xbcad63fc	-0.02116584
160	0xbd34f5e5	-0.044179816
161	0x3e831e46	0.25609034
162	0xbf03c8f5	-0.5147851
163	0x3f05d766	0.52281797
164	0xbf842d2b	-1.0326284
165	0xbe999009	-0.29992703
166	0xbd4f8d4a	-0.050671853
167	0xbeef2a8e	-0.46712154
168	0xbea04960	-0.3130598
169	0x3eeafeea	0.4589761
170	0x3ec8023e	0.3906421
171	0xbeefa478	-0.46805167
172	0xbeafbbb5	-0.34322897
173	0xbe5c6a6c	-0.21524972
174	0xbe3fe44e	-0.18739435
175	0xbe944bcb	-0.28964075
176	0xbd1e27f2	-0.038612314
177	0xbe81a864	-0.25323784
178	0xbf3be22c	-0.73391986
179	0x3f213019	0.62964016
180	0x3e0502d0	0.12989354
181	0x3cb81339	0.022470104
182	0xbec19807	-0.378113
183	0xbf031d27	-0.5121636
184	0xbe62054b	-0.22072332
185	0x3cf9cbf0	0.030492753
186	0x3bed189b	0.007235599
187	0x3e4e3cd0	0.20140386
188	0x3e515a97	0.20444714
189	0x3d44d5a6	0.048055314
190	0x3e8eee06	0.27915972
191	0xbee43f7c	-0.44579685
192	0x3d997d1a	0.07494564
193	0x3f1ff894	0.62488675
194	0x3e8fc093	0.2807661
195	0x3edfbbe1	0.43698028
196	0xbc82fab9	-0.015988695
197	0x3f1358a1	0.5755711
198	0x3f0c484f	0.54797834
199	0x3e11f5ac	0.14253873
200	0x3e7063fe	0.23475644
201	0xbf3f24f6	-0.7466577
202	0xbdc5d95e	-0.096606
203	0x3f6d68f2	0.9273826
204	0x3d8bb504	0.06821635
205	0xbe2416ac	-0.16024274
206	0x3e904254	0.28175604
207	0xbf41941f	-0.7561664
208	0x3f84b58f	1.0367907
209	0xbe936719	-0.28789595
210	0x3f2129c5	0.6295436
211	0xbf0d8389	-0.5527883
212	0xbf384348	-0.71977663
213	0xbeac556a	-0.33658916
214	0x3e08180f	0.13290428
215	0xbec04c2b	-0.37558112
216	0xbd93eda5	-0.072230615
217	0x3f4c43bf	0.7979087
218	0xbd3fe8e8	-0.046852976
219	0xbe9f23ca	-0.31081992
220	0x3cb78e8a	0.022406835
221	0xbecac2cf	-0.39601752
222	0x3e0e324f	0.13886379
223	0xbe2fd40c	-0.17170733
224	0xbcfbdc88	-0.030744806
225	0x3ef1350b	0.4711078
226	0xbc49a11f	-0.012306481
227	0x3efd2f9b	0.49450383
228	0x3f1bc5c8	0.60848665
229	0x3f10bc02	0.5653688
230	0x3ea5655d	0.32303897
231	0x3de180ef	0.1101092
232	0x3e2aa276	0.16663536
233	0x3e952cca	0.29135734
234	0x3f0ddf4e	0.5541886
235	0x3ede075a	0.43364984
236	0xbfa4bebe	-1.287071
237	0xbceb6002	-0.028732304
238	0x3ed63e91	0.4184461
239	0xbebb148f	-0.36539122
240	0x3e088044	0.1333018
241	0xbeaaac9a	-0.3333481
242	0xbf48ffca	-0.78515303
243	0x3e95cb18	0.2925651
244	0xbe1e7254	-0.154733
245	0x3f3598b9	0.7093616
246	0x3cf0cb17	0.029393716
247	0x3de37677	0.1110658
248	0x3e2fd7f3	0.17172222
249	0x3f06d40a	0.52667296
250	0xbed9669c	-0.42461097
251	0xbe225dfe	-0.15856168
252	0xbcefb161	-0.029259386
253	0x3c7ceaa5	0.015436803
254	0x3f059e14	0.52194333
255	0xbe8b1281	-0.27162555

network_body._body_endoder.seq_layers.0.bias f4 [128]
0	0x00000000	0.0
1	0x00000000	0.0
2	0x00000000	0.0
3	0x00000000	0.0
4	0x00000000	0.0
5	0x00000000	0.0
6	0x00000000	0.0
7	0x00000000	0.0
8	0x00000000	0.0
9	0x00000000	0.0
10	0x00000000	0.0
11	0x00000000	0.0
12	0x00000000	0.0
13	0x00000000	0.0
14	0x00000000	0.0
15	0x00000000	0.0
16	0x00000000	0.0
17	0x00000000	0.0
18	0x00000000	0.0
19	0x00000000	0.0
20	0x00000000	0.0
21	0x00000000	0.0
22	0x00000000	0.0
23	0x00000000	0.0
24	0x00000000	0.0
25	0x00000000	0.0
26	0x00000000	0.0
27	0x00000000	0.0
28	0x00000000	0.0
29	0x00000000	0.0
30	0x00000000	0.0
31	0x00000000	0.0
32	0x00000000	0.0
33	0x00000000	0.0
34	0x00000000	0.0
35	0x00000000	0.0
36	0x00000000	0.0
37	0x00000000	0.0
38	0x00000000	0.0
39	0x00000000	0.0
40	0x00000000	0.0
41	0x00000000	0.0
42	0x00000000	0.0
43	0x00000000	0.0
44	0x00000000	0.0
45	0x00000000	0.0
46	0x00000000	0.0
47	0x00000000	0.0
48	0x00000000	0.0
49	0x00000000	0.0
50	0x00000000	0.0
51	0x00000000	0.0
52	0x00000000	0.0
53	0x00000000	0.0
54	0x00000000	0.0
55	0x00000000	0.0
56	0x00000000	0.0
57	0x00000000	0.0
58	0x00000000	0.0
59	0x00000000	0.0
60	0x00000000	0.0
61	0x00000000	0.0
62	0x00000000	0.0
63	0x00000000	0.0
64	0x00000000	0.0
65	0x00000000	0.0
66	0x00000000	0.0
67	0x00000000	0.0
68	0x00000000	0.0
69	0x00000000	0.0
70	0x00000000	0.0
71	0x00000000	0.0
72	0x00000000	0.0
73	0x00000000	0.0
74	0x00000000	0.0
75	0x00000000	0.0
76	0x00000000	0.0
77	0x00000000	0.0
78	0x00000000	0.0
79	0x00000000	0.0
80	0x00000000	0.0
81	0x00000000	0.0
82	0x00000000	0.0
83	0x00000000	0.0
84	0x00000000	0.0
85	0x00000000	0.0
86	0x00000000	0.0
87	0x00000000	0.0
88	0x00000000	0.0
89	0x00000000	0.0
90	0x00000000	0.0
91	0x00000000	0.0
92	0x00000000	0.0
93	0x00000000	0.0
94	0x00000000	0.0
95	0x00000000	0.0
96	0x00000000	0.0
97	0x00000000	0.0
98	0x00000000	0.0
99	0x00000000	0.0
100	0x00000000	0.0
101	0x00000000	0.0
102	0x00000000	0.0
103	0x00000000	0.0
104	0x00000000	0.0
105	0x00000000	0.0
106	0x00000000	0.0
107	0x00000000	0.0
108	0x00000000	0.0
109	0x00000000	0.0
110	0x00000000	0.0
111	0x00000000	0.0
112	0x00000000	0.0
113	0x00000000	0.0
114	0x00000000	0.0
115	0x00000000	0.0
116	0x00000000	0.0
117	0x00000000	0.0
118	0x00000000	0.0
119	0x00000000	0.0
120	0x00000000	0.0
121	0x00000000	0.0
122	0x00000000	0.0
123	0x00000000	0.0
124	0x00000000	0.0
125	0x00000000	0.0
126	0x00000000	0.0
127	0x00000000	0.0

network_body._body_endoder.seq_layers.2.weight f4 [128, 128]
0	0x3e0ab751	0.13546492
1	0xbd44a3f7	-0.04800793
2	0xbe01fb68	-0.1269356
3	0xbdd4a86f	-0.10383689
4	0xbcac6f35	-0.021049121
5	0xbde2ae9f	-0.110684626
6	0x3d57b167	0.05265942
7	0xbe0b376d	-0.13595362
8	0xbd7b46f6	-0.06134697
9	0xbe15c239	-0.14624871
10	0xbcc50519	-0.024050282
11	0xbd55a9ae	-0.052163772
12	0xbd5eb072	-0.05436749
13	0xbcf07b09	-0.029355543
14	0xbe809073	-0.25110206
15	0x3d373eae	0.04473751
16	0xbdbd01a9	-0.09228832
17	0xbd29bbbc	-0.041438803
18	0xbd826a67	-0.06367951
19	0x3d5cb37d	0.05388211
20	0x37115193	8.6616665e-06
21	0x3d0f32ee	0.03496068
22	0xbe40ce6b	-0.18828742
23	0x3e0bae92	0.13640812
24	0xbcb99a88	-0.022656694
25	0x3da0e1d5	0.07855574
26	0xbdcc0464	-0.09961775
27	0xbe14bd24	-0.14525276
28	0xbd97d3e2	-0.0741346
29	0x3c14301b	0.009044672
30	0x3c330324	0.010926042
31	0xbd1fb53c	-0.038991198
32	0x3d1d425a	0.038393356
33	0xbd6b5d65	-0.057462115
34	0x3cb7c195	0.022431174
35	0x3d872f6f	0.06600844
36	0x3d99417b	0.074831925
37	0xbd894011	-0.06701673
38	0xbd73bb1a	-0.059504606
39	0x3d9a106d	0.07522664
40	0x3dd575b8	0.10422844
41	0x3df85515	0.12125603
42	0xbba7f518	-0.005125653
43	0xbd014a00	-0.031564713
44	0xbdfdc278	-0.123906076
45	0xbe2e0f62	-0.16998056
46	0xbd33889c	-0.043831453
47	0x3d7d3ab7	0.061823573
48	0xbd1d526b	-0.038408678
49	0xbded433a	-0.11585088
50	0x3e1d2b2a	0.15348497
51	0xbd556be9	-0.052104864
52	0x3c91a065	0.017776677
53	0xbd6e0c7d	-0.05811738
54	0x3d5ceab4	0.053934768
55	0x3e480e48	0.19536698
56	0xbd92857a	-0.07154365
57	0xbdaaf76e	-0.08347975
58	0x3c109b2e	0.00882606
59	0xbd2f6a34	-0.042825893
60	0x3e4c555f	0.19954441
61	0x3d12b4ab	0.03581683
62	0xbc570851	-0.013124541
63	0x3bf1b2a2	0.007376031
64	0xbdba7270	-0.091038585
65	0x3984a8e3	0.00025302832
66	0xbdb646e0	-0.08900237
67	0x3d98edb4	0.07467213
68	0xbda216e5	-0.07914523
69	0xbd4c9f2d	-0.04995649
70	0xbc1dbe2e	-0.009627862
71	0x3de6693a	0.11250539
72	0x3dfbdafd	0.12297628
73	0xbd297893	-0.041374754
74	0xba40e871	-0.0007358855
75	0xbb362a0a	-0.0027796053
76	0x3dbc35f6	0.0918998
77	0xbe10db11	-0.14146067
78	0x3a81777b	0.0009877527
79	0xbe42debe	-0.19030282
80	0x3d91a912	0.07112326
81	0x3dac87b7	0.08424323
82	0x3dd1d932	0.10246505
83	0x3d6334c5	0.055470247
84	0x3e0ea6c4	0.13930804
85	0x3df6dc59	0.12053747
86	0x3e096d52	0.13420609
87	0xbd01dfd5	-0.031707603
88	0x3d631cfa	0.055447556
89	0xbd2100b1	-0.0393073
90	0x3d2d4576	0.04230257
91	0x3dcdd7c7	0.10050922
92	0x3d9a367e	0.07529925
93	0x3d26ce98	0.040724367
94	0x3d41a2cb	0.047274392
95	0x3da0aec7	0.07845836
96	0xbd0069f7	-0.031351056
97	0xbdc2ee5f	-0.09518122
98	0x3c817154	0.01580111
99	0x3d1ca909	0.038247142
100	0xbdc10f44	-0.0942674
101	0xbe45b3a4	-0.19306809
102	0x3c162065	0.009162997
103	0xbcaff879	-0.021480786
104	0xbc773859	-0.015089118
105	0x3ca092b2	0.0196012
106	0x3d133059	0.03593478
107	0x3e52889b	0.20559923
108	0xbd2ed805	-0.04268648
109	0x3d5f1e25	0.054472107
110	0x3db5fd0b	0.08886155
111	0xbd6deff9	-0.058090184
112	0x3e1647e4	0.14675862
113	0x3d3b24fe	0.045689575
114	0x3cd43a83	0.025906807
115	0xbcba87a8	-0.022769764
116	0xbc22570d	-0.00990845
117	0x3e1422c2	0.14466384
118	0x3e5a12bf	0.21296214
119	0x3da41098	0.080109775
120	0xbcd8d7c0	-0.026470065
121	0x3d4b133e	0.049578898
122	0x3c8046bc	0.015658729
123	0xbc0daaa5	-0.008646642
124	0xbd1ec918	-0.038765997
125	0x3cae159d	0.02125054
126	0x3d9b53dc	0.07584354
127	0xbdc8b3fb	-0.097999536
128	0x3bb462f2	0.0055049593
129	0x3d901d9a	0.07036896
130	0xbe183398	-0.14863431
131	0xbd493470	-0.049122274
132	0xbdf456cc	-0.11930618
133	0x3d98a461	0.07453228
134	0xbdef4a7b	-0.11684128
135	0xbd1b91ec	-0.03798096
136	0xbe094de5	-0.1340862
137	0x3e154fe0	0.14581251
138	0xbcbc9540	-0.023020387
139	0xbde6eafa	-0.11275287
140	0x3dc6c210	0.09704983
141	0xbe9c05bf	-0.30473134
142	0xbd27b07b	-0.04093979
143	0x3cf038d1	0.029323967
144	0x3e7474af	0.23872636
145	0xbb79ad93	-0.0038097843
146	0xbd6c5e57	-0.057707157
147	0xbe06a0ba	-0.1314725
148	0xbd292973	-0.041299295
149	0xbc81763b	-0.015803447
150	0x3d453ce0	0.048153758
151	0xbda11de6	-0.07867031
152	0x3b9c8015	0.0047760108
153	0xbe6a16b5	-0.22860225
154	0x3c0bf007	0.008541114
155	0xbc950f6a	-0.018195827
156	0x3ddde0cc	0.10833892
157	0x3c84a5cf	0.016192345
158	0xbc0e52e2	-0.008686753
159	0x3d4455fa	0.047933556
160	0xbcbc6fd4	-0.023002543
161	0x3dc170b4	0.094453245
162	0x3e240b6e	0.16019985
163	0xbca5f25e	-0.020257171
164	0x3e46a538	0.19398963
165	0xbcfeb66d	-0.031092847
166	0xbe269acf	-0.16269992
167	0x3d0e5d32	0.034756847
168	0x3d035b95	0.03206976
169	0xbd559fb7	-0.05215427
170	0x3db68903	0.08912852
171	0x3cf598a7	0.029980017
172	0x3c110be4	0.008852933
173	0x3d00db65	0.03145923
174	0xbe29275b	-0.16518919
175	0x3d3be3e1	0.04587162
176	0xbd952b13	-0.072836064
177	0x3ccf37da	0.025295187
178	0xbd91ec0d	-0.07125101
179	0xbe13232b	-0.14368884
180	0x3e16ea4c	0.14737815
181	0xbdab2b4f	-0.0835787
182	0xbe0c6d31	-0.13713528
183	0xbd14e0ce	-0.036347203
184	0x3e195cac	0.14976758
185	0x3de06767	0.109572224
186	0xbc432b01	-0.011912108
187	0x3d87966d	0.06620488
188	0x3dd5cd95	0.10439602
189	0x3d5349f2	0.05158419
190	0xbc7efc6e	-0.015563114
191	0x3e0df00f	0.13861106
192	0xbb158fbb	-0.0022821266
193	0x3e44f564	0.19234234
194	0xbdf32f92	-0.11874308
195	0x3cc12ab9	0.023579942
196	0x3adbfa34	0.001678294
197	0x3d8f81ec	0.070072025
198	0xbd053732	-0.03252334
199	0xbb55c454	-0.0032618241
200	0xbcba72c7	-0.022759808
201	0x3da0732e	0.07834469
202	0xbc00d39d	-0.007862953
203	0xbdd5110e	-0.104036435
204	0xbdb6ac4a	-0.0891958
205	0x3d528397	0.051395025
206	0xbd84bbb4	-0.06481114
207	0xbce2e33b	-0.027696243
208	0x3d5b4abe	0.053538077
209	0x3d6d8fbc	0.057998404
210	0xbe38c066	-0.18042144
211	0xbc311522	-0.010808261
212	0x3e54a581	0.2076626
213	0xbdd69b7f	-0.10478877
214	0x3e04ee49	0.12981524
215	0xbd9e05aa	-0.07715924
216	0xbdcacf88	-0.09902865
217	0x3dffcbf0	0.1249007
218	0xbdd76eb6	-0.10519163
219	0xbc88df12	-0.01670793
220	0x3b1896e9	0.002328331
221	0xbd9ba486	-0.0759974
222	0xbdb77f6c	-0.08959851
223	0x3c918623	0.017764157
224	0xbe18cab6	-0.14921078
225	0x3e1c9e1b	0.15294687
226	0xbe1d9b92	-0.15391377
227	0x3bae7f16	0.0053252084
228	0x3d48f270	0.04905933
229	0x3b9694df	0.0045953835
230	0x3d8b4b98	0.06801528
231	0xbd973bed	-0.07384477
232	0x3d29f40e	0.041492514
233	0x3d101984	0.035180584
234	0xbd935f11	-0.07195867
235	0x3dfe5745	0.12418989
236	0x3da24da3	0.07924964
237	0xbddc4b99	-0.107566066
238	0x3c799deb	0.0152354045
239	0x3e594657	0.21218239
240	0xbd70bff1	-0.0587768
241	0xbd503adb	-0.05083738
242	0xbc860b9e	-0.016362961
243	0xbd95a48b	-0.07306775
244	0x3c9d7422	0.019220416
245	0xbd7d2a46	-0.061807893
246	0x3e166030	0.1468513
247	0x3c8cedcc	0.017203234
248	0x3df035d1	0.11729015
249	0xbd860a49	-0.065449305
250	0x3d7a0af6	0.06104561
251	0xbd4610f2	-0.048356004
252	0xbccdbb4d	-0.025113726
253	0x3d3241ea	0.04351989
254	0x3b4f62cd	0.0031644583
255	0xbdc1b60e	-0.09458552

action_model._continuous_distribution.log_sigma f4 [1, 2]
0	0x00000000	0.0
1	0x00000000	0.0

action_model._continuous_distribution.mu.weight f4 [2, 128]
0	0x3bac1b13	0.005252251
1	0xbbd9967b	-0.006640253
2	0x3c588483	0.013215187
3	0x3c8db30c	0.01729729
4	0x3c9c333e	0.019067403
5	0x3c9f3d23	0.019438332
6	0x3c0a119d	0.008427051
7	0xbc51917a	-0.012791032
8	0x3cbfd5ad	0.023417318
9	0x3d1e5240	0.03865266
10	0xbc8c0e52	-0.017096672
11	0x3c1dbdae	0.009627743
12	0x3bb535ed	0.00553011
13	0x3c69a38b	0.014260183
14	0xbbda2ebd	-0.0066584037
15	0xbc3d0b7e	-0.0115383845
16	0x3c57df78	0.013175838
17	0xbcdb804d	-0.026794577
18	0x3d12b62f	0.035818275
19	0x3c3cde84	0.011527661
20	0x3ae86ab3	0.0017731994
21	0xbc813af7	-0.015775187
22	0x3c3e6676	0.011621108
23	0x3ce97413	0.028497731
24	0xbd192e5e	-0.037397735
25	0xba431bce	-0.0007442803
26	0x3cf47dc7	0.029845132
27	0xbb9b7a3b	-0.0047447956
28	0x3c9f6c4f	0.019460825
29	0xbc505105	-0.012714629
30	0xbad7a293	-0.0016451649
31	0x3bdc5963	0.006724523
32	0xbb9bde2a	-0.0047567086
33	0xbb25f076	-0.0025320328
34	0x3bd9811b	0.006637705
35	0x3c6a90ea	0.014316777
36	0xbc23e8bb	-0.010004218
37	0x3c48b6b3	0.01225059
38	0xbc7dd43d	-0.015492496
39	0xbc994283	-0.018708473
40	0x3becfa43	0.007231982
41	0xbc5bd692	-0.013417857
42	0xbb6fa533	-0.0036566972
43	0x3c99785b	0.018734148
44	0x3cb750b5	0.022377351
45	0x3c38011e	0.011230735
46	0x3b4ead10	0.0031536259
47	0x3c5dff42	0.013549628
48	0xbd1189df	-0.035531875
49	0xbb79bc40	-0.003810659
50	0x3ce2b625	0.027674744
51	0x3cfa350f	0.030542878
52	0x3c83a3fe	0.016069409
53	0xbc874d42	-0.016516332
54	0xba12ab11	-0.0005594949
55	0xbc2af690	-0.010434762
56	0x3c2835f1	0.010266767
57	0x3c42d294	0.011891026
58	0xbcd6d705	-0.026225576
59	0x3b872643	0.004124434
60	0xbca511ba	-0.020150054
61	0xbb93cac6	-0.0045102565
62	0x3990af39	0.0002759637
63	0xbb9e3b90	-0.0048288777
64	0xbc0248b0	-0.0079519
65	0xbcf653bf	-0.03006923
66	0x3c16ec1e	0.009211568
67	0xbc1087a7	-0.008821405
68	0xbd0daf3a	-0.034590937
69	0x3ad958fd	0.0016582307
70	0xbce35d2b	-0.027754387
71	0xbac4ad34	-0.0015005232
72	0xbd00dd12	-0.03146083
73	0x3c5a5257	0.013325295
74	0x3d16cdfb	0.036817532
75	0x3d0f880a	0.035041846
76	0xbc945129	-0.018105106
77	0xbc67bbc0	-0.014143884
78	0xbc8f133f	-0.017465232
79	0xbc7c0390	-0.015381709
80	0x3c85d4fe	0.016336914
81	0xbceaf947	-0.028683318
82	0xbc654dd7	-0.013995609
83	0x39e34aad	0.00043352452
84	0x3d09aa3d	0.033609618
85	0x3c906e85	0.017630825
86	0xbc7c2135	-0.015388777
87	0xbc70a1c8	-0.014687009
88	0x3cae780e	0.02129748
89	0xbc765e2f	-0.015037104
90	0x3c9d87c1	0.019229772
91	0x3ba8a8ab	0.00514706
92	0x3c48890b	0.012239705
93	0x3c304a23	0.010759863
94	0x3cc4f837	0.02404414
95	0x3c7544ff	0.014970063
96	0x3cb6a10c	0.02229359
97	0xbc229197	-0.009922407
98	0xbcfadc6b	-0.030622682
99	0xbc098fce	-0.008396102
100	0x3cb19003	0.021675115
101	0x3cc2afed	0.023765529
102	0x3c488aae	0.012240095
103	0x3ca1a72a	0.01973303
104	0x3badaf07	0.005300406
105	0x3c3a2d5b	0.011363353
106	0x3c7091ef	0.014683231
107	0x3bf577bb	0.0074910796
108	0x3baa47c7	0.005196545
109	0x3b9f5f6d	0.0048636706
110	0xbc0d922f	-0.00864081
111	0x3ba9ee2f	0.0051858644
112	0xbca05ae0	-0.019574583
113	0x3cdf8ae8	0.027287915
114	0xbca4d064	-0.0201189
115	0xbc52daed	-0.012869579
116	0xbc81d79b	-0.015849879
117	0x3c9f9c64	0.019483753
118	0x3ca606fc	0.020267002
119	0xbb91bc03	-0.0044474616
120	0xbb18e6a6	-0.0023330837
121	0xbc046da7	-0.008082784
122	0x3cd8ffe3	0.026489204
123	0x3ca0b0fa	0.019615639
124	0xbb927dea	-0.0044705765
125	0xbc9a8a89	-0.018864887
126	0x3baad8db	0.0052138395
127	0xbd05b334	-0.032641605
128	0xbc88ddad	-0.016707266
129	0xbb2d0c3f	-0.0026405004
130	0x3c24760f	0.010037913
131	0xbc99f787	-0.018794788
132	0x3c54db8a	0.012991795
133	0x3b924218	0.0044634454
134	0xbcb424e0	-0.02199024
135	0xbbe9375a	-0.007117194
136	0x3cdf5068	0.02726002
137	0x3c201674	0.009770978
138	0xbbd584eb	-0.006516089
139	0x3ae8052d	0.0017701738
140	0x3c5e5898	0.013570927
141	0xbb85262e	-0.0040633893
142	0x3c468825	0.01211742
143	0xbb02368b	-0.0019868936
144	0x3c0336b3	0.008008647
145	0xbcaf9f67	-0.021438314
146	0xbc6d8a5d	-0.01449832
147	0x3aca13e7	0.0015417308
148	0xbca6ad37	-0.020346267
149	0xbc484f4f	-0.01222594
150	0x3bdf4a5a	0.0068142833
151	0x3cafb4e7	0.021448566
152	0x3b12acb1	0.0022380764
153	0x3bef9a77	0.007312115
154	0xbb3ed3f7	-0.002911804
155	0xbc21408f	-0.009842052
156	0xbc2cdbb9	-0.010550433
157	0xb9b9580d	-0.00035351553
158	0x3cd39947	0.025829924
159	0xbbc128b7	-0.005894746
160	0xbce42a10	-0.027852088
161	0xbcda176b	-0.026622495
162	0xbcff3cd7	-0.03115694
163	0x3c39e888	0.011346944
164	0xbc88476d	-0.016635621
165	0x3cdb05f8	0.026736245
166	0x3ca51bb5	0.020154813
167	0x3cebc6db	0.028781345
168	0x3c99ab2b	0.018758377
169	0xba4a95b4	-0.0007727996
170	0x3c4e7a5d	0.012602416
171	0x3c9d736b	0.019220075
172	0xbc0b4bf7	-0.008501998
173	0xbc62939d	-0.013829139
174	0xbc8cdc01	-0.01719475
175	0x3c84b72d	0.016200626
176	0xbd1d99b6	-0.03847667
177	0xbd078d73	-0.03309388
178	0x3c512ed3	0.012767511
179	0xbcbb206b	-0.022842607
180	0x3c4e0d6d	0.012576443
181	0x3c746633	0.014916944
182	0x3ae4e67b	0.0017463708
183	0x3c64057d	0.013917324
184	0x3be73728	0.0070561357
185	0x3ca94608	0.020663276
186	0xbc01e58b	-0.007928262
187	0x3b81807b	0.0039520836
188	0xbb2ee7c8	-0.0026688445
189	0x3c10d88d	0.008840692
190	0x3c891cce	0.016737368
191	0xbcea0197	-0.028565211
192	0x3c6c3b98	0.014418505
193	0xbb9bdb77	-0.004756387
194	0x3baefce3	0.005340205
195	0x3a98e2a6	0.0011664226
196	0x3bfcf6bf	0.007719844
197	0xbc583160	-0.013195366
198	0x3bdbff07	0.0067137512
199	0xbbde2607	-0.0067794356
200	0x3bb05a7a	0.0053818794
201	0x3d3ad1cb	0.04561023
202	0x3ca5f503	0.020258432
203	0x3d0f79b8	0.03502819
204	0x3aefaafb	0.0018285209
205	0x3c4f178f	0.012639894
206	0x3be85fff	0.0070915218
207	0xb9fc71a7	-0.00048149863
208	0x3c8b4335	0.01699982
209	0x3cc6f62f	0.024287311
210	0xbd1360c5	-0.03598096
211	0x3b95dc0f	0.004573352
212	0x3b6cd06a	0.0036134967
213	0x3bdc0dab	0.0067154965
214	0xbca6634b	-0.020311018
215	0xbc76c8c7	-0.0150625175
216	0xbcd66ef2	-0.02617595
217	0xbc565e1d	-0.013083962
218	0xbc8398ee	-0.016064133
219	0x3bd623f8	0.0065350495
220	0xbcc7bc47	-0.02438177
221	0xbc7b22c7	-0.015328116
222	0xbc0cae11	-0.008586423
223	0x39f877c3	0.00047391476
224	0xbbc8dd70	-0.006129913
225	0xbcc8764d	-0.024470473
226	0xbd006f7e	-0.031356327
227	0xbbf2039f	-0.0073856856
228	0x3c45ce16	0.0120730605
229	0xbd0265d4	-0.031835392
230	0xbbd161c0	-0.0063898265
231	0xbc10d463	-0.008839699
232	0x3a266dbc	0.0006348749
233	0x3bfd63aa	0.007732828
234	0x3b66499a	0.0035139085
235	0xbb0282c5	-0.001991437
236	0x3ca4a5c3	0.020098573
237	0xbb15912c	-0.0022822125
238	0xbd43a26b	-0.047762316
239	0xbbe0e277	-0.006862934
240	0xbcccf7c5	-0.02502049
241	0x3c80d3f7	0.015726073
242	0x3b94f015	0.0045452216
243	0x3b882349	0.004154597
244	0xbc95db99	-0.018293189
245	0x3bfa5ecf	0.0076406966
246	0x3c149d1b	0.00907066
247	0xbc4b4ffe	-0.012409208
248	0x3b9d73ff	0.0048050876
249	0xbc2e2eb8	-0.010631256
250	0xbd058dd3	-0.032605957
251	0x3c8345f7	0.016024573
252	0xbb87fef6	-0.0041502668
253	0x3c0cdd04	0.008597616
254	0x3a34cd13	0.00068970135
255	0x3c1adf74	0.009452689

action_model._continuous_distribution.mu.bias f4 [2]
0	0x00000000	0.0
1	0x00000000	0.0
