AITests/results/Test2/MoveToGoal/MoveToGoal-6848.pt (torch, 149530 bytes, 12 tensors)

network_body._body_endoder.seq_layers.0.weight f4 [128, 6]
0.55668515 0.3308163 -0.05683192 0.004145458 -0.5824328 -0.3775947 0.43797818 -0.21982573
0.4601703 0.019106925 -0.07541586 0.12268021 0.7255723 -0.048556402 -0.44602036 0.7520265
-0.5340856 0.5273553 -0.37912413 -0.3691468 0.4238984 0.012805898 -0.50446993 0.6047295
0.16069746 -0.49343637 -0.021211946 -0.043808363 -0.61100763 -0.098675214 0.058793418 -0.6910408
0.113538265 0.28158724 -0.15368436 -0.2564549 0.10088579 -0.35787377 -0.04097418 0.7783696
0.31107745 -0.7621068 -0.03504965 0.33604163 0.33439875 0.23958036 -0.2688668 0.30482575
-0.7039687 -0.23996185 -0.2652798 0.034133896 -0.1615749 -0.23760924 0.22669557 -0.3239597
-0.5345665 -0.9866799 -0.45407134 0.010464827 -0.048503 0.5821226 -0.25307345 0.42988658
0.23465797 -0.39567327 0.3396643 0.05455018 -0.012906115 -0.94514227 -0.33398303 0.5357018
0.17035416 -0.03165492 0.8076619 -0.005903701 -0.8104152 -0.26647466 -0.45795083 0.32972232
-0.067099355 -0.31246865 0.30502874 0.4050056 0.7687641 0.0147602055 0.38512054 -0.29690263
-0.22549957 0.53568727 -0.02715996 -0.061386596 0.40742707 0.6185726 -0.060671993 0.14097051
-0.1440684 0.2972299 -0.047847312 0.36864233 -0.1346981 -0.08573963 0.5971983 0.2129871
0.3017553 0.1586219 -0.37046638 -0.34122297 -0.40953267 -0.3026382 -0.18455663 -0.08148544
-0.72928214 0.06896151 -0.2451609 -0.17414932 -0.06499169 -0.031320587 0.017069088 0.6132682
0.73421806 -0.32090664 -0.54406273 0.050599113 -0.2009755 0.22458684 0.13045606 0.31853154
0.41421765 0.3434744 -0.03417325 -0.3410779 0.18461171 -0.4302909 0.085851505 0.24516276
-1.282979 0.25729683 0.15707867 -0.2203904 0.13448885 0.37779692 -0.13146506 0.6208845
0.11276469 -0.100860454 -0.0053804787 0.65022475 -0.34464577 0.34028628 -0.60466903 0.38810927
0.4049025 -0.06846489 -0.21860655 -0.21519478 -0.08728683 0.7186858 0.17791228 -0.02116584
-0.044179816 0.25609034 -0.5147851 0.52281797 -1.0326284 -0.29992703 -0.050671853 -0.46712154
-0.3130598 0.4589761 0.3906421 -0.46805167 -0.34322897 -0.21524972 -0.18739435 -0.28964075
-0.038612314 -0.25323784 -0.73391986 0.62964016 0.12989354 0.022470104 -0.378113 -0.5121636
-0.22072332 0.030492753 0.007235599 0.20140386 0.20444714 0.048055314 0.27915972 -0.44579685
0.07494564 0.62488675 0.2807661 0.43698028 -0.015988695 0.5755711 0.54797834 0.14253873
0.23475644 -0.7466577 -0.096606 0.9273826 0.06821635 -0.16024274 0.28175604 -0.7561664
1.0367907 -0.28789595 0.6295436 -0.5527883 -0.71977663 -0.33658916 0.13290428 -0.37558112
-0.072230615 0.7979087 -0.046852976 -0.31081992 0.022406835 -0.39601752 0.13886379 -0.17170733
-0.030744806 0.4711078 -0.012306481 0.49450383 0.60848665 0.5653688 0.32303897 0.1101092
0.16663536 0.29135734 0.5541886 0.43364984 -1.287071 -0.028732304 0.4184461 -0.36539122
0.1333018 -0.3333481 -0.78515303 0.2925651 -0.154733 0.7093616 0.029393716 0.1110658
0.17172222 0.52667296 -0.42461097 -0.15856168 -0.029259386 0.015436803 0.52194333 -0.27162555
00000000: eb82 0e3f c160 a93e 96c8 68bd 9fd6 873b
00000010: 511a 15bf 1854 c1be ad3e e03e ff19 61be
00000020: 719b eb3e 2086 9c3c a173 9abd c33f fb3d
00000030: 1bbf 393f 14e3 46bd c85c e4be cf84 403f
00000040: d5b9 08bf c200 073f 8f1c c2be cf00 bdbe
00000050: 3609 d93e d4cf 513c f124 01bf 8dcf 1a3f
00000060: e08d 243e b1a3 fcbe adc4 adbc 6670 33bd
00000070: ff6a 1cbf 3b16 cabd 5ed1 703d 0de8 30bf
00000080: c086 e83d 342c 903e 6f5f 1dbe 0f4e 83be
00000090: 369d ce3d 3b3b b7be 8bd4 27bd 3b43 473f
000000a0: 8b45 9f3e 6e19 43bf 3990 0fbd a60d ac3e
000000b0: 5036 ab3e 8e54 753e e9a8 89be 1f12 9c3e
000000c0: 4b37 34bf 8fb8 75be c1d2 87be fccf 0b3d
000000d0: e473 25be d64f 73be e222 683e 0cde a5be
000000e0: 5ad9 08bf 0e97 7cbf 0a7c e8be aa74 2b3c
000000f0: 15ab 46bd fd05 153f d892 81be 181a dc3e
00000100: 2e4a 703e b095 cabe 7be8 ad3e 0270 5f3d
00000110: 2b74 53bc d8f4 71bf d3ff aabe c123 093f
00000120: 5271 2e3e 97a8 01bd eec2 4e3f d573 c1bb
00000130: 5f77 4fbf 5e6f 88be 8878 eabe 5dd1 a83e
00000140: 636b 89bd e4fb 9fbe ba2c 9c3e e55c cf3e
00000150: b9cd 443f cad4 713c 852e c53e 9f03 98be
00000160: 5ce9 66be cd22 093f 907e debc 8370 7bbd
00000170: 489a d03e c65a 1e3f 3283 78bd 935a 103e
00000180: ab86 13be 842e 983e 8bfb 43bd b0be bc3e
00000190: 4cee 09be 4298 afbd fde1 183f 4a19 5a3e
000001a0: ac7f 9a3e c86d 223e c5ad bdbe c7b4 aebe
000001b0: 44ae d1be 65f3 9abe 6afc 3cbe d7e1 a6bd
000001c0: 3cb2 3abf b13b 8d3d 750b 7bbe 3354 32be
000001d0: 5d1a 85bd 044a 00bd 79d4 8b3c 25ff 1c3f
000001e0: b7f5 3b3f e04d a4be b247 0bbf 0441 4f3d
000001f0: 85cc 4dbe 18fa 653e 4696 053e 9116 a33e
00000200: 5614 d43e e0db af3e 40f9 0bbd c3a1 aebe
00000210: da0a 3d3e 174f dcbe ead2 af3d f20b 7b3e
00000220: a838 a4bf 69bc 833e 3bd9 203e 05ae 61be
00000230: 72b7 093e 996e c13e c79e 06be 49f2 1e3f
00000240: 2cf1 e63d ed8f cebd ba4e b0bb 2175 263f
00000250: 6975 b0be 013a ae3e 97cb 1abf 42b6 c63e
00000260: 614f cf3e 5237 8cbd 65da 5fbe 055c 5cbe
00000270: 70c3 b2bd cbfb 373f a32e 363e fc63 adbc
00000280: e5f5 34bd 461e 833e f5c8 03bf 66d7 053f
00000290: 2b2d 84bf 0990 99be 4a8d 4fbd 8e2a efbe
000002a0: 6049 a0be eafe ea3e 3e02 c83e 78a4 efbe
000002b0: b5bb afbe 6c6a 5cbe 4ee4 3fbe cb4b 94be
000002c0: f227 1ebd 64a8 81be 2ce2 3bbf 1930 213f
000002d0: d002 053e 3913 b83c 0798 c1be 271d 03bf
000002e0: 4b05 62be f0cb f93c 9b18 ed3b d03c 4e3e
000002f0: 975a 513e a6d5 443d 06ee 8e3e 7c3f e4be
00000300: 1a7d 993d 94f8 1f3f 93c0 8f3e e1bb df3e
00000310: b9fa 82bc a158 133f 4f48 0c3f acf5 113e
00000320: fe63 703e f624 3fbf 5ed9 c5bd f268 6d3f
00000330: 04b5 8b3d ac16 24be 5442 903e 1f94 41bf
00000340: 8fb5 843f 1967 93be c529 213f 8983 0dbf
00000350: 4843 38bf 6a55 acbe 0f18 083e 2b4c c0be
00000360: a5ed 93bd bf43 4c3f e8e8 3fbd ca23 9fbe
00000370: 8a8e b73c cfc2 cabe 4f32 0e3e 0cd4 2fbe
00000380: 88dc fbbc 0b35 f13e 1fa1 49bc 9b2f fd3e
00000390: c8c5 1b3f 02bc 103f 5d65 a53e ef80 e13d
000003a0: 76a2 2a3e ca2c 953e 4edf 0d3f 5a07 de3e
000003b0: bebe a4bf 0260 ebbc 913e d63e 8f14 bbbe
000003c0: 4480 083e 9aac aabe caff 48bf 18cb 953e
000003d0: 5472 1ebe b998 353f 17cb f03c 7776 e33d
000003e0: f3d7 2f3e 0ad4 063f 9c66 d9be fe5d 22be
000003f0: 61b1 efbc a5ea 7c3c 149e 053f 8112 8bbe

network_body._body_endoder.seq_layers.0.bias f4 [128]
0.0 0.0 0.0 0.0 0.0 0.0 0.0 0.0
0.0 0.0 0.0 0.0 0.0 0.0 0.0 0.0
0.0 0.0 0.0 0.0 0.0 0.0 0.0 0.0
0.0 0.0 0.0 0.0 0.0 0.0 0.0 0.0
0.0 0.0 0.0 0.0 0.0 0.0 0.0 0.0
0.0 0.0 0.0 0.0 0.0 0.0 0.0 0.0
0.0 0.0 0.0 0.0 0.0 0.0 0.0 0.0
0.0 0.0 0.0 0.0 0.0 0.0 0.0 0.0
0.0 0.0 0.0 0.0 0.0 0.0 0.0 0.0
0.0 0.0 0.0 0.0 0.0 0.0 0.0 0.0
0.0 0.0 0.0 0.0 0.0 0.0 0.0 0.0
0.0 0.0 0.0 0.0 0.0 0.0 0.0 0.0
0.0 0.0 0.0 0.0 0.0 0.0 0.0 0.0
0.0 0.0 0.0 0.0 0.0 0.0 0.0 0.0
0.0 0.0 0.0 0.0 0.0 0.0 0.0 0.0
0.0 0.0 0.0 0.0 0.0 0.0 0.0 0.0
00000000: 0000 0000 0000 0000 0000 0000 0000 0000
00000010: 0000 0000 0000 0000 0000 0000 0000 0000
00000020: 0000 0000 0000 0000 0000 0000 0000 0000
00000030: 0000 0000 0000 0000 0000 0000 0000 0000
00000040: 0000 0000 0000 0000 0000 0000 0000 0000
00000050: 0000 0000 0000 0000 0000 0000 0000 0000
00000060: 0000 0000 0000 0000 0000 0000 0000 0000
00000070: 0000 0000 0000 0000 0000 0000 0000 0000
00000080: 0000 0000 0000 0000 0000 0000 0000 0000
00000090: 0000 0000 0000 0000 0000 0000 0000 0000
000000a0: 0000 0000 0000 0000 0000 0000 0000 0000
000000b0: 0000 0000 0000 0000 0000 0000 0000 0000
000000c0: 0000 0000 0000 0000 0000 0000 0000 0000
000000d0: 0000 0000 0000 0000 0000 0000 0000 0000
000000e0: 0000 0000 0000 0000 0000 0000 0000 0000
000000f0: 0000 0000 0000 0000 0000 0000 0000 0000
00000100: 0000 0000 0000 0000 0000 0000 0000 0000
00000110: 0000 0000 0000 0000 0000 0000 0000 0000
00000120: 0000 0000 0000 0000 0000 0000 0000 0000
00000130: 0000 0000 0000 0000 0000 0000 0000 0000
00000140: 0000 0000 0000 0000 0000 0000 0000 0000
00000150: 0000 0000 0000 0000 0000 0000 0000 0000
00000160: 0000 0000 0000 0000 0000 0000 0000 0000
00000170: 0000 0000 0000 0000 0000 0000 0000 0000
00000180: 0000 0000 0000 0000 0000 0000 0000 0000
00000190: 0000 0000 0000 0000 0000 0000 0000 0000
000001a0: 0000 0000 0000 0000 0000 0000 0000 0000
000001b0: 0000 0000 0000 0000 0000 0000 0000 0000
000001c0: 0000 0000 0000 0000 0000 0000 0000 0000
000001d0: 0000 0000 0000 0000 0000 0000 0000 0000
000001e0: 0000 0000 0000 0000 0000 0000 0000 0000
000001f0: 0000 0000 0000 0000 0000 0000 0000 0000

network_body._body_endoder.seq_layers.2.weight f4 [128, 128]
0.13546492 -0.04800793 -0.1269356 -0.10383689 -0.021049121 -0.110684626 0.05265942 -0.13595362
-0.06134697 -0.14624871 -0.024050282 -0.052163772 -0.05436749 -0.029355543 -0.25110206 0.04473751
-0.09228832 -0.041438803 -0.06367951 0.05388211 8.6616665e-06 0.03496068 -0.18828742 0.13640812
-0.022656694 0.07855574 -0.09961775 -0.14525276 -0.0741346 0.009044672 0.010926042 -0.038991198
0.038393356 -0.057462115 0.022431174 0.06600844 0.074831925 -0.06701673 -0.059504606 0.07522664
0.10422844 0.12125603 -0.005125653 -0.031564713 -0.123906076 -0.16998056 -0.043831453 0.061823573
-0.038408678 -0.11585088 0.15348497 -0.052104864 0.017776677 -0.05811738 0.053934768 0.19536698
-0.07154365 -0.08347975 0.00882606 -0.042825893 0.19954441 0.03581683 -0.013124541 0.007376031
-0.091038585 0.00025302832 -0.08900237 0.07467213 -0.07914523 -0.04995649 -0.009627862 0.11250539
0.12297628 -0.041374754 -0.0007358855 -0.0027796053 0.0918998 -0.14146067 0.0009877527 -0.19030282
0.07112326 0.08424323 0.10246505 0.055470247 0.13930804 0.12053747 0.13420609 -0.031707603
0.055447556 -0.0393073 0.04230257 0.10050922 0.07529925 0.040724367 0.047274392 0.07845836
-0.031351056 -0.09518122 0.01580111 0.038247142 -0.0942674 -0.19306809 0.009162997 -0.021480786
-0.015089118 0.0196012 0.03593478 0.20559923 -0.04268648 0.054472107 0.08886155 -0.058090184
0.14675862 0.045689575 0.025906807 -0.022769764 -0.00990845 0.14466384 0.21296214 0.080109775
-0.026470065 0.049578898 0.015658729 -0.008646642 -0.038765997 0.02125054 0.07584354 -0.097999536
0.0055049593 0.07036896 -0.14863431 -0.049122274 -0.11930618 0.07453228 -0.11684128 -0.03798096
-0.1340862 0.14581251 -0.023020387 -0.11275287 0.09704983 -0.30473134 -0.04093979 0.029323967
0.23872636 -0.0038097843 -0.057707157 -0.1314725 -0.041299295 -0.015803447 0.048153758 -0.07867031
0.0047760108 -0.22860225 0.008541114 -0.018195827 0.10833892 0.016192345 -0.008686753 0.047933556
-0.023002543 0.094453245 0.16019985 -0.020257171 0.19398963 -0.031092847 -0.16269992 0.034756847
0.03206976 -0.05215427 0.08912852 0.029980017 0.008852933 0.03145923 -0.16518919 0.04587162
-0.072836064 0.025295187 -0.07125101 -0.14368884 0.14737815 -0.0835787 -0.13713528 -0.036347203
0.14976758 0.109572224 -0.011912108 0.06620488 0.10439602 0.05158419 -0.015563114 0.13861106
-0.0022821266 0.19234234 -0.11874308 0.023579942 0.001678294 0.070072025 -0.03252334 -0.0032618241
-0.022759808 0.07834469 -0.007862953 -0.104036435 -0.0891958 0.051395025 -0.06481114 -0.027696243
0.053538077 0.057998404 -0.18042144 -0.010808261 0.2076626 -0.10478877 0.12981524 -0.07715924
-0.09902865 0.1249007 -0.10519163 -0.01670793 0.002328331 -0.0759974 -0.08959851 0.017764157
-0.14921078 0.15294687 -0.15391377 0.0053252084 0.04905933 0.0045953835 0.06801528 -0.07384477
0.041492514 0.035180584 -0.07195867 0.12418989 0.07924964 -0.107566066 0.0152354045 0.21218239
-0.0587768 -0.05083738 -0.016362961 -0.07306775 0.019220416 -0.061807893 0.1468513 0.017203234
0.11729015 -0.065449305 0.06104561 -0.048356004 -0.025113726 0.04351989 0.0031644583 -0.09458552
00000000: 51b7 0a3e f7a3 44bd 68fb 01be 6fa8 d4bd
00000010: 356f acbc 9fae e2bd 67b1 573d 6d37 0bbe
00000020: f646 7bbd 39c2 15be 1905 c5bc aea9 55bd
00000030: 72b0 5ebd 097b f0bc 7390 80be ae3e 373d
00000040: a901 bdbd bcbb 29bd 676a 82bd 7db3 5c3d
00000050: 9351 1137 ee32 0f3d 6bce 40be 92ae 0b3e
00000060: 889a b9bc d5e1 a03d 6404 ccbd 24bd 14be
00000070: e2d3 97bd 1b30 143c 2403 333c 3cb5 1fbd
00000080: 5a42 1d3d 655d 6bbd 95c1 b73c 6f2f 873d
00000090: 7b41 993d 1140 89bd 1abb 73bd 6d10 9a3d
000000a0: b875 d53d 1555 f83d 18f5 a7bb 004a 01bd
000000b0: 78c2 fdbd 620f 2ebe 9c88 33bd b73a 7d3d
000000c0: 6b52 1dbd 3a43 edbd 2a2b 1d3e e96b 55bd
000000d0: 65a0 913c 7d0c 6ebd b4ea 5c3d 480e 483e
000000e0: 7a85 92bd 6ef7 aabd 2e9b 103c 346a 2fbd
000000f0: 5f55 4c3e abb4 123d 5108 57bc a2b2 f13b
00000100: 7072 babd e3a8 8439 e046 b6bd b4ed 983d
00000110: e516 a2bd 2d9f 4cbd 2ebe 1dbc 3a69 e63d
00000120: fdda fb3d 9378 29bd 71e8 40ba 0a2a 36bb
00000130: f635 bc3d 11db 10be 7b77 813a bede 42be
00000140: 12a9 913d b787 ac3d 32d9 d13d c534 633d
00000150: c4a6 0e3e 59dc f63d 526d 093e d5df 01bd
00000160: fa1c 633d b100 21bd 7645 2d3d c7d7 cd3d
00000170: 7e36 9a3d 98ce 263d cba2 413d c7ae a03d
00000180: f769 00bd 5fee c2bd 5471 813c 09a9 1c3d
00000190: 440f c1bd a4b3 45be 6520 163c 79f8 afbc
000001a0: 5938 77bc b292 a03c 5930 133d 9b88 523e
000001b0: 05d8 2ebd 251e 5f3d 0bfd b53d f9ef 6dbd
000001c0: e447 163e fe24 3b3d 833a d43c a887 babc
000001d0: 0d57 22bc c222 143e bf12 5a3e 9810 a43d
000001e0: c0d7 d8bc 3e13 4b3d bc46 803c a5aa 0dbc
000001f0: 18c9 1ebd 9d15 ae3c dc53 9b3d fbb3 c8bd
00000200: f262 b43b 9a1d 903d 9833 18be 7034 49bd
00000210: cc56 f4bd 61a4 983d 7b4a efbd ec91 1bbd
00000220: e54d 09be e04f 153e 4095 bcbc faea e6bd
00000230: 10c2 c63d bf05 9cbe 7bb0 27bd d138 f03c
00000240: af74 743e 93ad 79bb 575e 6cbd baa0 06be
00000250: 7329 29bd 3b76 81bc e03c 453d e61d a1bd
00000260: 1580 9c3b b516 6abe 07f0 0b3c 6a0f 95bc
00000270: cce0 dd3d cfa5 843c e252 0ebc fa55 443d
00000280: d46f bcbc b470 c13d 6e0b 243e 5ef2 a5bc
00000290: 38a5 463e 6db6 febc cf9a 26be 325d 0e3d
000002a0: 955b 033d b79f 55bd 0389 b63d a798 f53c
000002b0: e40b 113c 65db 003d 5b27 29be e1e3 3b3d
000002c0: 132b 95bd da37 cf3c 0dec 91bd 2b23 13be
000002d0: 4cea 163e 4f2b abbd 316d 0cbe cee0 14bd
000002e0: ac5c 193e 6767 e03d 012b 43bc 6d96 873d
000002f0: 95cd d53d f249 533d 6efc 7ebc 0ff0 0d3e
00000300: bb8f 15bb 64f5 443e 922f f3bd b92a c13c
00000310: 34fa db3a ec81 8f3d 3237 05bd 54c4 55bb
00000320: c772 babc 2e73 a03d 9dd3 00bc 0e11 d5bd
00000330: 4aac b6bd 9783 523d b4bb 84bd 3be3 e2bc
00000340: be4a 5b3d bc8f 6d3d 66c0 38be 2215 31bc
00000350: 81a5 543e 7f9b d6bd 49ee 043e aa05 9ebd
00000360: 88cf cabd f0cb ff3d b66e d7bd 12df 88bc
00000370: e996 183b 86a4 9bbd 6c7f b7bd 2386 913c
00000380: b6ca 18be 1b9e 1c3e 929b 1dbe 167f ae3b
00000390: 70f2 483d df94 963b 984b 8b3d ed3b 97bd
000003a0: 0ef4 293d 8419 103d 115f 93bd 4557 fe3d
000003b0: a34d a23d 994b dcbd eb9d 793c 5746 593e
000003c0: f1bf 70bd db3a 50bd 9e0b 86bc 8ba4 95bd
000003d0: 2274 9d3c 462a 7dbd 3060 163e cced 8c3c
000003e0: d135 f03d 490a 86bd f60a 7a3d f210 46bd
000003f0: 4dbb cdbc ea41 323d cd62 4f3b 0eb6 c1bd

network_body._body_endoder.seq_layers.2.bias f4 [128]
0.0 0.0 0.0 0.0 0.0 0.0 0.0 0.0
0.0 0.0 0.0 0.0 0.0 0.0 0.0 0.0
0.0 0.0 0.0 0.0 0.0 0.0 0.0 0.0
0.0 0.0 0.0 0.0 0.0 0.0 0.0 0.0
0.0 0.0 0.0 0.0 0.0 0.0 0.0 0.0
0.0 0.0 0.0 0.0 0.0 0.0 0.0 0.0
0.0 0.0 0.0 0.0 0.0 0.0 0.0 0.0
0.0 0.0 0.0 0.0 0.0 0.0 0.0 0.0
0.0 0.0 0.0 0.0 0.0 0.0 0.0 0.0
0.0 0.0 0.0 0.0 0.0 0.0 0.0 0.0
0.0 0.0 0.0 0.0 0.0 0.0 0.0 0.0
0.0 0.0 0.0 0.0 0.0 0.0 0.0 0.0
0.0 0.0 0.0 0.0 0.0 0.0 0.0 0.0
0.0 0.0 0.0 0.0 0.0 0.0 0.0 0.0
0.0 0.0 0.0 0.0 0.0 0.0 0.0 0.0
0.0 0.0 0.0 0.0 0.0 0.0 0.0 0.0
00000000: 0000 0000 0000 0000 0000 0000 0000 0000
00000010: 0000 0000 0000 0000 0000 0000 0000 0000
00000020: 0000 0000 0000 0000 0000 0000 0000 0000
00000030: 0000 0000 0000 0000 0000 0000 0000 0000
00000040: 0000 0000 0000 0000 0000 0000 0000 0000
00000050: 0000 0000 0000 0000 0000 0000 0000 0000
00000060: 0000 0000 0000 0000 0000 0000 0000 0000
00000070: 0000 0000 0000 0000 0000 0000 0000 0000
00000080: 0000 0000 0000 0000 0000 0000 0000 0000
00000090: 0000 0000 0000 0000 0000 0000 0000 0000
000000a0: 0000 0000 0000 0000 0000 0000 0000 0000
000000b0: 0000 0000 0000 0000 0000 0000 0000 0000
000000c0: 0000 0000 0000 0000 0000 0000 0000 0000
000000d0: 0000 0000 0000 0000 0000 0000 0000 0000
000000e0: 0000 0000 0000 0000 0000 0000 0000 0000
000000f0: 0000 0000 0000 0000 0000 0000 0000 0000
00000100: 0000 0000 0000 0000 0000 0000 0000 0000
00000110: 0000 0000 0000 0000 0000 0000 0000 0000
00000120: 0000 0000 0000 0000 0000 0000 0000 0000
00000130: 0000 0000 0000 0000 0000 0000 0000 0000
00000140: 0000 0000 0000 0000 0000 0000 0000 0000
00000150: 0000 0000 0000 0000 0000 0000 0000 0000
00000160: 0000 0000 0000 0000 0000 0000 0000 0000
00000170: 0000 0000 0000 0000 0000 0000 0000 0000
00000180: 0000 0000 0000 0000 0000 0000 0000 0000
00000190: 0000 0000 0000 0000 0000 0000 0000 0000
000001a0: 0000 0000 0000 0000 0000 0000 0000 0000
000001b0: 0000 0000 0000 0000 0000 0000 0000 0000
000001c0: 0000 0000 0000 0000 0000 0000 0000 0000
000001d0: 0000 0000 0000 0000 0000 0000 0000 0000
000001e0: 0000 0000 0000 0000 0000 0000 0000 0000
000001f0: 0000 0000 0000 0000 0000 0000 0000 0000

action_model._continuous_distribution.log_sigma f4 [1, 2]
0.0 0.0
00000000: 0000 0000 0000 0000

action_model._continuous_distribution.mu.weight f4 [2, 128]
0.005252251 -0.006640253 0.013215187 0.01729729 0.019067403 0.019438332 0.008427051 -0.012791032
0.023417318 0.03865266 -0.017096672 0.009627743 0.00553011 0.014260183 -0.0066584037 -0.0115383845
0.013175838 -0.026794577 0.035818275 0.011527661 0.0017731994 -0.015775187 0.011621108 0.028497731
-0.037397735 -0.0007442803 0.029845132 -0.0047447956 0.019460825 -0.012714629 -0.0016451649 0.006724523
-0.0047567086 -0.0025320328 0.006637705 0.014316777 -0.010004218 0.01225059 -0.015492496 -0.018708473
0.007231982 -0.013417857 -0.0036566972 0.018734148 0.022377351 0.011230735 0.0031536259 0.013549628
-0.035531875 -0.003810659 0.027674744 0.030542878 0.016069409 -0.016516332 -0.0005594949 -0.010434762
0.010266767 0.011891026 -0.026225576 0.004124434 -0.020150054 -0.0045102565 0.0002759637 -0.0048288777
-0.0079519 -0.03006923 0.009211568 -0.008821405 -0.034590937 0.0016582307 -0.027754387 -0.0015005232
-0.03146083 0.013325295 0.036817532 0.035041846 -0.018105106 -0.014143884 -0.017465232 -0.015381709
0.016336914 -0.028683318 -0.013995609 0.00043352452 0.033609618 0.017630825 -0.015388777 -0.014687009
0.02129748 -0.015037104 0.019229772 0.00514706 0.012239705 0.010759863 0.02404414 0.014970063
0.02229359 -0.009922407 -0.030622682 -0.008396102 0.021675115 0.023765529 0.012240095 0.01973303
0.005300406 0.011363353 0.014683231 0.0074910796 0.005196545 0.0048636706 -0.00864081 0.0051858644
-0.019574583 0.027287915 -0.0201189 -0.012869579 -0.015849879 0.019483753 0.020267002 -0.0044474616
-0.0023330837 -0.008082784 0.026489204 0.019615639 -0.0044705765 -0.018864887 0.0052138395 -0.032641605
-0.016707266 -0.0026405004 0.010037913 -0.018794788 0.012991795 0.0044634454 -0.02199024 -0.007117194
0.02726002 0.009770978 -0.006516089 0.0017701738 0.013570927 -0.0040633893 0.01211742 -0.0019868936
0.008008647 -0.021438314 -0.01449832 0.0015417308 -0.020346267 -0.01222594 0.0068142833 0.021448566
0.0022380764 0.007312115 -0.002911804 -0.009842052 -0.010550433 -0.00035351553 0.025829924 -0.005894746
-0.027852088 -0.026622495 -0.03115694 0.011346944 -0.016635621 0.026736245 0.020154813 0.028781345
0.018758377 -0.0007727996 0.012602416 0.019220075 -0.008501998 -0.013829139 -0.01719475 0.016200626
-0.03847667 -0.03309388 0.012767511 -0.022842607 0.012576443 0.014916944 0.0017463708 0.013917324
0.0070561357 0.020663276 -0.007928262 0.0039520836 -0.0026688445 0.008840692 0.016737368 -0.028565211
0.014418505 -0.004756387 0.005340205 0.0011664226 0.007719844 -0.013195366 0.0067137512 -0.0067794356
0.0053818794 0.04561023 0.020258432 0.03502819 0.0018285209 0.012639894 0.0070915218 -0.00048149863
0.01699982 0.024287311 -0.03598096 0.004573352 0.0036134967 0.0067154965 -0.020311018 -0.0150625175
-0.02617595 -0.013083962 -0.016064133 0.0065350495 -0.02438177 -0.015328116 -0.008586423 0.00047391476
-0.006129913 -0.024470473 -0.031356327 -0.0073856856 0.0120730605 -0.031835392 -0.0063898265 -0.008839699
0.0006348749 0.007732828 0.0035139085 -0.001991437 0.020098573 -0.0022822125 -0.047762316 -0.006862934
-0.02502049 0.015726073 0.0045452216 0.004154597 -0.018293189 0.0076406966 0.00907066 -0.012409208
0.0048050876 -0.010631256 -0.032605957 0.016024573 -0.0041502668 0.008597616 0.00068970135 0.009452689
00000000: 131b ac3b 7b96 d9bb 8384 583c 0cb3 8d3c
00000010: 3e33 9c3c 233d 9f3c 9d11 0a3c 7a91 51bc
00000020: add5 bf3c 4052 1e3d 520e 8cbc aebd 1d3c
00000030: ed35 b53b 8ba3 693c bd2e dabb 7e0b 3dbc
00000040: 78df 573c 4d80 dbbc 2fb6 123d 84de 3c3c
00000050: b36a e83a f73a 81bc 7666 3e3c 1374 e93c
00000060: 5e2e 19bd ce1b 43ba c77d f43c 3b7a 9bbb
00000070: 4f6c 9f3c 0551 50bc 93a2 d7ba 6359 dc3b
00000080: 2ade 9bbb 76f0 25bb 1b81 d93b ea90 6a3c
00000090: bbe8 23bc b3b6 483c 3dd4 7dbc 8342 99bc
000000a0: 43fa ec3b 92d6 5bbc 33a5 6fbb 5b78 993c
000000b0: b550 b73c 1e01 383c 10ad 4e3b 42ff 5d3c
000000c0: df89 11bd 40bc 79bb 25b6 e23c 0f35 fa3c
000000d0: fea3 833c 424d 87bc 11ab 12ba 90f6 2abc
000000e0: f135 283c 94d2 423c 05d7 d6bc 4326 873b
000000f0: ba11 a5bc c6ca 93bb 39af 9039 903b 9ebb
00000100: b048 02bc bf53 f6bc 1eec 163c a787 10bc
00000110: 3aaf 0dbd fd58 d93a 2b5d e3bc 34ad c4ba
00000120: 12dd 00bd 5752 5a3c fbcd 163d 0a88 0f3d
00000130: 2951 94bc c0bb 67bc 3f13 8fbc 9003 7cbc
00000140: fed4 853c 47f9 eabc d74d 65bc ad4a e339
00000150: 3daa 093d 856e 903c 3521 7cbc c8a1 70bc
00000160: 0e78 ae3c 2f5e 76bc c187 9d3c aba8 a83b
00000170: 0b89 483c 234a 303c 37f8 c43c ff44 753c
00000180: 0ca1 b63c 9791 22bc 6bdc fabc ce8f 09bc
00000190: 0390 b13c edaf c23c ae8a 483c 2aa7 a13c
000001a0: 07af ad3b 5b2d 3a3c ef91 703c bb77 f53b
000001b0: c747 aa3b 6d5f 9f3b 2f92 0dbc 2fee a93b
000001c0: e05a a0bc e88a df3c 64d0 a4bc edda 52bc
000001d0: 9bd7 81bc 649c 9f3c fc06 a63c 03bc 91bb
000001e0: a6e6 18bb a76d 04bc e3ff d83c fab0 a03c
000001f0: ea7d 92bb 898a 9abc dbd8 aa3b 34b3 05bd
00000200: addd 88bc 3f0c 2dbb 0f76 243c 87f7 99bc
00000210: 8adb 543c 1842 923b e024 b4bc 5a37 e9bb
00000220: 6850 df3c 7416 203c eb84 d5bb 2d05 e83a
00000230: 9858 5e3c 2e26 85bb 2588 463c 8b36 02bb
00000240: b336 033c 679f afbc 5d8a 6dbc e713 ca3a
00000250: 37ad a6bc 4f4f 48bc 5a4a df3b e7b4 af3c
00000260: b1ac 123b 779a ef3b f7d3 3ebb 8f40 21bc
00000270: b9db 2cbc 0d58 b9b9 4799 d33c b728 c1bb
00000280: 102a e4bc 6b17 dabc d73c ffbc 88e8 393c
00000290: 6d47 88bc f805 db3c b51b a53c dbc6 eb3c
000002a0: 2bab 993c b495 4aba 5d7a 4e3c 6b73 9d3c
000002b0: f74b 0bbc 9d93 62bc 01dc 8cbc 2db7 843c
000002c0: b699 1dbd 738d 07bd d32e 513c 6b20 bbbc
000002d0: 6d0d 4e3c 3366 743c 7be6 e43a 7d05 643c
000002e0: 2837 e73b 0846 a93c 8be5 01bc 7b80 813b
000002f0: c8e7 2ebb 8dd8 103c ce1c 893c 9701 eabc
00000300: 983b 6c3c 77db 9bbb e3fc ae3b a6e2 983a
00000310: bff6 fc3b 6031 58bc 07ff db3b 0726 debb
00000320: 7a5a b03b cbd1 3a3d 03f5 a53c b879 0f3d
00000330: fbaa ef3a 8f17 4f3c ff5f e83b a771 fcb9
00000340: 3543 8b3c 2ff6 c63c c560 13bd 0fdc 953b
00000350: 6ad0 6c3b ab0d dc3b 4b63 a6bc c7c8 76bc
00000360: f26e d6bc 1d5e 56bc ee98 83bc f823 d63b
00000370: 47bc c7bc c722 7bbc 11ae 0cbc c377 f839
00000380: 70dd c8bb 4d76 c8bc 7e6f 00bd 9f03 f2bb
00000390: 16ce 453c d465 02bd c061 d1bb 63d4 10bc
000003a0: bc6d 263a aa63 fd3b 9a49 663b c582 02bb
000003b0: c3a5 a43c 2c91 15bb 6ba2 43bd 77e2 e0bb
000003c0: c5f7 ccbc f7d3 803c 15f0 943b 4923 883b
000003d0: 99db 95bc cf5e fa3b 1b9d 143c fe4f 4bbc
000003e0: ff73 9d3b b82e 2ebc d38d 05bd f745 833c
000003f0: f6fe 87bb 04dd 0c3c 13cd 343a 74df 1a3c

action_model._continuous_distribution.mu.bias f4 [2]
0.0 0.0
00000000: 0000 0000 0000 0000

network_body._body_endoder.seq_layers.0.weight f4 [128, 6]
-0.36411837 0.28933385 -0.64216447 1.1466881 0.0038829579 0.0887793 0.25448227 0.46672836
-0.32610917 0.4194933 -0.23722741 0.08498679 -0.660318 -0.20926154 0.5444733 -0.09078293
-1.1895771 0.5266754 0.17136179 0.3114897 -0.23404387 -0.06912746 -0.14916392 0.4642714
0.07103157 0.18501145 0.34048128 -0.071479976 -0.29196426 -0.13299969 0.40025932 -0.1338866
-0.18219587 0.3209109 -0.13986611 -0.3218607 -0.03458746 0.4337996 -0.46447483 -0.12636334
0.5715355 -0.3118118 -0.8041992 -0.12858221 -0.4522379 0.44843152 0.587948 0.08942027
0.38902563 0.15148118 0.27766368 -0.3098412 -0.14379063 -0.05368063 -1.0248659 0.24654189
-0.03523749 0.21094267 -0.15724552 -0.5801958 -0.27923784 -0.45983902 -0.6740194 0.20758066
-0.26860657 0.13150632 -0.09536574 -0.19751157 -0.032490328 -0.10574668 0.022289835 -0.77599406
-0.30040908 0.66057247 0.31101814 0.33720627 -0.04488657 0.303333 0.21973546 0.11901347
0.13838945 -0.11659449 -0.102552325 -0.50284106 0.34620437 -0.38815203 -0.8817309 0.016871905
0.09042204 -0.43867064 0.110971265 0.46877083 -0.28801468 0.4565251 0.18862376 -0.034893226
0.2262731 0.040297978 -0.43807802 0.48162884 -0.25308895 0.38780245 0.38005567 0.14503105
-0.37706268 0.29109144 -0.52297336 0.3278614 -0.48835582 -0.07896906 -0.3167213 0.10047214
-0.42156407 -0.06254111 -0.32902423 0.009317437 -0.46664646 -0.5008214 0.9449954 -0.1837378
0.058634922 0.21427543 0.12048022 0.73953676 -0.91146314 0.19940118 -0.54286444 0.1547039
-0.6530949 -0.1375218 0.1135031 -0.3597516 -1.1359583 -0.49071375 0.36990455 -0.20253508
-0.4854157 -0.26925188 -0.048761085 0.06863278 -0.5704226 -0.04868923 0.21109411 -0.14595006
0.0001832664 0.15552206 0.9806716 0.49624002 -0.0287653 -0.36680904 -0.017867621 0.240122
-0.3371307 0.09526797 -0.5495177 0.03467294 0.041422095 -0.28629422 -0.8630881 -0.16940871
-0.2593031 0.21081574 0.16857728 0.28021464 0.44598913 -0.05698404 -0.14344634 -0.49374512
0.06577054 0.156749 -0.19508041 0.70549417 -0.22222924 -0.6392382 0.07129241 0.7534507
0.7611245 0.7595776 0.074578725 0.19131762 -0.45103025 0.12116684 0.13798016 -0.059946604
-0.42088047 -0.18252808 -0.267742 0.32344273 0.087939605 -0.089365736 -0.2213937 0.46437326
0.0524086 -0.42840758 0.46315017 -0.041557718 -0.60297656 -0.3501597 -0.092928015 0.6665906
-0.35863766 0.24776827 -0.13461262 0.38199747 -0.17666347 -1.0913479 -0.51069057 -0.06338875
-0.18964888 0.22162892 -0.13970803 0.19146182 -0.07140363 -0.28271964 0.3210719 0.83480024
0.036711577 -0.16422947 -0.5979359 0.32256594 -0.16874161 -0.4790666 0.6634304 0.116484515
-0.27300516 0.13521148 -0.06423205 0.33530802 0.16850516 -0.39303577 -0.65107095 0.045518856
-0.6139114 0.44739977 0.47859976 -0.40028486 0.09513384 -0.15511642 -1.1593937 -0.102331035
-0.2516084 -0.07746394 0.3084692 0.29191706 -0.66658235 -0.1329294 0.05421268 -0.38095793
-0.082169615 0.56794167 0.33660433 -0.09019225 -0.30023605 0.14344811 -0.40573952 0.6138423
00000000: b96d babe 9123 943e e464 24bf adc6 923f
00000010: 3979 7e3b ecd1 b53d 804b 823e 05f7 ee3e
00000020: c8f7 a6be d3c7 d63e beeb 72be 8e0d ae3d
00000030: 9a0a 29bf a848 56be 9a62 0b3f 67ec b9bd
00000040: 1044 98bf 33d4 063f 7779 2f3e 947b 9f3e
00000050: 32a9 6fbe b392 8dbd 6dbe 18be fbb4 ed3e
00000060: 0079 913d a473 3d3e 9053 ae3e 1864 92bd
00000070: 577c 95be 1231 08be caee cc3e 9219 09be
00000080: 8e91 3abe 6f4e a43e 1039 0fbe edca a4be
00000090: 95ab 0dbd fb1a de3e a5cf edbe 6465 01be
000000a0: 2750 123f cca5 9fbe 00e0 4dbf 0eab 03be
000000b0: ba8b e7be d198 e53e c383 163f f921 b73d
000000c0: 5e2e c73e e21d 1b3e ef29 8e3e 81a3 9ebe
000000d0: da3d 13be 38e0 5bbd ce2e 83bf 7a75 7c3e
000000e0: 3055 10bd 5b01 583e f804 21be b687 14bf
000000f0: 43f8 8ebe 0570 ebbe 898c 2cbf 0690 543e
00000100: cd86 89be 98a9 063e 1d4f c3bd 7940 4abe
00000110: 9414 05bd b791 d8bd 2c99 b63c 8ca7 46bf
00000120: 38cf 99be 471b 293f c53d 9f3e 4da6 ac3e
00000130: fbda 37bd 774e 9b3e 5502 613e 56bd f33d
00000140: f7b5 0d3e 18c9 eebd f406 d2bd 31ba 00bf
00000150: b341 b13e ddbb c6be 1eb9 61bf f336 8a3c
00000160: 312f b93d 7099 e0be e744 e33d bb02 f03e
00000170: a976 93be a8bd e93e 9626 413e 33ec 0ebd
00000180: 23b4 673e 7e0f 253d c34b e0be 0e98 f63e
00000190: e094 81be 0b8e c63e a896 c23e 0583 143e
000001a0: 5c0e c1be f009 953e 95e1 05bf 73dd a73e
000001b0: c609 fabe 88ba a1bd 4b29 a2be 56c4 cd3d
000001c0: 3fd7 d7be 8e15 80bd dd75 a8be 2aa8 183c
000001d0: 49ec eebe d535 00bf 38eb 713f c325 3cbe
000001e0: 2c2b 703d 056b 5b3e 55be f63d 4852 3d3f
000001f0: a655 69bf d32f 4c3e 2af9 0abf b36a 1e3e
00000200: 3a31 27bf 84d2 0cbe 5074 e83d 5d31 b8be
00000210: 1567 91bf d53e fbbe 2164 bd3e 5b65 4fbe
00000220: 6888 f8be 62db 89be b4b9 47bd 588f 8c3d
00000230: 3707 12bf 5c6e 47bd 0e29 583e ef73 15be
00000240: 332b 4039 2d41 1f3e 4b0d 7b3f 2c13 fe3e
00000250: 35a5 ebbc 65ce bbbe 1e5f 92bc 8be2 753e
00000260: 659c acbe da1b c33d 31ad 0cbf 3605 0e3d
00000270: 37aa 293d 2895 92be 57f3 5cbf 7a79 2dbe
00000280: 60c3 84be 15e0 573e 869f 2c3e 4b78 8f3e
00000290: b058 e43e 1968 69bd 99e3 12be 29cc fcbe
000002a0: b4b2 863d cf82 203e 29c3 47be 449b 343f
000002b0: 1090 63be 1da5 23bf c101 923d 25e2 403f
000002c0: 0ed9 423f ad73 423f bbbc 983d c4e8 433e
000002d0: 70ed e6be 5226 f83d ac4a 0d3e 928a 75bd
000002e0: a57d d7be a4e8 3abe 7b15 89be 499a a53e
000002f0: ae19 b43d 6205 b7bd 08b5 62be 55c2 ed3e
00000300: 66aa 563d 3d58 dbbe 0522 ed3e 6d38 2abd
00000310: ac5c 1abf 2248 b3be 0b51 bebd aea5 2a3f
00000320: 5b9f b7be f7b6 7d3e e4d7 09be 2c95 c33e
00000330: 45e7 34be 4ab1 8bbf 9ebc 02bf f6d1 81bd
00000340: 5133 42be b1f2 623e 9f0f 0fbe 910e 443e
00000350: 113c 92bd a1c0 90be 8963 a43e 78b5 553f
00000360: e15e 163d c52b 28be 5412 19bf 5d27 a53e
00000370: 9aca 2cbe 3848 f5be 93d6 293f 6f8f ee3d
00000380: 55c7 8bbe e174 0a3e 188c 83bd 7ead ab3e
00000390: 9e8c 2c3e fc3b c9be 96ac 26bf fb71 3a3d
000003a0: 4c29 1dbf 9511 e53e 070b f53e 23f2 ccbe
000003b0: 88d5 c23d d7d6 1ebe 0367 94bf ef92 d1bd
000003c0: d1d2 80be 6aa5 9ebd adef 9d3e 2776 953e
000003d0: 24a5 2abf a51e 08be 1d0e 5e3d eb0c c3be
000003e0: 8b48 a8bd a064 113f 6757 ac3e b7b6 b8bd
000003f0: 8ab8 99be 10e4 123e 17bd cfbe c524 1d3f

network_body._body_endoder.seq_layers.0.bias f4 [128]
0.0 0.0 0.0 0.0 0.0 0.0 0.0 0.0
0.0 0.0 0.0 0.0 0.0 0.0 0.0 0.0
0.0 0.0 0.0 0.0 0.0 0.0 0.0 0.0
0.0 0.0 0.0 0.0 0.0 0.0 0.0 0.0
0.0 0.0 0.0 0.0 0.0 0.0 0.0 0.0
0.0 0.0 0.0 0.0 0.0 0.0 0.0 0.0
0.0 0.0 0.0 0.0 0.0 0.0 0.0 0.0
0.0 0.0 0.0 0.0 0.0 0.0 0.0 0.0
0.0 0.0 0.0 0.0 0.0 0.0 0.0 0.0
0.0 0.0 0.0 0.0 0.0 0.0 0.0 0.0
0.0 0.0 0.0 0.0 0.0 0.0 0.0 0.0
0.0 0.0 0.0 0.0 0.0 0.0 0.0 0.0
0.0 0.0 0.0 0.0 0.0 0.0 0.0 0.0
0.0 0.0 0.0 0.0 0.0 0.0 0.0 0.0
0.0 0.0 0.0 0.0 0.0 0.0 0.0 0.0
0.0 0.0 0.0 0.0 0.0 0.0 0.0 0.0
00000000: 0000 0000 0000 0000 0000 0000 0000 0000
00000010: 0000 0000 0000 0000 0000 0000 0000 0000
00000020: 0000 0000 0000 0000 0000 0000 0000 0000
00000030: 0000 0000 0000 0000 0000 0000 0000 0000
00000040: 0000 0000 0000 0000 0000 0000 0000 0000
00000050: 0000 0000 0000 0000 0000 0000 0000 0000
00000060: 0000 0000 0000 0000 0000 0000 0000 0000
00000070: 0000 0000 0000 0000 0000 0000 0000 0000
00000080: 0000 0000 0000 0000 0000 0000 0000 0000
00000090: 0000 0000 0000 0000 0000 0000 0000 0000
000000a0: 0000 0000 0000 0000 0000 0000 0000 0000
000000b0: 0000 0000 0000 0000 0000 0000 0000 0000
000000c0: 0000 0000 0000 0000 0000 0000 0000 0000
000000d0: 0000 0000 0000 0000 0000 0000 0000 0000
000000e0: 0000 0000 0000 0000 0000 0000 0000 0000
000000f0: 0000 0000 0000 0000 0000 0000 0000 0000
00000100: 0000 0000 0000 0000 0000 0000 0000 0000
00000110: 0000 0000 0000 0000 0000 0000 0000 0000
00000120: 0000 0000 0000 0000 0000 0000 0000 0000
00000130: 0000 0000 0000 0000 0000 0000 0000 0000
00000140: 0000 0000 0000 0000 0000 0000 0000 0000
00000150: 0000 0000 0000 0000 0000 0000 0000 0000
00000160: 0000 0000 0000 0000 0000 0000 0000 0000
00000170: 0000 0000 0000 0000 0000 0000 0000 0000
00000180: 0000 0000 0000 0000 0000 0000 0000 0000
00000190: 0000 0000 0000 0000 0000 0000 0000 0000
000001a0: 0000 0000 0000 0000 0000 0000 0000 0000
000001b0: 0000 0000 0000 0000 0000 0000 0000 0000
000001c0: 0000 0000 0000 0000 0000 0000 0000 0000
000001d0: 0000 0000 0000 0000 0000 0000 0000 0000
000001e0: 0000 0000 0000 0000 0000 0000 0000 0000
000001f0: 0000 0000 0000 0000 0000 0000 0000 0000

network_body._body_endoder.seq_layers.2.weight f4 [128, 128]
0.019371986 0.20064652 -0.09667129 0.04997506 0.0005776088 0.010464371 0.1663238 0.08545309
-0.010046303 -0.077923834 0.18027404 -0.016747786 0.060127657 0.21175 0.09981008 -0.019886704
0.04157537 -0.047863983 -0.07097537 -0.04276404 0.0036001452 0.08546259 0.05031482 -0.022838453
-0.06032115 -0.06362917 -0.10684057 0.058021538 0.04725398 -0.010276099 0.056542724 0.036982693
0.0021181803 0.24443483 0.09247001 -0.07782423 0.07678404 0.12117626 0.044674125 0.18458982
-0.074294284 0.14738287 -0.026400117 -0.14392842 -0.044457 0.07896382 0.02102781 0.033621088
-0.02894567 0.03265007 0.03161963 -0.11990694 0.12030551 0.05795137 0.07115137 -0.12639344
0.08648003 -0.13362059 -0.12809366 -0.010203103 -0.004175902 0.010374644 0.07363301 -0.10945434
-0.03836047 -0.09025141 0.16630827 -0.012234609 -0.18611783 -0.0051038563 0.011120659 0.053080298
0.0035340039 -0.112612486 0.033479866 0.06723593 0.03288314 0.36349154 -0.010229107 -0.054560892
-0.010058086 -0.026299156 -0.04543029 -0.101969756 0.005138866 -0.028556028 0.039447732 -0.10867719
-0.09831115 0.05162348 -0.09627956 -0.07710813 -0.048969235 0.010817183 -0.033820912 0.024297811
0.069175266 -0.013994116 0.06971539 -0.034950517 0.09835379 0.13689625 0.05392754 -0.04439415
-0.04514499 -0.09820623 0.010495849 -0.072599016 -0.096987806 0.0337224 -0.06866306 -0.029730715
-0.08026843 0.00799491 0.03092429 -0.20386043 0.122255445 -0.12229609 -0.042387903 0.008552345
-0.1612894 -0.05500826 -0.1478322 0.08463419 0.048184965 0.050959118 0.013605532 0.08601771
-0.19531679 -0.0014957086 0.032022 -0.005531839 0.09214608 -0.04582113 0.106829435 0.062323004
0.15910542 -0.11837432 0.061381053 -0.04570503 -0.0794482 0.10070984 -0.044906978 0.057609603
-0.0008873069 0.06708925 0.10367902 -0.06573607 0.042749006 -0.09356499 -0.017470501 0.062050395
-0.094835415 -0.034578964 -0.042504795 0.0697833 -0.11996595 0.062483244 -0.1613013 0.0072173863
-0.06952837 0.043376442 -0.04442315 0.15124135 -0.0993842 -0.08005287 -0.16913448 0.054397725
0.017794438 0.03444561 0.044714604 0.051742274 0.0036821782 0.032801267 -0.16668616 0.10736543
0.017631881 0.0005435164 -0.016067773 -0.10056652 -0.00838111 0.02492576 -0.019637454 -0.16394651
0.044303406 0.016475258 -0.08529077 -0.041387837 0.19381016 -0.06801379 -0.012383679 -0.08789108
-0.051479746 0.10595126 -0.26470658 -0.15136175 0.038405307 0.029159548 0.13256717 -0.14471436
-0.022425631 0.11790509 0.12421001 -0.12301667 -0.07339351 0.07890864 -0.13346331 0.010851102
0.027139928 -0.17617519 0.049763627 0.041698832 0.090421855 0.114680834 -0.023376327 -0.034786694
-0.020282365 -0.10534531 0.03508923 -0.058399584 0.018237831 -0.006185981 -0.009488174 -0.026785942
0.01560018 -0.10674139 -0.10751192 -0.07854823 -0.04011514 -0.008230277 -0.06255352 -0.011310734
-0.024545474 0.07409063 0.035664257 0.12516928 -0.12756117 -0.009512421 -0.1175142 0.021430727
-0.018406013 -0.018323304 0.15149741 0.010687541 -0.1580454 0.0056876675 -0.0040548844 0.005380194
-0.091363735 -0.090009935 -0.04664282 0.094153866 0.09164492 0.04462176 0.07193086 -0.23098424
00000000: 00b2 9e3c 4876 4d3e 99fb c5bd a6b2 4c3d
00000010: ac6a 173a c172 2b3c c950 2a3e 0802 af3d
00000020: 4099 24bc 8896 9fbd c299 383e a732 89bc
00000030: 6b48 763d fed4 583e 3a69 cc3d 71e9 a2bc
00000040: ef4a 2a3d 060d 44bd 895b 91bd 5929 2fbd
00000050: 6af0 6b3b 0307 af3d ea16 4e3d b517 bbbc
00000060: 4f13 77bd 0350 82bd 3bcf dabd fea7 6d3d
00000070: 648d 413d 155d 28bc 5899 673d 2a7b 173d
00000080: 2bd1 0a3b 204d 7a3e eb60 bd3d 4f62 9fbd
00000090: f340 9d3d 422b f83d 37fc 363d 1d05 3d3e
000000a0: 9a27 98bd 89eb 163e 0f45 d8bc f961 13be
000000b0: 8b18 36bd c9b7 a13d 8442 ac3c 44b6 093d
000000c0: 781f edbc 14bc 053d 9683 013d c591 f5bd
000000d0: bc62 f63d 6a5e 6d3d cfb7 913d 486d 01be
000000e0: 711c b13d d6d3 08be fc2a 03be ea2a 27bc
000000f0: 01d6 88bb 69fa 293c e7cc 963d 9929 e0bd
00000100: de1f 1dbd bbd5 b8bd b74c 2a3e ab73 48bc
00000110: ac95 3ebe 403e a7bb 6d33 363c ba6a 593d
00000120: bf9a 673b 60a1 e6bd 2f22 093d feb2 893d
00000130: 79b0 063d 901b ba3e fc97 27bc 3e7b 5fbd
00000140: acca 24bc 5471 d7bc 1d15 3abd 85d5 d0bd
00000150: ef63 a83b 55ee e9bc f293 213d 2692 debd
00000160: 5b57 c9bd 2473 533d 382e c5bd deea 9dbd
00000170: f793 48bd 8e3a 313c cc87 0abd 340c c73c
00000180: c3ab 8d3d 9447 65bc f1c6 8e3d 4628 0fbd
00000190: b66d c93d 882e 0c3e 20e3 5c3d a4d6 35bd
000001a0: f4e9 38bd 5920 c9bd c8f6 2b3c cbae 94bd
000001b0: 8ba1 c6bd 8020 0a3d 389f 8cbd d48d f3bc
000001c0: c663 a4bd 15fd 023c f054 fd3c cac0 50be
000001d0: 1061 fa3d 5f76 fabd f09e 2dbd 231f 0c3c
000001e0: 0c29 25be 5750 61bd 5361 17be b154 ad3d
000001f0: 995d 453d 82ba 503d bde9 5e3c 0e2a b03d
00000200: 2001 48be a70b c4ba 8029 033d 6e44 b5bb
00000210: 16b7 bc3d f0ae 3bbd 64c9 da3d 6846 7f3d
00000220: 88ec 223e 3c6e f2bd b36a 7b3d 3335 3bbd
00000230: bdb5 a2bd f640 ce3d 61f0 37bd 0cf8 6b3d
00000240: 289a 68ba 1766 893d ab55 d43d a2a0 86bd
00000250: 9519 2f3d 009f bfbd 4c1e 8fbc 8e28 7e3d
00000260: 1239 c2bd aca2 0dbd 8219 2ebd 8cea 8e3d
00000270: b5b0 f5bd 6eee 7f3d 2b2c 25be d37f ec3b
00000280: e464 8ebd 7fab 313d 0df5 35bd 03df 1a3e
00000290: f289 cbbd c2f2 a3bd 9731 2dbe 26d0 5e3d
000002a0: a4c5 913c d716 0d3d a926 373d b5ef 533d
000002b0: b350 713b 9f5a 063d c7af 2abe 68e2 db3d
000002c0: bc70 903c c57a 0e3a 90a0 83bc d2f5 cdbd
000002d0: ec50 09bc 1c31 cc3c bade a0bc 98e1 27be
000002e0: 7d77 353d 1ff7 863c edac aebd 4b86 29bd
000002f0: 2c76 463e d04a 8bbd eae4 4abc 3d00 b4bd
00000300: 6ddc 52bd f9fc d83d 9f87 87be 93fe 1abe
00000310: e24e 1d3d 01e0 ee3c b0bf 073e 0030 14be
00000320: f5b5 b7bc 3978 f13d d161 fe3d 2af0 fbbd
00000330: 564f 96bd da9a a13d 9baa 08be d2c8 313c
00000340: 8e54 de3c 4567 34be f2d4 4b3d 65cc 2a3d
00000350: 182f b93d c9dd ea3d b67f bfbc 7e7c 0ebd
00000360: 3427 a6bc 48bf d7bd b9b9 0f3d 6734 6fbd
00000370: 8167 953c c5b3 cabb 4974 1bbc 316e dbbc
00000380: e697 7f3c 3b9b dabd 362f dcbd e5dd a0bd
00000390: c64f 24bd 49d8 06bc 0f1c 80bd a850 39bc
000003a0: 9713 c9bc d4bc 973d af14 123d 602c 003e
000003b0: 659f 02be fcd9 1bbc 49ab f0bd 7e8f af3c
000003c0: 35c8 96bc c11a 96bc 2322 1b3e cc1a 2f3c
000003d0: a7d6 21be 9d5f ba3b d6de 84bb 574c b03b
000003e0: e91c bbbd 2157 b8bd 8b0c 3fbd bed3 c03d
000003f0: 55b0 bb3d 4ec5 363d 7d50 933d 2287 6cbe

network_body._body_endoder.seq_layers.2.bias f4 [128]
0.0 0.0 0.0 0.0 0.0 0.0 0.0 0.0
0.0 0.0 0.0 0.0 0.0 0.0 0.0 0.0
0.0 0.0 0.0 0.0 0.0 0.0 0.0 0.0
0.0 0.0 0.0 0.0 0.0 0.0 0.0 0.0
0.0 0.0 0.0 0.0 0.0 0.0 0.0 0.0
0.0 0.0 0.0 0.0 0.0 0.0 0.0 0.0
0.0 0.0 0.0 0.0 0.0 0.0 0.0 0.0
0.0 0.0 0.0 0.0 0.0 0.0 0.0 0.0
0.0 0.0 0.0 0.0 0.0 0.0 0.0 0.0
0.0 0.0 0.0 0.0 0.0 0.0 0.0 0.0
0.0 0.0 0.0 0.0 0.0 0.0 0.0 0.0
0.0 0.0 0.0 0.0 0.0 0.0 0.0 0.0
0.0 0.0 0.0 0.0 0.0 0.0 0.0 0.0
0.0 0.0 0.0 0.0 0.0 0.0 0.0 0.0
0.0 0.0 0.0 0.0 0.0 0.0 0.0 0.0
0.0 0.0 0.0 0.0 0.0 0.0 0.0 0.0
00000000: 0000 0000 0000 0000 0000 0000 0000 0000
00000010: 0000 0000 0000 0000 0000 0000 0000 0000
00000020: 0000 0000 0000 0000 0000 0000 0000 0000
00000030: 0000 0000 0000 0000 0000 0000 0000 0000
00000040: 0000 0000 0000 0000 0000 0000 0000 0000
00000050: 0000 0000 0000 0000 0000 0000 0000 0000
00000060: 0000 0000 0000 0000 0000 0000 0000 0000
00000070: 0000 0000 0000 0000 0000 0000 0000 0000
00000080: 0000 0000 0000 0000 0000 0000 0000 0000
00000090: 0000 0000 0000 0000 0000 0000 0000 0000
000000a0: 0000 0000 0000 0000 0000 0000 0000 0000
000000b0: 0000 0000 0000 0000 0000 0000 0000 0000
000000c0: 0000 0000 0000 0000 0000 0000 0000 0000
000000d0: 0000 0000 0000 0000 0000 0000 0000 0000
000000e0: 0000 0000 0000 0000 0000 0000 0000 0000
000000f0: 0000 0000 0000 0000 0000 0000 0000 0000
00000100: 0000 0000 0000 0000 0000 0000 0000 0000
00000110: 0000 0000 0000 0000 0000 0000 0000 0000
00000120: 0000 0000 0000 0000 0000 0000 0000 0000
00000130: 0000 0000 0000 0000 0000 0000 0000 0000
00000140: 0000 0000 0000 0000 0000 0000 0000 0000
00000150: 0000 0000 0000 0000 0000 0000 0000 0000
00000160: 0000 0000 0000 0000 0000 0000 0000 0000
00000170: 0000 0000 0000 0000 0000 0000 0000 0000
00000180: 0000 0000 0000 0000 0000 0000 0000 0000
00000190: 0000 0000 0000 0000 0000 0000 0000 0000
000001a0: 0000 0000 0000 0000 0000 0000 0000 0000
000001b0: 0000 0000 0000 0000 0000 0000 0000 0000
000001c0: 0000 0000 0000 0000 0000 0000 0000 0000
000001d0: 0000 0000 0000 0000 0000 0000 0000 0000
000001e0: 0000 0000 0000 0000 0000 0000 0000 0000
000001f0: 0000 0000 0000 0000 0000 0000 0000 0000

value_heads.value_heads.extrinsic.weight f4 [1, 128]
0.17642319 0.12754095 -0.091896586 0.11457947 0.15596339 0.14286265 -0.03687966 -0.068885446
-0.135151 -0.18105435 0.17642504 0.17097148 -0.053874582 0.082996875 -0.15248623 -0.06575045
-0.012723118 -0.123148106 -0.09430375 0.122692466 0.141379 0.033565804 -0.12315569 -0.054253176
-0.21393979 -0.004266128 -0.08506304 0.082787305 -0.04564868 0.15159416 0.03075099 0.050974578
0.034987688 -0.11203296 -0.0019187331 -0.111340865 -0.20223483 0.16439933 -0.13341814 -0.19403733
0.16843864 -0.1606077 0.112918854 0.04981333 -0.07051025 0.19622082 0.042178184 0.1380625
0.00765644 0.008907616 -0.18129376 0.015099585 -0.08952436 -0.12480235 0.03277473 -0.009818137
0.049045324 -0.19408107 -0.18671554 0.18437555 -0.1931794 0.110316366 0.15019584 0.08317152
-0.0667682 0.08628008 0.15554199 -0.020881489 0.0881156 -0.18880814 -0.037465066 -0.025033072
0.13972136 0.010175571 -0.029683411 0.037614197 -0.006327912 -0.08991967 0.20542046 0.11078283
-0.15924394 0.052832633 0.1127567 -0.13803922 0.053165525 -0.078054115 0.09423831 0.005376905
-0.009704858 0.06387174 -0.14505285 0.18758166 -0.09173719 -0.16266799 0.19152257 -0.058447704
0.17728972 -0.17671897 0.21441266 0.04444465 0.120782256 0.19091651 -0.16305237 -0.1821323
0.0738745 -0.07867026 0.10103619 0.07987732 0.12554523 0.040249705 0.09948772 0.071169555
-0.13244036 0.14949861 -0.21048437 -0.14230636 0.05323282 0.14644277 0.08612853 -0.15515536
-0.033170626 -0.1986964 -0.0770278 0.21351331 0.005330652 -0.059622884 -0.09860268 0.14647958
00000000: 48a8 343e 189a 023e 4734 bcbd a4a8 ea3d
00000010: deb4 1f3e 964a 123e 200f 17bd d013 8dbd
00000020: 0665 0abe 5066 39be c4a8 343e 2613 2f3e
00000030: 98ab 5cbd 44fa a93d 5a25 1cbe 2ca8 86bd
00000040: a074 50bc 1335 fcbd 5322 c1bd 3046 fb3d
00000050: a8c5 103e 4c7c 093d 0d39 fcbd 9438 5ebd
00000060: 0813 5bbe e0ca 8bbb 8835 aebd 648c a93d
00000070: 1cfa 3abd 803b 1b3e 80e9 fb3c b8ca 503d
00000080: 404f 0f3d 8971 e5bd 007e fbba ae06 e4bd
00000090: a616 4fbe 4c58 283e c49e 08be b9b1 46be
000000a0: 2e7b 2c3e 5876 24be 0042 e73d 1009 4c3d
000000b0: ae67 90bd 1cee 483e 08c3 2c3d 4260 0d3e
000000c0: e0e2 fa3b 40f1 113c 12a5 39be 4064 773c
000000d0: 8c58 b7bd 6098 ffbd cc3e 063d 40dc 20bc
000000e0: c0e3 483d 30bd 46be 5c32 3fbe f2cc 3c3e
000000f0: d2d0 45be 8ced e13d f0cc 193e d455 aa3d
00000100: c4bd 88bd 9cb3 b03d 6646 1f3e a80f abbc
00000110: f475 b43d ec56 41be f874 19bd 2812 cdbc
00000120: 1e13 0f3e 70b7 263c a02a f3bc 5811 1a3d
00000130: 605a cfbb ce27 b8bd be59 523e 1ce2 e23d
00000140: d810 23be 0867 583d fcec e63d 275a 0dbe
00000150: 18c4 593d d6da 9fbd 0400 c13d c030 b03b
00000160: 2001 1fbc 30cf 823d bc88 14be 6815 403e
00000170: b5e0 bbbd 7092 26be 7e1e 443e dc66 6fbd
00000180: 708b 353e d1f5 34be fe8e 5b3e 980b 363d
00000190: b05c f73d 9e7f 433e 33f7 26be e480 3abe
000001a0: 844b 973d e01d a1bd 10ec ce3d b896 a33d
000001b0: ee8e 003e e0dc 243d 38c0 cb3d 58c1 913d
000001c0: 729e 07be 2a16 193e 3789 57be c2b8 11be
000001d0: a80a 5a3d 18f5 153e 2864 b03d 0ce1 1ebe
000001e0: ecdd 07bd 1277 4bbe c0c0 9dbd 3ca3 5a3e
000001f0: c0ac ae3b 2037 74bd 34f0 c9bd befe 153e
