AITests/results/ppo/MoveToGoal.onnx (onnx, 76301 bytes, 6 tensors)

network_body._body_endoder.seq_layers.0.weight f4 [128, 2]
-1.0609126 -1.1221316 0.4183007 -0.2814616 -0.59783447 0.23690222 0.04490908 0.036915835
-1.1274551 0.49148148 0.21245545 1.0747674 0.6124253 0.3113817 -0.2724392 -0.85355765
0.13349216 0.69515026 0.4119207 1.3604659 -0.27682143 0.27175722 0.5295288 -0.6694194
-0.4662643 -0.5092857 -0.70052135 0.17095621 0.116910666 0.9514084 -0.022175958 1.08244
-0.6322589 0.46487147 0.46554574 -0.8030401 1.0768846 -0.87777436 0.16386698 -0.5663434
0.018727608 0.44190097 0.9206357 -0.79624593 -0.3004409 1.2334664 0.37464437 1.0381917
-0.14220165 -0.15343265 0.6949403 0.36906672 0.98483425 -0.9178634 -1.4801717 -0.22549103
0.9906227 0.9338283 0.88915324 1.563312 1.0079705 -1.3715839 -0.7456773 -0.88554084
-0.97561413 0.278926 0.61600834 0.6322475 0.0049603707 0.5842475 1.0510914 -0.5589714
1.2191951 -0.3632487 0.3879061 0.43163574 -0.845595 0.03370371 -0.5033966 -0.01885185
0.7106164 0.6395942 -0.79895544 -0.5281422 0.064347364 -0.8282138 -0.23223446 -0.07592134
0.53868765 -0.12527917 -1.5755038 0.9888066 0.5011152 0.08854001 0.80666894 0.07555918
0.23546033 -0.9847148 -0.17387795 0.37080365 -0.7044551 0.025658414 -0.22334062 0.6304666
-0.27853236 0.15961117 0.4110865 -1.029038 -0.012840648 -0.78557163 0.7018077 -0.9070126
0.44193587 -0.2389546 0.46846697 -0.27500802 -1.0617844 0.46791473 -0.37865317 -0.63891643
0.1577067 -0.8459963 -0.78030497 -0.09560899 -0.57509077 1.2254474 -0.37080106 -0.3379188
-0.94784385 -0.4002619 -0.18677944 -0.012849018 -0.10311604 0.054573983 -0.7330874 1.0567509
-1.4988997 0.3734773 0.59769976 -0.11808567 0.52860975 1.0257598 -0.5290726 -1.5003302
-0.3437115 -0.42918357 1.2586887 1.1046942 -0.04529991 -0.22553669 0.011610022 0.46215793
1.2775887 1.2565606 -0.36951742 -0.77075785 0.32277796 0.06730711 -0.4855266 -0.13152945
-0.37494612 -0.02881652 0.27224863 -0.1698839 -0.11494456 -1.0929443 -0.47636783 -0.15824267
0.038218863 -0.23205802 -0.18475294 -0.13491045 -0.12505165 -0.25608718 0.7503198 1.0463465
-0.27319065 -0.41811758 -0.51016635 -0.7783263 -0.5548549 -0.8297173 0.5611821 -0.15715528
0.49916953 0.41326734 -0.43444213 -0.46354866 -0.024607126 0.84416723 0.77039665 -0.050513286
0.20319486 -0.7679648 0.52690864 -0.35707676 -0.37030548 0.8913039 0.5938947 -0.23690075
0.24585837 -0.9269156 0.49345577 -0.04847126 -0.017495321 -0.43053952 1.1749951 1.1229304
0.11990249 0.826539 -0.3077574 2.0521202 0.48262334 -0.038200103 0.6082831 0.7807287
-0.20146929 -0.7452623 -0.6163254 -0.2693247 -0.50253755 0.17608504 0.09432544 -0.037119586
0.21238235 0.8589546 -1.2141886 0.16301815 0.5002779 -1.4835368 0.929818 1.05556
-0.23584615 0.22901788 0.5825925 -0.8486507 -0.006039365 0.87269044 0.45298284 0.41334054
0.9569452 0.73759925 1.1113183 -0.7015829 -0.8592208 -0.15321839 -1.2122899 -0.09417615
0.16599074 0.16847363 0.59439415 -0.3776969 0.025386078 0.3404681 0.34458706 -1.2344838
00000000: fccb 87bf 02a2 8fbf 822b d63e bc1b 90be
00000010: ae0b 19bf 7f96 723e 95f2 373d 0f35 173d
00000020: 7350 90bf 76a3 fb3e ec8d 593e fa91 893f
00000030: e8c7 1c3f 6c6d 9f3e 277d 8bbe c182 5abf
00000040: 2bb2 083e 5ef5 313f 45e7 d23e bf23 ae3f
00000050: 8abb 8dbe c323 8b3e 338f 073f 125f 2bbf
00000060: 32ba eebe 8c60 02bf 5e55 33bf 250f 2f3e
00000070: dc6e ef3d 808f 733f 5baa b5bc 658d 8a3f
00000080: b8db 21bf a203 ee3e 035c ee3e 0994 4dbf
00000090: 5bd7 893f d2b5 60bf bfcc 273e e2fb 10bf
000000a0: a46a 993c d840 e23e c8ae 6b3f c6d6 4bbf
000000b0: 64d3 99be 3ae2 9d3f 63d1 bf3e 77e3 843f
000000c0: 4f9d 11be 731d 1dbe 9ce7 313f 50f6 bc3e
000000d0: 191e 7c3f 19f9 6abf 4476 bdbf 1fe7 66be
000000e0: 7399 7d3f 5f0f 6f3f 8c9f 633f 9c1a c83f
000000f0: 2d05 813f 1090 afbf b5e4 3ebf ceb2 62bf
00000100: d9c1 79bf 64cf 8e3e b9b2 1d3f f9da 213f
00000110: 9b8a a23b 3f91 153f 2a8a 863f c018 0fbf
00000120: 960e 9c3f bcfb b9be a19b c63e 5cff dc3e
00000130: ea78 58bf e70c 0a3d 99de 00bf 326f 9abc
00000140: f5ea 353f 72bc 233f 5888 4cbf 5434 07bf
00000150: 8dc8 833d d205 54bf dfce 6dbe a67c 9bbd
00000160: 6fe7 093f 2f49 00be 1caa c9bf 6e22 7d3f
00000170: 1649 003f 7754 b53d db81 4e3f c5be 9a3d
00000180: 831c 713e 4516 7cbf 100d 32be fad9 bd3e
00000190: 2b57 34bf 9831 d23c 67b3 64be 4266 213f
000001a0: cb9b 8ebe 1c71 233e ee79 d23e 84b7 83bf
000001b0: 9561 52bc 391b 49bf aba9 333f fa31 68bf
000001c0: 6b45 e23e 84b0 74be e7da ef3e dacd 8cbe
000001d0: 8de8 87bf 8592 ef3e d4de c1be 0790 23bf
000001e0: dd7d 213e 3793 58bf 11c2 47bf a5ce c3bd
000001f0: 2639 13bf 76db 9c3f a3d9 bdbe b103 adbe
00000200: e5a5 72bf 21ef ccbe 1c43 3fbe b084 52bc
00000210: 812e d3bd f888 5f3d 9eab 3bbf 9d43 873f
00000220: f2db bfbf 6b38 bf3e da02 193f e6d6 f1bd
00000230: f852 073f 194c 833f 4d71 07bf d20a c0bf
00000240: f4fa afbe f3bd dbbe b61c a13f 9f66 8d3f
00000250: 668c 39bd 17f3 66be f637 3e3c f79f ec3e
00000260: 0788 a33f fad6 a03f 6331 bdbe 6350 45bf
00000270: 2743 a53e 4fd8 893d f196 f8be a8af 06be
00000280: f0f8 bfbe 9f10 ecbc 2c64 8b3e 0cf6 2dbe
00000290: 0e68 ebbd 99e5 8bbf 7ce6 f3be 5e0a 22be
000002a0: 628b 1c3d 9ea0 6dbe e02f 3dbe f725 0abe
000002b0: 8a0d 00be dc1d 83be f514 403f afee 853f
000002c0: a5df 8bbe 8213 d6be 439a 02bf 6440 47bf
000002d0: f90a 0ebf 5a68 54bf a1a9 0f3f 50ed 20be
000002e0: 2693 ff3e c797 d33e 336f debe 4056 edbe
000002f0: e294 c9bc 581b 583f b738 453f 05e7 4ebd
00000300: 5012 503e 5799 44bf 7ce3 063f c4d2 b6be
00000310: ae98 bdbe 7e2c 643f 7c09 183f 1c96 72be
00000320: 4cc2 7b3e 574a 6dbf 3ca6 fc3e cd89 46bd
00000330: 5952 8fbc ad6f dcbe 3d66 963f 2fbc 8f3f
00000340: 708f f53d 0f98 533f 6192 9dbe f055 0340
00000350: 681a f73e b677 1cbd 71b8 1b3f d6dd 473f
00000360: f74d 4ebe 83c9 3ebf 80c7 1dbf ede4 89be
00000370: 4da6 00bf a34f 343e b22d c13d b50a 18bd
00000380: c27a 593e 73e4 5b3f 886a 9bbf 3bee 263e
00000390: 3612 003f 89e4 bdbf 8d08 6e3f 971c 873f
000003a0: a781 71be aa83 6a3e c824 153f 2c41 59bf
000003b0: dee5 c5bb a468 5f3f 5eed e73e 5fa1 d33e
000003c0: 5cfa 743f 4ed3 3c3f ae3f 8e3f f09a 33bf
000003d0: e5f5 5bbf 48e5 1cbe 512c 9bbf 6ddf c0bd
000003e0: 7af9 293e 5a84 2c3e 372a 183f 7d61 c1be
000003f0: 77f6 cf3c d651 ae3e b76d b03e 9103 9ebf

network_body._body_endoder.seq_layers.0.bias f4 [128]
0.0 0.0 0.0 0.0 0.0 0.0 0.0 0.0
0.0 0.0 0.0 0.0 0.0 0.0 0.0 0.0
0.0 0.0 0.0 0.0 0.0 0.0 0.0 0.0
0.0 0.0 0.0 0.0 0.0 0.0 0.0 0.0
0.0 0.0 0.0 0.0 0.0 0.0 0.0 0.0
0.0 0.0 0.0 0.0 0.0 0.0 0.0 0.0
0.0 0.0 0.0 0.0 0.0 0.0 0.0 0.0
0.0 0.0 0.0 0.0 0.0 0.0 0.0 0.0
0.0 0.0 0.0 0.0 0.0 0.0 0.0 0.0
0.0 0.0 0.0 0.0 0.0 0.0 0.0 0.0
0.0 0.0 0.0 0.0 0.0 0.0 0.0 0.0
0.0 0.0 0.0 0.0 0.0 0.0 0.0 0.0
0.0 0.0 0.0 0.0 0.0 0.0 0.0 0.0
0.0 0.0 0.0 0.0 0.0 0.0 0.0 0.0
0.0 0.0 0.0 0.0 0.0 0.0 0.0 0.0
0.0 0.0 0.0 0.0 0.0 0.0 0.0 0.0
00000000: 0000 0000 0000 0000 0000 0000 0000 0000
00000010: 0000 0000 0000 0000 0000 0000 0000 0000
00000020: 0000 0000 0000 0000 0000 0000 0000 0000
00000030: 0000 0000 0000 0000 0000 0000 0000 0000
00000040: 0000 0000 0000 0000 0000 0000 0000 0000
00000050: 0000 0000 0000 0000 0000 0000 0000 0000
00000060: 0000 0000 0000 0000 0000 0000 0000 0000
00000070: 0000 0000 0000 0000 0000 0000 0000 0000
00000080: 0000 0000 0000 0000 0000 0000 0000 0000
00000090: 0000 0000 0000 0000 0000 0000 0000 0000
000000a0: 0000 0000 0000 0000 0000 0000 0000 0000
000000b0: 0000 0000 0000 0000 0000 0000 0000 0000
000000c0: 0000 0000 0000 0000 0000 0000 0000 0000
000000d0: 0000 0000 0000 0000 0000 0000 0000 0000
000000e0: 0000 0000 0000 0000 0000 0000 0000 0000
000000f0: 0000 0000 0000 0000 0000 0000 0000 0000
00000100: 0000 0000 0000 0000 0000 0000 0000 0000
00000110: 0000 0000 0000 0000 0000 0000 0000 0000
00000120: 0000 0000 0000 0000 0000 0000 0000 0000
00000130: 0000 0000 0000 0000 0000 0000 0000 0000
00000140: 0000 0000 0000 0000 0000 0000 0000 0000
00000150: 0000 0000 0000 0000 0000 0000 0000 0000
00000160: 0000 0000 0000 0000 0000 0000 0000 0000
00000170: 0000 0000 0000 0000 0000 0000 0000 0000
00000180: 0000 0000 0000 0000 0000 0000 0000 0000
00000190: 0000 0000 0000 0000 0000 0000 0000 0000
000001a0: 0000 0000 0000 0000 0000 0000 0000 0000
000001b0: 0000 0000 0000 0000 0000 0000 0000 0000
000001c0: 0000 0000 0000 0000 0000 0000 0000 0000
000001d0: 0000 0000 0000 0000 0000 0000 0000 0000
000001e0: 0000 0000 0000 0000 0000 0000 0000 0000
000001f0: 0000 0000 0000 0000 0000 0000 0000 0000

network_body._body_endoder.seq_layers.2.weight f4 [128, 128]
0.14768738 -0.082878545 -0.03176625 -0.21768436 0.036844246 -0.004334772 0.0065123867 0.028615432
0.009379322 -0.053859826 0.079671316 0.120231554 -0.00407372 0.10310339 0.013411459 -0.004532683
-0.047861435 -0.10483113 0.05606277 0.012333121 -0.066129 -0.14653973 0.1487639 -0.17113748
0.17421821 -0.053450942 -0.01884788 -0.040805038 -0.06985935 -0.16184928 -0.004351161 -0.14785355
-0.09624959 0.020151053 0.09423997 0.040521003 0.029785747 0.04031798 -0.024433855 -0.015678652
-0.071648546 0.10157952 0.009969102 0.10690683 -0.04564875 0.05102207 -0.1151665 0.06821744
-0.058868732 0.012225876 -0.060961787 0.033034094 -0.16053957 0.034967035 0.17129065 0.14718093
0.08056685 -0.03005827 0.04898292 -0.074272215 0.025722338 -0.10481777 0.038541906 0.04131806
-0.22709814 0.06329141 -0.10708944 0.010506027 0.05957469 0.12863144 -0.026556956 -0.12183391
0.12517445 -0.11565365 0.17207602 -0.13414669 -0.047147904 -0.02686525 0.08739285 0.069951266
0.047674544 -0.036023054 0.1925905 0.07169269 0.05282822 0.040726416 0.009483895 0.039173935
0.12586585 -0.07617078 0.19797681 -0.01410372 -0.09759679 -0.09682723 0.13127172 -0.071682386
0.032555457 -0.048261356 0.071778744 0.07990071 -0.08826263 0.08239186 -0.053089265 -0.10229178
0.043782525 0.107428424 -0.049255677 0.028210374 0.062318403 -0.090790644 -0.045349993 0.043466866
-0.10877785 -0.14780253 -0.059721373 -0.0720351 0.2062855 -0.028753014 -0.0686955 0.004818739
-0.02335682 0.10071598 0.021361561 0.017627804 -0.1024669 -0.037583884 -0.096618205 -0.16750401
-0.14572768 -0.09002817 0.1005636 -0.065132834 0.14295822 -0.06851789 -0.032519717 0.10606432
0.028215805 -0.10578859 -0.018647263 0.014631436 0.07645062 0.038147576 0.16759102 0.0023223108
-0.16466807 -0.075702384 0.004741242 0.08224673 -0.16397004 0.090308905 0.0045359666 -0.16489615
0.014357992 0.03901058 -0.15628277 0.01825786 -0.1021799 -0.13346618 0.064421326 -0.040832788
0.11994462 -0.059423946 -0.008961822 -0.050911937 -0.022214686 -0.073729575 0.124309406 0.100902274
-0.08468701 0.005873545 -0.074585535 -0.041926943 -0.15084746 0.006893468 0.0037673386 0.04558037
-0.043367222 -0.02724984 0.034819216 0.1347511 0.078062296 0.04272637 0.11224742 -0.13062997
0.0013454378 0.04955869 0.05642098 -0.024376525 -0.10569501 -0.12322261 -0.11416251 0.028479537
0.06842463 -0.01886693 -0.025983619 0.13506085 -0.0113644395 -0.04483628 0.021632046 0.054414753
-0.13790661 -0.09560668 0.05470449 0.0991066 0.09736876 0.022216436 0.0822755 -0.010076334
0.10281147 0.018946264 -0.09864138 0.019454876 0.11863381 -0.0048279674 -0.031659972 0.17793956
-0.06827326 0.038979217 0.023484144 -0.016740253 0.00077321223 -0.0790992 0.0035285312 -0.29521075
-0.01551001 -0.06595338 -0.08229074 -0.032583967 0.0006297357 0.10854357 0.031362213 -0.03484809
-0.059104733 0.018010342 0.0032996645 0.059683014 0.026878212 0.018485807 -0.0049328883 0.13157165
-0.06826666 -0.034203034 -0.049375452 -0.005368569 -0.043132003 -0.051625125 -0.015192225 -0.14557634
-0.020583207 -0.046482727 -0.055048108 -0.086616054 0.014815279 -0.06715622 -0.016725892 -0.13478102
00000000: 5c3b 173e 3abc a9bd 541d 02bd a6e8 5ebe
00000010: fee9 163d b40a 8ebb dc65 d53b e96a ea3c
00000020: baab 193c 1f9c 5cbd b72a a33d f63b f63d
00000030: d77c 85bb df27 d33d bcbb 5b3c e786 94bb
00000040: 5a0a 44bd b4b1 d6bd 13a2 653d dc10 4a3c
00000050: a46e 87bd 830e 16be 9055 183e aa3e 2fbe
00000060: 4266 323e 60ef 5abd df66 9abc 2f23 27bd
00000070: 6b12 8fbd d1bb 25be 2f94 8ebb ec66 17be
00000080: 811e c5bd d213 a53c e300 c13d 5af9 253d
00000090: 3d01 f43c 7724 253d 8229 c8bc 8470 80bc
000000a0: 79bc 92bd ec08 d03d 7255 233c f8f1 da3d
000000b0: 2ffa 3abd 85fc 503d 6adc ebbd 96b5 8b3d
000000c0: 5720 71bd 0a4f 483c 11b3 79bd c24e 073d
000000d0: 7c64 24be 9839 0f3d d166 2f3e 99b6 163e
000000e0: 3c00 a53d c33c f6bc 50a2 483d 081c 98bd
000000f0: a7b7 d23c b3aa d6bd 1ede 1d3d 203d 293d
00000100: 6a8c 68be ed9e 813d b551 dbbd 7921 2c3c
00000110: 9704 743d f6b7 033e f98d d9bc 0f84 f9bd
00000120: bb2d 003e d2db ecbd b234 303e c05d 09be
00000130: 291e 41bd 8314 dcbc 06fb b23d 9c42 8f3d
00000140: 6246 433d e98c 13bd 7236 453e 9ed3 923d
00000150: 6762 583d bed0 263d 5762 1b3c d974 203d
00000160: fae2 003e 6dff 9bbd 6fba 4a3e 4a13 67bc
00000170: d3e0 c7bd 5b4d c6bd 186c 063e 37ce 92bd
00000180: df58 053d b3ad 45bd bc00 933d fca2 a33d
00000190: 0ac3 b4bd 10bd a83d 2174 59bd 5a7e d1bd
000001a0: 4e55 333d 6f03 dc3d 52c0 49bd 7119 e73c
000001b0: 9541 7f3d 72f0 b9bd eac0 39bd 500a 323d
000001c0: ecc6 debd 8c59 17be 669e 74bd 2387 93bd
000001d0: 823c 533e 718b ebbc 3ab0 8cbd 83e6 9d3b
000001e0: cd56 bfbc 2e44 ce3d 71fe ae3c 2f68 903c
000001f0: 2bda d1bd 8ff1 19bd c4df c5bd 2c86 2bbe
00000200: a339 15be b060 b8bd 4af4 cd3d 5d64 85bd
00000210: a463 123e 1c53 8cbd 6533 05bd 4038 d93d
00000220: d524 e73c b0a7 d8bd 25c2 98bc b1b8 6f3c
00000230: 2592 9c3d a240 1c3d fb9c 2b3e e931 183b
00000240: bf9e 28be da09 9bbd 6c5c 9b3b f970 a83d
00000250: c3e7 27be e0f3 b83d 72a2 943b 89da 28be
00000260: c93d 6b3c 8fc9 1f3d 9708 20be 8291 953c
00000270: b243 d1bd 5cab 08be 54ef 833d 4840 27bd
00000280: 86a5 f53d 8666 73bd 9bd4 12bc 0989 50bd
00000290: 93fb b5bc 88ff 96bd ee95 fe3d daa5 ce3d
000002a0: 6270 adbd de76 c03b 4dc0 98bd 96bb 2bbd
000002b0: c277 1abe 9ae2 e13b 74e5 763b 7bb2 3a3d
000002c0: d4a1 31bd 0e3b dfbc 989e 0e3d 31fc 093e
000002d0: 20df 9f3d d901 2f3d fae1 e53d ddc3 05be
000002e0: 6759 b03a 0efe 4a3d af19 673d 47b1 c7bc
000002f0: a076 d8bd 235c fcbd 09ce e9bd eb4d e93c
00000300: 3622 8c3d d28e 9abc 99db d4bc 644d 0a3e
00000310: ea31 3abc 3fa6 37bd b035 b13c 01e2 5e3d
00000320: 6437 0dbe 6fcd c3bd d111 603d 67f8 ca3d
00000330: 4669 c73d 3eff b53c 0f80 a83d 3517 25bc
00000340: d28e d23d 3235 9b3c 7e04 cabd d55f 9f3c
00000350: 48f6 f23d ed33 9ebb e3ad 01bd ca35 363e
00000360: dad2 8bbd aca8 1f3d d261 c03c db22 89bc
00000370: 65b1 4a3a c3fe a1bd ee3e 673b dd25 97be
00000380: b21d 7ebc 9112 87bd 0c88 a8bd c476 05bd
00000390: d914 253a 174c de3d aa75 003d dfbc 0ebd
000003a0: ce17 72bd 6d8a 933c 2f3f 583b 2d76 743d
000003b0: b22f dc3c 8c6f 973c 11a4 a1bb b8ba 063e
000003c0: 64cf 8bbd 7b18 0cbd ea3d 4abd d2ea afbb
000003d0: 2fab 30bd de74 53bd cfe8 78bc f711 15be
000003e0: 1d9e a8bc ac64 3ebd 207a 61bd c263 b1bd
000003f0: c9bb 723c 3389 89bd bd04 89bc 0904 0abe

action_model._continuous_distribution.mu.weight f4 [1, 128]
-0.0034558848 -0.0065466757 -0.01309731 0.0373456 -0.029565725 0.008405852 0.0080439355 0.0020972893
-0.0072794654 -0.0038420116 0.02524796 -0.0020330276 -0.007899127 -0.0007982822 -0.010335479 0.004811499
0.013459344 0.0023526482 0.03331509 0.00055614143 0.0073235244 -0.022959976 0.01374802 0.030967785
-0.037847295 -0.009291619 0.0034670688 -0.019230565 -0.0051006465 0.029031029 -0.0024531994 0.023598589
-0.011169289 0.02537818 -0.0005840158 0.0052358676 -0.009525596 0.0033972932 -0.005039495 -0.010234861
0.02906221 -0.026027298 0.00048604488 0.013717604 -0.00070806727 0.003777168 -0.005025622 0.012370231
0.032823335 0.01945658 -0.015571663 0.0008515254 0.008581974 -0.012036777 -0.0113751935 0.048176568
0.00962149 0.005897165 0.03748697 0.003489318 -0.00033042705 -0.0015724648 -0.002019792 0.027448153
0.0029872924 0.023674222 0.02351675 0.0134851625 -0.014731543 0.020506946 0.0065962397 -0.017487643
0.017274221 -0.012049327 -0.0066746026 -0.011603138 0.018933034 -0.020056494 -0.012795354 0.008795053
-0.0069090216 0.0027044194 0.0008597535 -0.010930187 0.0016871643 -0.01400319 0.006991625 0.010584424
0.028420066 -0.016341476 -0.0121712545 0.0069173886 0.016537359 -0.015630012 0.013758505 -0.021067254
0.022154989 -0.0010289893 -0.013456139 -0.0005297071 -0.002954522 0.009037804 0.0058748345 -0.00085261633
-0.024222268 -0.0079865595 -0.029779239 -0.008401233 0.0015644906 0.046846468 0.013280739 0.0006599412
-0.00074538117 0.019862594 -0.000954485 0.007849666 0.026209474 -0.006175998 0.023947723 -0.038960874
-0.013938936 0.017535683 0.048399106 -0.0212891 -0.006117578 -0.008997804 -0.024857996 8.360698e-05
00000000: 207c 62bb 7f85 d6bb 1a96 56bc b3f7 183d
00000010: d233 f2bc b3b8 093c b6ca 033c ad72 093b
00000020: 9588 eebb 42ca 7bbb cfd4 ce3c 8b3c 05bb
00000030: 576b 01bc d043 51ba 2456 29bc c7a9 9d3b
00000040: 9584 5c3c e32e 1a3b 6775 083d 05ca 113a
00000050: 2dfa ef3b 8f16 bcbc 603f 613c 27b0 fd3c
00000060: c405 1bbd e03b 18bc c337 633b 6b89 9dbc
00000070: 5323 a7bb 7bd2 ed3c dbc5 20bb d451 c13c
00000080: 65ff 36bc e7e5 cf3c a318 19ba a491 ab3b
00000090: 3f11 1cbc 1fa5 5e3b 5922 a5bb 1eb0 27bc
000000a0: df13 ee3c 3337 d5bc d7d3 fe39 cdbf 603c
000000b0: 979d 39ba 5d8a 773b f9ad a4bb 82ac 4a3c
000000c0: c371 063d 6863 9f3c 4a20 7fbc e738 5f3a
000000d0: 689b 0c3c e735 45bc 055f 3abc cb54 453d
000000e0: 74a3 1d3c 013d c13b f08b 193d 0bad 643b
000000f0: 2b3d adb9 2a1b ceba 7d5e 04bb f3da e03c
00000100: 73c6 433b 71f0 c13c 33a6 c03c dff0 5c3c
00000110: 925c 71bc 2ffe a73c 4525 d83b 3f42 8fbc
00000120: ab82 8d3c 8a6a 45bc a0b6 dabb 171b 3ebc
00000130: 7319 9b3c 844d a4bc 9ba3 51bc 2019 103c
00000140: 1365 e2bb a13c 313b 1561 613a 8714 33bc
00000150: d723 dd3a a36d 65bc 001a e53b 4b6a 2d3c
00000160: 33d1 e83c 8fde 85bc f169 47bc 43ab e23b
00000170: 5b79 873c 830a 80bc 5a6b 613c 3c95 acbc
00000180: 617e b53c 27df 86ba 2377 5cbc 0bdc 0aba
00000190: a7a0 41bb 4c13 143c af81 c03b 1d82 5fba
000001a0: c76d c6bc 0fda 02bc 97f3 f3bc 53a5 09bc
000001b0: 980f cd3a 15e2 3f3d 7597 593c e7ff 2c3a
000001c0: af65 43ba e1b6 a23c 6736 7aba e39b 003c
000001d0: 40b5 d63c 0760 cabb 042e c43c 7095 1fbd
000001e0: 2360 64bc fea6 8f3c 243e 463d 7b66 aebc
000001f0: f775 c8bb 866b 13bc ffa2 cbbc 2856 af38

action_model._discrete_distribution.branches.0.weight f4 [3, 128]
0.003834163 0.0038758502 -0.003998964 -0.0004972051 0.009498551 0.00031493435 -0.0010067094 0.008711516
0.008959293 0.0023668034 0.00041722957 -0.014513584 0.008910553 0.007212718 0.0064631165 0.017366366
0.012569064 -0.0013277953 0.0018506543 0.0025810495 0.0019051513 0.0006278547 0.007683606 -0.011760312
0.008297008 0.00063951965 0.0028166836 -0.005871739 -0.012472579 -0.018056026 0.0048024785 0.015172864
-0.005305626 8.7953566e-05 0.006555937 -0.0038148144 -0.0012997751 -0.005865171 -0.0024384202 -0.020749925
-0.0010822158 -0.0032027648 0.0035142377 0.0030102194 -0.0055804714 0.0061541833 0.010223685 0.0037365935
0.018887162 -0.00411893 0.024549328 0.012231411 0.0095109 0.0015051782 0.0075587607 -0.002550678
-0.018645378 -0.0036693772 -0.01525412 0.004354965 -0.0039431727 0.017529657 0.0029370503 -0.0076012774
0.0027674425 -0.0053383056 -0.0063363323 0.005985147 -0.009313989 -0.0016533167 0.0032491055 0.005287054
-0.0069620623 0.00039968645 -0.018188192 -0.005742525 -0.0026030203 0.010913546 0.0029222027 -0.005432849
-9.2242946e-05 0.01034406 0.0018011719 0.017560083 -0.0037425365 -0.0038187343 0.004212877 0.004214011
0.0035746922 -1.7459017e-05 0.003609458 0.009689614 0.014014199 0.013411748 0.0059901946 -0.0003454782
0.010525046 0.011018718 0.013859908 0.0023514207 -0.0043758615 0.011747933 0.020491237 0.005720754
-0.003514845 -0.001409007 -0.009231911 -0.00916476 -0.0065572383 -0.008868687 -0.007927898 0.0035611924
-0.010809462 0.0029906984 0.010406189 -0.014143884 -0.0030017565 -0.004063037 -0.007518509 0.013420099
0.0047655683 -0.002935837 -0.003089732 0.0010685156 -0.0001654554 -0.010220996 -0.001047894 0.01721994
-0.0014799078 -0.009222045 0.007825029 -0.0036754615 0.012653393 0.008596524 0.008350716 -0.0066144937
-0.010094768 0.0151810525 0.0044563706 0.008000373 -0.009540172 0.009064827 -0.009177883 0.00039477853
0.000997999 -0.007860123 0.0030598112 -0.008048664 0.0027882927 -0.0029615294 -0.020534245 -0.006188642
0.0018873991 -0.00886528 -0.0002117693 -0.016896706 -0.01843922 -0.007968243 0.00718438 -0.0025829454
-0.0010744681 0.011673685 0.02269372 0.0016790582 -0.0043525 0.0008649866 -0.005906046 -0.010016104
0.011953886 -0.0038995852 -0.003938555 0.004746575 -0.0071494705 0.0004780024 -0.005713076 -0.00017989344
0.010507109 0.012390326 -0.0074202768 -0.015580415 0.012108851 0.01033146 -0.00601591 -0.0052308342
0.01195418 0.0016766553 0.005785673 0.004496523 0.002077325 0.011644818 0.0086374795 -0.015136602
0.010690122 -0.009762745 -0.010305966 0.008173651 -0.00040099287 0.008302594 -0.004446889 0.0011660455
-0.0073010637 -0.0031825025 -0.016309764 0.0013534136 -0.0012095344 0.0003054072 -0.018403469 0.021676494
-0.006240737 -0.00797444 0.0016704787 0.0035205323 -0.010790231 -0.0017363804 0.0071615125 0.0007872346
0.0025399972 0.0017341154 0.006817265 0.0008018043 0.008522357 0.008198529 -0.010084151 0.0016901753
-0.0090644 0.01695693 0.0042024003 0.0061925086 -0.0036069963 0.0053773015 0.0071123317 0.007832526
0.005999278 0.0044012787 0.0076585235 0.0017771919 -0.002675728 0.008600229 -0.011148103 0.00092613697
0.011763676 -0.001500887 -0.009459685 -0.0008869706 0.006470883 -0.002098761 -0.0024158102 -0.0048538693
-0.018172352 0.003456434 0.011996995 -0.014263275 0.012687772 -0.000872042 0.00065803964 -0.010519785
00000000: 9546 7b3b fa01 7e3b be09 83bb df56 02ba
00000010: cf9f 1b3c c61d a539 90f3 83ba bfba 0e3c
00000020: 00ca 123c 5f1c 1b3b 9bbf da39 62ca 6dbc
00000030: 91fd 113c aa58 ec3b 8dc8 d33b e943 8e3c
00000040: 7aee 4d3c 6b09 aeba a791 f23a d326 293b
00000050: 45b6 f93a 9e96 243a c2c6 fb3b 53ae 40bc
00000060: 2df0 073c 70a5 273a 1c98 383b b767 c0bb
00000070: ca59 4cbc 3bea 93bc 1c5e 9d3b 9b97 783c
00000080: d1da adbb b673 b838 30d3 d63b f701 7abb
00000090: 375d aaba 9f30 c0bb e7cd 1fbb bffb a9bc
000000a0: 23d9 8dba 7ae5 51bb 204f 663b 1a47 453b
000000b0: 63dc b6bb 08a9 c93b 3e81 273c a3e1 743b
000000c0: 40b9 9a3c 17f8 86bb ac1b c93c 4266 483c
000000d0: 9bd3 1b3c 6649 c53a 7baf f73b 4729 27bb
000000e0: 31be 98bc ef79 70bb 6bec 79bc 18b4 8e3b
000000f0: bb35 81bb 5b9a 8f3c 877b 403b 2314 f9bb
00000100: fb5d 353b f4ec aebb 02a1 cfbb 0d1f c43b
00000110: b499 18bc 1ab4 d8ba f2ee 543b 063f ad3b
00000120: 0322 e4bb 028d d139 67ff 94bc cb2b bcbb
00000130: 6f97 2abb bbce 323c 6d82 3f3b 0a06 b2bb
00000140: 8e72 c1b8 227a 293c 4d15 ec3a 2ada 8f3c
00000150: 5845 75bb bb43 7abb 2c0c 8a3b b015 8a3b
00000160: 6245 6a3b f474 92b7 a88c 6c3b 30c1 1e3c
00000170: d09b 653c f3bc 5b3c 6549 c43b 4d21 b5b9
00000180: 3e71 2c3c da87 343c ab14 633c 4b1a 1a3b
00000190: 6363 8fbb 677a 403c 3ddd a73c 2a75 bb3b
000001a0: 5059 66bb 6eae b8ba 7141 17bc ca27 16bc
000001b0: 1ade d6bb f84d 11bc 04e4 01bc e562 693b
000001c0: 2b1a 31bc 98ff 433b b87e 2a3c c0bb 67bc
000001d0: 1eb9 44bb 3a23 85bb d35d f6bb fadf 5b3c
000001e0: 7c28 9c3b 2c67 40bb 1a7d 4abb 6f0d 8c3a
000001f0: 197e 2db9 f775 27bc 7d59 89ba d510 8d3c
00000200: 77f9 c1ba 0f18 17bc 8d34 003c 03e0 70bb
00000210: 2d50 4f3c 6fd8 0c3c 71d1 083c 65be d8bb
00000220: 8764 25bc f3b9 783c bf06 923b ff13 033c
00000230: 624e 1cbc a484 143c d55e 16bc 47fa ce39
00000240: 4acf 823a bfc7 00bc 1d87 483b 8bde 03bc
00000250: cabb 363b 3816 42bb 6f37 a8bc 17ca cabb
00000260: 9b62 f73a ae3f 11bc 630e 5eb9 f66a 8abc
00000270: d90d 97bc 3c8d 02bc f36a eb3b a246 29bb
00000280: 2bd5 8cba fc42 3f3c 2ee8 b93c d813 dc3a
00000290: 6b9f 8ebb 45c0 623a 8187 c1bb 961a 24bc
000002a0: 3bda 433c 2f90 7fbb fe0e 81bb 2889 9b3b
000002b0: 1b46 eabb 659c fa39 c134 bbbb c7a1 3cb9
000002c0: 0226 2c3c cb00 4b3c cb25 f3bb ff44 7fbc
000002d0: 3464 463c 4945 293c 1c21 c5bb 6b67 abbb
000002e0: 77db 433c 37c3 db3a be95 bd3b 9257 933b
000002f0: bb23 083b e8c9 3e3c 3784 0d3c 83ff 77bc
00000300: 9f25 2f3c ecf3 1fbc 5bda 28bc c7ea 053c
00000310: 5a3c d2b9 9a07 083c 35b7 91bb ffd5 983a
00000320: c33d efbb 8891 50bb 0e9c 85bc 0665 b13a
00000330: 3d89 9eba 0f1f a039 dfc2 96bc e792 b13c
00000340: 197f ccbb 3aa7 02bc f7f3 da3a bbb8 663b
00000350: 82c9 30bc 4297 e3ba 1fab ea3b 6b5e 4e3a
00000360: 1576 263b 424b e33a 5d63 df3b 2d30 523a
00000370: 5ba1 0b3c 1f53 063c ff37 25bc df88 dd3a
00000380: d982 14bc 42e9 8a3c 4ab4 893b 87ea ca3b
00000390: 5b63 6cbb 1334 b03b 900e e93b ff53 003c
000003a0: 9795 c43b 9a38 903b 5af4 fa3b aaf0 e83a
000003b0: 445b 2fbb fae7 0c3c 88a6 36bc 00c8 723a
000003c0: 6fbc 403c 69b9 c4ba cbfc 1abc 9783 68ba
000003d0: b309 d43b 5e8b 09bb 9252 1ebb 350d 9fbb
000003e0: 2fde 94bc 5785 623b 0b8f 443c 83b0 69bc
000003f0: 5fe0 4f3c bf99 64ba 4b80 2c3a 2d5b 2cbc

action_model._discrete_distribution.branches.0.bias f4 [3]
0.0 0.0 0.0
00000000: 0000 0000 0000 0000 0000 0000
