AITests/results/Test4/MoveToGoal/checkpoint.pt (torch, 441378 bytes, 36 tensors)

network_body._body_endoder.seq_layers.0.weight f4 [128, 6]
00000000: 5e27 7a3e 2f61 9b3e 7155 083e e582 293d
00000010: 8cc7 883e b87c 92bf dcb6 82be a7e9 02be
00000020: a3b3 0abf cb92 953e b4a4 0dbe 894f f3be
00000030: 186a a1bd eb30 ad3e b808 973c 1d0e bb3e
00000040: 9d6a fc3e 940b 82be 4d50 31be bab8 53bd
00000050: 2dd8 193f 39e1 c93e 4642 7ebe 2b17 aa3d
00000060: 8b99 66be dc48 8d3d 6870 2fbe d61f 3bbf
00000070: 271d 84be 648b 86be 6f0f 60bf f802 ae3e
00000080: 8d74 2e3e 50b6 353f 439b 213f c108 013f
00000090: d1d9 6d3d 55d4 10bf 3836 193e a5ce 6b3c
000000a0: c545 483e 2e66 313f 2a80 423e 4a5e a83c
000000b0: c6ac 13bc 291a 9f3e c25b 89be f360 f3bd
000000c0: 5d78 25bf b959 58be 7adb 2a3f e0de 20bf
000000d0: 2b53 a33d d5ca c33e 78b4 99be 924a e03e
000000e0: 0047 e83d b305 bf3e 6a36 1cbf fb16 023f
000000f0: 520b 24bf 32fe 1f3f 32f2 743e c1fe 05be
00000100: b0f3 38bf ce29 26bf e7ac 953d f509 ff3e
00000110: c49e 0f3e 2a21 153f c095 173f 895e c0be
00000120: 6d1e 1bbf 1a63 13be 85ec 983d 1f61 93be
00000130: f35e 923e c364 1e3e 0224 023f 6843 abbc
00000140: 953d abbe 76f7 c9be 7b48 22bf 2a56 0bbf
00000150: 8498 2cbd 9015 2b3e 97d9 a73e ce14 28be
00000160: f93d ddbd b585 283f 3630 43bf 3598 e33e
00000170: 7f1b b6bc 4a8e 56bd 29d6 0a3f aa89 93be
00000180: bb8a 5e3d 3963 a63e 8c28 87bd 1836 a03e
00000190: 1f11 873e d47f b23e 5f5e f5be aec9 6d3e
000001a0: 96ca 9d3e 6db9 dc3e 4f34 483e 9383 093d
000001b0: fe73 133f da97 39bf fe7a 0a3e ff59 333e
000001c0: 5626 69bf 6a95 5bbe f287 afbe d9c9 aa3e
000001d0: d0b5 74bd cfcb 083f c3e2 23bd f785 dcbe
000001e0: a4dc 603e ce12 fe3e 8ace 873e 5d28 ffbe
000001f0: 8780 3b3e 8e50 a13e 891b 32bf dd2f a4bd
00000200: df5f b3be 21c8 d43d 618c 363f 784c 693f
00000210: f5a9 8abf 6a0a 1cbf f4b4 223e b072 c0bd
00000220: 263c 69bd ba27 4b3a 3a62 333c 905a 273f
00000230: 81be 3cbd c948 96be d828 89be 4661 fa3e
00000240: 8f62 ecbe 0605 08be e2b7 a93e 1aca f8be
00000250: 2f35 10bd 3678 a93e 16e0 c53e 03fa 00be
00000260: 2d45 0fbf 808d b83d 0cfd db3e 2b1e 293e
00000270: 9ca7 ffbe 4fc4 753e 3220 c7bd cde0 aebe
00000280: 1d4a 7fbe ab88 ef3e a292 7d3d 071c 9ebd
00000290: 3f28 8e3d 186f 73be 6746 003f 531f 183c
000002a0: a82e 103f 8635 dcbe 6468 fb3e 526f 09bf
000002b0: 34a1 21bf cdc4 5d3b d127 9e3d fe9b 72be
000002c0: bd58 043d 8397 01be 65f3 93be deea 18bf
000002d0: 55e6 e0bd 15b3 33bf 435c 003e 8b3b 11bf
000002e0: 3426 323f 5dd8 1c3e 2f8a 9c3e 4514 72bd
000002f0: e3bc 8e3c 49d5 0cbf e5fd 0fbf 3ba0 943e
00000300: db8f ebbe d757 abbe 5691 96be e49c 28bf
00000310: 6fe5 0ebf 2c4e 983e 9f6d 8a3e 6dd2 bf3e
00000320: 1970 d03e 8324 20bf ec6e 51bf 7e2a 7bbc
00000330: e0fa cbbd 5373 09bf 8ec0 c53e 40c3 c03e
00000340: b6eb aabe 446f 49be 857a b9be 5294 1f3f
00000350: dde7 a3bd aca8 3dbe a0ae 94bd ab2f 9ebe
00000360: bdce 41bb 5dbd 8bbd 9640 093f 8df0 e5be
00000370: 349e 323f 9866 1cbf 4713 4abe 0764 d6bd
00000380: 387b 593f a140 a5be d5f8 d53e c24e 103f
00000390: 88f9 363e 0de8 cf3e 4f4d 983e b3d7 76be
000003a0: a240 8fbe 5891 553e 1870 05bf 2c70 2abe
000003b0: ed52 4c3f 7b74 173d 8252 15be c083 453f
000003c0: f4a8 1fbf 203e f73d 5c29 9fbe 23b1 353e
000003d0: f0a6 f43e c1f0 023f 6054 163e 1bae 24be
000003e0: ca28 04bf 9cd3 8bbd 6a2f 41bf 2f30 673e
000003f0: dda6 493e c593 4ebf 1d96 17be cf61 05bf
0.2442908 0.30347583 0.13313843 0.041384596 0.26714742 -1.1444311 -0.25530136 -0.12784444
-0.54180354 0.29213557 -0.1383236 -0.47521618 -0.07881564 0.33826384 0.018436775 0.36534205
0.4930009 -0.25399458 -0.17315789 -0.05168984 0.60095483 0.39429644 -0.24829969 0.083052
-0.2251951 0.068986624 -0.17132723 -0.7309545 -0.2580349 -0.26278222 -0.8752355 0.3398664
0.17036648 0.7098131 0.63127536 0.5040398 0.058069054 -0.5657399 0.14962089 0.01439253
0.19557865 0.6929654 0.18994203 0.020552773 -0.00901336 0.31074646 -0.26827818 -0.11883726
-0.64636785 -0.21127976 0.66741145 -0.6284008 0.079748474 0.38240686 -0.300205 0.43806893
0.11341667 0.37309036 -0.6102053 0.50816315 -0.64079773 0.62497246 0.23920515 -0.13085462
-0.7224684 -0.6490754 0.07308369 0.49812284 0.14025408 0.5825373 0.59212875 -0.37572125
-0.605933 -0.14393273 0.074669875 -0.28785035 0.28588066 0.15468125 0.50836194 -0.020906165
-0.3344542 -0.3944661 -0.63391846 -0.5442835 -0.042137638 0.16707444 0.32783195 -0.16414186
-0.10802836 0.6582902 -0.7624544 0.44452062 -0.022229908 -0.05238179 0.5423303 -0.28815967
0.054331522 0.32497576 -0.065995306 0.3129127 0.2638025 0.3486315 -0.47923562 0.23221466
0.30818623 0.4311022 0.19551204 0.033572745 0.57598865 -0.7249733 0.1352348 0.175148
-0.9107412 -0.21443716 -0.34283406 0.33357123 -0.059743702 0.5343599 -0.04001118 -0.43070957
0.21959168 0.49623722 0.26524764 -0.49835482 0.18310748 0.3150677 -0.69573265 -0.08016942
-0.3503408 0.10389734 0.7130795 0.9113231 -1.0833117 -0.6095339 0.1588934 -0.09396875
-0.056942128 0.0007749755 0.010948712 0.6537256 -0.046080116 -0.29352406 -0.26788974 0.4890234
-0.46168944 -0.13283166 0.33148104 -0.4859169 -0.03520697 0.33099526 0.38647527 -0.12595372
-0.5596493 0.09011364 0.42966497 0.16515414 -0.49932563 0.24000667 -0.09722938 -0.34155884
-0.24930616 0.46783957 0.061907418 -0.077201895 0.0694127 -0.23772848 0.50107425 0.009284812
0.5632119 -0.43009585 0.4910308 -0.53685486 -0.631366 0.0033839226 0.07722438 -0.23692319
0.03231119 -0.12655453 -0.28896633 -0.5973338 -0.10981432 -0.7019513 0.12535195 -0.5673148
0.69589543 0.15316911 0.30574176 -0.05910136 0.017424053 -0.5501295 -0.5624679 0.29028496
-0.4600819 -0.33465454 -0.29407758 -0.65864396 -0.5581884 0.2974714 0.2703676 0.3746523
0.40710524 -0.6255571 -0.8180988 -0.015329955 -0.0995996 -0.53691596 0.3862347 0.37648964
-0.33382958 -0.1967135 -0.36226287 0.62335694 -0.08003209 -0.18521374 -0.072598696 -0.30895743
-0.0029572689 -0.068232276 0.53614175 -0.44910088 0.6977265 -0.61094046 -0.19733916 -0.104682975
0.8495364 -0.3227587 0.41791406 0.56370175 0.17868626 0.40606728 0.29746482 -0.2410572
-0.27978998 0.20856225 -0.52124166 -0.16644353 0.79814035 0.03697632 -0.14582255 0.7715416
-0.62367177 0.12072396 -0.31086242 0.17743354 0.47783613 0.5114861 0.14680624 -0.16082041
-0.5162474 -0.06827471 -0.75462973 0.22576974 0.1969256 -0.8069423 -0.14803357 -0.5210237

network_body._body_endoder.seq_layers.0.bias f4 [128]
00000000: df07 eaba c07a 983c c975 403b 7834 343b
00000010: 027b 4c3b ea2b 523b 7c79 35bb 2446 0bba
00000020: 4a2b 5b3a 6f14 95bb 6603 f3ba f84f 42bb
00000030: 7f3c 14bb baaa f3ba 4cd9 89bb f64a b4bb
00000040: 06b7 8cbb 3041 0fbb 5b6f 7aba d2b3 483b
00000050: 70b7 1a3b 4481 3b3b 8282 a53b d0d8 413a
00000060: 70b2 2fba 1351 79bb 1c33 ecbb ac09 fb3a
00000070: aa5c 093c 86c2 fd3a 93cc 74bb d073 083a
00000080: 4a7f eb3a b166 b6ba 368e dd3b 6d92 813b
00000090: dd76 03bb 81d4 293b 29ec 22ba afb9 993b
000000a0: a6d7 513b 0c22 893b 6e9d 40bb 8a5d 44bb
000000b0: 5bc9 d83a 97a4 223a 3905 cd39 a0b1 ed3b
000000c0: 76e5 11bc 2797 e73b 6962 083b 2ca6 60bb
000000d0: a168 b53a 3510 893a 3876 8a3b 25c9 353b
000000e0: 84c9 213b 5af5 70bb 6c54 b93b 6f5b 203b
000000f0: ded0 2dbb 9b4a 9d3a 9537 c8bb bf0a f2bb
00000100: 68c6 5ab9 1f93 d9ba 76bb 063c 74a9 633a
00000110: 8950 70ba 9a86 30bb ab81 42ba 3ef4 183b
00000120: f521 9b3b 6350 daba d131 04bb d479 153b
00000130: a735 afbb 68b3 36bb 5752 a53a 0f3c c23a
00000140: b972 90bb 4727 bfbb 24d2 d3b8 75d3 81bb
00000150: 9070 ac3b 2bf7 793a 5486 49bb 2372 bcbb
00000160: c6ec 1e3c 607d abba 96d3 0cbb f74d d33b
00000170: c048 273b 2049 82ba 4383 9b3b 5e40 823a
00000180: a471 0f39 a1bd 243a eeee 95b9 d23c 53ba
00000190: 6089 483b 7fa0 f838 ae7d b23b 69dc 253c
000001a0: be07 cf39 1c8f b23a d6d1 31bb 797e 8fbb
000001b0: dd93 a23a baa3 83bb d13d 983b fb99 08bb
000001c0: 5c4d 35b9 6405 a2bb 1db8 adbb 8254 ce3a
000001d0: 8520 88ba 86e7 7d3b 6c18 a03b 216a b83a
000001e0: 5924 70bb 8ba5 84ba fbfb ffba e951 1dbc
000001f0: 886d 02ba fab2 c83a 4bd9 f63a 448f 60bb
-0.0017855129 0.01861322 0.002936708 0.0027497094 0.0031201248 0.0032069632 -0.0027690819 -0.0005312881
0.00083606376 -0.004549555 -0.0018540442 -0.0029649716 -0.0022619066 -0.0018590309 -0.004206812 -0.0055021
-0.004294279 -0.0021858923 -0.00095533364 0.003062476 0.0023607872 0.0028610984 0.005050958 0.00073946733
-0.00067023095 -0.0038042709 -0.007208241 0.0019152663 0.008383909 0.0019360341 -0.003735338 0.00052052457
0.0017967012 -0.0013916102 0.0067613376 0.003954223 -0.0020059862 0.0025914016 -0.0006215 0.0046913247
0.0032019406 0.004184967 -0.002939071 -0.002996298 0.0016539501 0.00062043354 0.00039104538 0.0072538406
-0.008904805 0.0070675793 0.002081061 -0.0034278734 0.0013840386 0.00104571 0.0042255186 0.00277383
0.0024686763 -0.0036767335 0.005655816 0.0024468561 -0.00265222 0.0012000384 -0.0061101415 -0.007386535
-0.00020864012 -0.0016599632 0.008223405 0.0008684613 -0.0009167274 -0.0026935698 -0.0007419835 0.002333894
0.0047342726 -0.0016656037 -0.0020171294 0.002280821 -0.005346972 -0.002787793 0.001261304 0.0014818924
-0.0044082073 -0.0058335396 -0.00010100406 -0.003961975 0.005262442 0.0009535427 -0.0030750232 -0.005750911
0.009700006 -0.0013083629 -0.002148842 0.006448503 0.002552554 -0.0009940006 0.004745872 0.0009937396
0.00013679877 0.00062843604 -0.0002859751 -0.0008058074 0.003059946 0.00011855456 0.005447111 0.010123351
0.00039487885 0.0013622972 -0.0027133129 -0.0043790904 0.0012403686 -0.0040173205 0.004646041 -0.0020843733
-0.00017290324 -0.0049444903 -0.005301489 0.0015741738 -0.0010385668 0.0038742735 0.004885724 0.0014069715
-0.0036642759 -0.0010120136 -0.0019530052 -0.009602048 -0.0004975428 0.0015312128 0.0018833069 -0.003426508

network_body._body_endoder.seq_layers.2.weight f4 [128, 128]
00000000: 7aac 023d 5ad4 45bc 32f8 8fba 5cf6 35bd
00000010: 8a91 e93d 5ac4 87bd 2556 ca3d 7e61 e03c
00000020: 25b4 523c ab86 843d 1151 4bbd cbb5 243c
00000030: 301d 543d bc69 d73d b1a5 f1bc 2124 933d
00000040: 0ca0 c0bd 405f 45bd d452 b43d 82ee a53b
00000050: 34cf 4e3e a4ff aebd 6079 9a3d 4f9f c73d
00000060: e295 cbbd 41ad 0a3d 702a 603d d21b 70be
00000070: 89d5 523c 9f76 4fbe 3d7a cabd 84d5 303d
00000080: 0298 b5ba 3b02 abbc 72e3 9abc 9024 aa3c
00000090: b57a c0bd d3bf 82bd bda7 5ebd 8554 983c
000000a0: 4540 5a3c 9101 db3d e11e 92bd cd76 0bbe
000000b0: 870c fabd cd2b 52bc 53c5 acbd 93c4 ceba
000000c0: 577f edbc f504 ec3b 84c4 a83d c4f2 83bd
000000d0: 1fd3 86bd abc5 3cbd e972 d0bd 14da 11be
000000e0: 5e85 40be f966 1fbd 2308 d6bc 012f bbbc
000000f0: 6195 113e 3d66 9dbc 720e 72bd 080c a1bd
00000100: c8fe a43d 05d8 613d 1cca e63d 053b e43d
00000110: d514 91bc 191a 063d 3db2 ef3d b3f0 93b9
00000120: 5ca2 7ebd 1bab 403e 5511 30bd de88 c4bc
00000130: e3cf 1bbd b9c4 b53c 56d8 80bc 4fa3 963d
00000140: 1a36 37bd 62e9 5f3d 759d 11be dae1 fc3c
00000150: 1ae4 183c 00b8 093e 0b76 163e fc1e e1bc
00000160: 3436 10be 27c4 b83d 333d 42bd 3eed ff3d
00000170: 5ab0 73bd 847d 13bd 7f69 cc3d b798 cfbd
00000180: 73b9 ab3d 74f1 643b f9a9 813d e48d 833d
00000190: 2ea4 173d 36b6 423d 71bd 193d 69e0 a5bd
000001a0: 980f 7a3d 0f7d 01bc 644c b9bc c95d 173c
000001b0: 3f95 353d 0727 233e f829 233d c268 de3d
000001c0: 06f7 7eb9 5b48 3b3e 1516 833d ce6f a1bc
000001d0: 40a5 96bd b9ec 443e c760 203d d65d 08be
000001e0: 1ab3 353d d08a b43d ac2c 5abd 20d6 0b3c
000001f0: dd2e f4bd 4e87 a2bc 4e9e 783d a119 153e
00000200: e6aa 943d b1ec de3d 0c7a d33c 9c55 563d
00000210: 70e7 6bbd dd18 ea3d 9610 97bd 4606 d33c
00000220: c08c 82bd ccd2 79bd a093 3c3d c7de 6bbd
00000230: 29a1 ac3d eda9 e23d 639c eb3c 5dcd bb3d
00000240: c5d6 ad3b f40d 35bd 979c 9d3c 151f 31be
00000250: bc7f 01be f19c 02be 9670 8dbd 4ce6 cfbc
00000260: 6e01 c43d 8806 9f3c c83f 2b3e 2b26 f4bb
00000270: 182e bfbd f9c6 df3d e98f 6c3c e300 0bbc
00000280: bbd6 c53d 9eab 8bbe f446 f7bc 6a79 173d
00000290: 9efe c4bc bbf9 5d3d b44a 003d 5017 933d
000002a0: 17c9 40bd 8f7a abbc 7925 e3bc 4c7a 053e
000002b0: c313 ac3d 3c7a 813d 1ac2 db3d eb75 cfbd
000002c0: 2064 b7b9 281c de3d 59f6 cabc 66c5 e83b
000002d0: 30d4 d0bd e056 0abd 4e7f 16bb d78d a23c
000002e0: 3987 393e b35f 9cba 09b4 833c a9ec 24bd
000002f0: d22b 13be 8379 573c e670 b2bd 2171 5b3d
00000300: 22ba 88bd 1be8 a73c 14ab 143e 7641 8ebd
00000310: 0b2a 71be 7293 a8bd 5ed0 85bd a988 88bc
00000320: ce06 4d3c 6a71 abbd fbc0 c0bd 1629 933d
00000330: 80d6 0abe 00f3 0c3e 2246 82bd 9b57 12be
00000340: 225a 8b3c 1439 ea3d 03cf 9bbd 5536 c43c
00000350: f92c 973d 6820 b63d 3c96 ab3c 6729 773c
00000360: ad23 8b3b e163 b9bd 3332 3dbd b190 2cbe
00000370: 36de 94bd 5363 ecbc ae2a a83c 1d88 7abd
00000380: 697e d8bd a359 f9bd 8667 b03c b513 88bd
00000390: 7e58 04bd 242b 55bd a307 c03d 8604 14be
000003a0: 1b6b fd3d 4d57 e93c 098b 8dbd b477 303e
000003b0: 8a22 05bd 4714 c23c ec8f 8d3b 2d07 893d
000003c0: f5fc 82bd f963 69bd 1ba5 34bc cf43 ab3b
000003d0: 6480 2b3e e0b1 1a3e 2197 833c 5ad5 853d
000003e0: 113f 97bc 1776 6b3c e9c1 4bbd aeb5 013d
000003f0: c9c6 13bd 58a4 9ebc a3d6 adbd b25b 6ebd
0.031902768 -0.012074554 -0.0010984002 -0.0444244 0.114047125 -0.06629248 0.09879712 0.027390238
0.012860333 0.064709984 -0.049637858 0.010053108 0.051785648 0.10518214 -0.029497953 0.071846254
-0.094055265 -0.04818654 0.08804861 0.0050638327 0.20196229 -0.08544853 0.07542682 0.097471826
-0.09940697 0.033856634 0.05472797 -0.23448113 0.012868294 -0.20260094 -0.09886596 0.043172374
-0.0013854506 -0.020875087 -0.018907283 0.020769387 -0.093984045 -0.06384244 -0.054359186 0.01859499
0.013320987 0.10693658 -0.07134796 -0.13619538 -0.12209421 -0.012827826 -0.08436074 -0.0015775136
-0.028991384 0.0072027394 0.082406074 -0.06442788 -0.06583237 -0.04608695 -0.101781674 -0.14243346
-0.18800876 -0.03891656 -0.026126927 -0.022849562 0.1421714 -0.01921379 -0.059095807 -0.07863623
0.08056408 0.055137653 0.11269018 0.111440696 -0.017710129 0.032739732 0.11703918 -0.0002821736
-0.062166557 0.18815272 -0.04298528 -0.023991045 -0.038040053 0.022188531 -0.015728157 0.073553674
-0.04472933 0.05466593 -0.14220221 0.030869413 0.009331727 0.13449097 0.14693467 -0.027480595
-0.14083177 0.09021788 -0.047421645 0.12496422 -0.059494354 -0.036008373 0.09981059 -0.1013655
0.08384981 0.0034933956 0.06331248 0.06423548 0.03702181 0.04753705 0.03753418 -0.080994435
0.061050028 -0.007903351 -0.022619434 0.009238669 0.044331785 0.15932857 0.039834946 0.10859825
-0.00024315351 0.1828932 0.06400696 -0.019706633 -0.07355738 0.19230928 0.039154794 -0.13317046
0.044360258 0.08815539 -0.05326526 0.008534938 -0.11923001 -0.019839909 0.060697846 0.14560558
0.07259159 0.10884989 0.025815032 0.052327737 -0.057593763 0.114305235 -0.073762104 0.025759827
-0.06374502 -0.060992047 0.046039224 -0.057585504 0.08429176 0.11067567 0.028761094 0.09170029
0.0053051435 -0.04420276 0.019239707 -0.17297013 -0.12646383 -0.12755181 -0.0690624 -0.025378369
0.09570585 0.019412294 0.1672355 -0.007450839 -0.093349636 0.10926623 0.014438608 -0.008484098
0.09660097 -0.2727937 -0.0301852 0.036981024 -0.024047192 0.05419324 0.031321242 0.07182181
-0.047066774 -0.020932464 -0.02772783 0.13034934 0.08402207 0.063221425 0.10730381 -0.10129913
-0.0003497908 0.10845214 -0.02477567 0.00710361 -0.101967216 -0.033774257 -0.0022964063 0.019843025
0.1811799 -0.0011930376 0.016077058 -0.04026476 -0.14372185 0.013151529 -0.0871294 0.053574685
-0.06676127 0.020496419 0.14518386 -0.069460794 -0.23551194 -0.08231248 -0.065338835 -0.016666727
0.012513829 -0.083712414 -0.09411808 0.07185571 -0.13558388 0.13764572 -0.06361033 -0.14291231
0.017010752 0.11436668 -0.07607844 0.023951689 0.07381625 0.088929 0.02094566 0.015085555
0.0042461962 -0.090522535 -0.04619045 -0.1685207 -0.07268946 -0.028855955 0.020528164 -0.061164964
-0.10570986 -0.121753 0.021533739 -0.06644384 -0.032310955 -0.052043095 0.093764566 -0.1445485
0.12373944 0.028484011 -0.069112845 0.17233163 -0.032503642 0.02369131 0.0043201353 0.06690822
-0.06395904 -0.056980107 -0.011025692 0.0052265893 0.16748196 0.15106916 0.016063275 0.06534834
-0.01846269 0.0143714165 -0.049745474 0.031667404 -0.03607825 -0.019365475 -0.08488204 -0.058192916

network_body._body_endoder.seq_layers.2.bias f4 [128]
00000000: 7cfb 46bb 7244 32bb cb56 41bb a162 6e3c
00000010: e8cc 603b 8c85 143b fd33 6dbb 71f1 84bb
00000020: 242d 4cbb 975e 82bb 5f0c 54bb 49ef 4abb
00000030: 519d 3a3a 6420 f93a 8392 533b 8003 103b
00000040: de36 993b b30a 76bb 2714 12bb 23a9 f5ba
00000050: dcb9 363a c83f 15ba 158f 0ebc b2ca 34bb
00000060: 143a b038 163d 31bb 6bc3 56bb 2a03 883b
00000070: 8e6d 563b a94c 8a3b 7e86 58bb 98f6 483a
00000080: aae0 1fbb ecc1 81bb b39b 413b e7f6 023c
00000090: e76f 6cbb 276b 9eba 3bc1 f53a 2a4d 903b
000000a0: 2a4c 9fbb fe0a 9e3a 64b4 06bb bc82 263b
000000b0: 4cad 09ba 8646 0b3b 7840 b4bb dce3 8eb8
000000c0: 1a87 a53b 706b 273b 3009 df3a a211 8239
000000d0: 1e0d a7bb cdd5 b63a 3d00 723a 9d22 42bb
000000e0: b84c 4ebb fc07 11bb b4e3 dbba 6eb4 f139
000000f0: 21dd 443a 54e9 593b 70f3 18bb 6497 aa3b
00000100: ae33 5bbb 40ba 72bb 4537 06bb c2e1 a53a
00000110: 6d46 05bb 895d 7139 e596 1139 4075 5dbb
00000120: 32c5 003b e278 233b 2c48 62ba 7abc 4f39
00000130: b4b3 87bb 58d1 aabb 566a e83a 3ca2 833a
00000140: 832a 5c38 3ad2 4fb9 615e e8bb 0245 1c3b
00000150: ca25 de3b 2bec 183b ce9d 5bbb bd50 e8ba
00000160: 9913 f03a 4267 e8ba fb0d 48bb 8d05 a5bb
00000170: b9d0 f53a 761d be3a dc40 8fb8 afd1 8d3a
00000180: 1df0 673b 36e4 4a3c 02d9 38bb 330b f3ba
00000190: cef8 8dbb 8520 fcba 03b6 35bb d4a8 08bb
000001a0: 5ccc 30ba 1f6f 96bb 7b1e 17ba 381a 38bb
000001b0: 85f3 2fbb e3e8 e5bb d0fe 483a 280c 7b3b
000001c0: 3311 e53a 99fa 1abb 9b7c 753a 9937 4bbb
000001d0: cc3e a53a 9b3a 97bb 32be ca39 477a 5dba
000001e0: 420c c53b 11c7 29bb 0e62 953b 4043 a9ba
000001f0: 0adf 78bb 59ed b2b9 3205 1bbb 0f3c 09bb
-0.0030362299 -0.002720144 -0.0029501196 0.014549882 0.003430182 0.0022662608 -0.0036194318 -0.0040571024
-0.0031154836 -0.003978561 -0.0032356007 -0.003096538 0.0007118779 0.0019006846 0.0032283373 0.0021974742
0.00467573 -0.0037542998 -0.0022289844 -0.0018742423 0.0006970444 -0.0005693403 -0.008701106 -0.0027586636
8.403152e-05 -0.0027044467 -0.0032770287 0.004150768 0.0032719108 0.0042205644 -0.0033039148 0.000766614
-0.0024395385 -0.003959885 0.0029542267 0.007993436 -0.0036077441 -0.0012086377 0.0018749604 0.00440373
-0.0048613744 0.0012057719 -0.0020554299 0.0025407514 -0.00052519585 0.0021251752 -0.0055008493 -6.81353e-05
0.0050515058 0.0025546215 0.0017016288 0.0002480867 -0.0050979992 0.0013949216 0.0009231603 -0.0029622682
-0.0031478833 -0.0022130003 -0.0016776235 0.00046101533 0.00075097574 0.0033250647 -0.002333846 0.0052060355
-0.0033447552 -0.0037037283 -0.002047972 0.0012655782 -0.0020336166 0.00023018396 0.0001388449 -0.003379181
0.0019648788 0.0024943878 -0.000863197 0.00019811271 -0.0041412953 -0.005212944 0.0017731886 0.0010042856
5.249168e-05 -0.00019819374 -0.007091329 0.0023844843 0.006779407 0.0023334126 -0.0033510807 -0.0017724257
0.0018316387 -0.0017730969 -0.003052591 -0.005036062 0.0018754221 0.001450463 -6.830852e-05 0.0010819937
0.0035390921 0.012383511 -0.0028205519 -0.0018542766 -0.0043326383 -0.0019235766 -0.0027726896 -0.0020852583
-0.0006744319 -0.0045908834 -0.0005764735 -0.00280918 -0.002684803 -0.0070162877 0.00076673646 0.0038306806
0.0017476439 -0.0023647903 0.0009364576 -0.003100848 0.0012607216 -0.0046151406 0.0003867015 -0.00084487017
0.006013424 -0.0025906006 0.004558808 -0.0012913719 -0.0037974739 -0.00034127643 -0.002365422 -0.0020940339

action_model._continuous_distribution.log_sigma f4 [1, 2]
00000000: 0a41 943a 9bb9 ef3b
0.0011310887 0.007315827

action_model._continuous_distribution.mu.weight f4 [2, 128]
00000000: 6db9 15bc e84d 36bb a060 a63c 929c 0cbb
00000010: 60fd 083c 3d17 d53c e98a e0bc 3adc 8ebb
00000020: ab8d 023c 6a10 d4bc ab16 22bd 4b93 9cbb
00000030: fed8 883b 62a0 f33b db1f edbb 738a ee3b
00000040: 149b c63b 96e4 113a 416d 0cbc 7fdd 07bb
00000050: 330c ae3b 96aa 063c 4d89 24ba 8d34 2abc
00000060: af27 ebbb 5451 cdbc 7311 a6bc 557a 97bc
00000070: 939d c3ba 0699 b0bc 3dba 0c3b 1bbf 033c
00000080: da19 3c3c 518e b1bc a733 cf3c 2423 cebc
00000090: 30b9 ab3b 51b7 0cbc 1066 b13c 49a7 47bb
000000a0: 5cc5 9b3c bf84 073d ad3b c0ba 578a f93c
000000b0: 8fe1 83bb a809 873c 9146 473a daf2 e03c
000000c0: 8e73 ec3b 448d 753a 4b99 fd3a 81e4 49bd
000000d0: beff 1dbc eab7 4c3c 946b 45bc 07ae 26bc
000000e0: 64c7 52b9 4b23 953b 0d28 9abc 71d7 413b
000000f0: b18e e93b 7f79 99bc ee89 c7bc 79a4 523c
00000100: eba1 89bb e1f1 71bc 901e 383c 6f42 8f3c
00000110: 5ac5 193c 5df2 77bc 2393 3a3c 0803 91bc
00000120: 9c19 96bc 33dc 343c b758 20bc 003f 7a3c
00000130: e557 e6ba bf45 583b ad9a 90bc e68f 043c
00000140: cdef 6cbb a58f 2ebc 3526 54bb 8454 25bc
00000150: 4d00 1dbc f983 4e3d f978 bcbb 37f2 e6bc
00000160: 9b8e ccbb 46ea 653c 6414 1fbc ab9c bb3b
00000170: b6ad 703b fa05 7e3c 65ad 863c a5fb de3c
00000180: 2213 27bc b5cf 983b 6968 9dbc 61cd c3bc
00000190: 0e8d 323a c761 2c3c e18d 10bc b8fa 973c
000001a0: 4fd0 993c 0363 f1bc 5a1e a9bc ba3d 553c
000001b0: 925f 6f3c e7b9 7ebc 403c 16bd e39d de3b
000001c0: 2b3b c93c 3939 c7bb 6041 3bbc 9b5c ec3a
000001d0: 9a5f 9c3c d1de 363c 4edc 283b 1aef 523b
000001e0: 9ca7 d3bc 859b e6bc dfd8 7bbc 3d59 863c
000001f0: 9865 a1bb e140 a8bb de07 a6bc 1ce8 c5bc
00000200: 3590 823c b128 993a b3d3 213c f21d e03c
00000210: d866 e9bc 4029 3dbc e911 fa3c 60aa 77ba
00000220: 8803 dc3b 1b1b 423c 6344 b93b 21e4 ee3b
00000230: 666c a1bb 71d3 e03b f317 65bc 6ad8 66bb
00000240: bfa2 efbb f987 153b d98b bd3c 0f76 bf3c
00000250: b114 e0bc 96ea 4eba 5ace 8fbc 5eb5 903a
00000260: 1ceb 993c c60e 233c cc4d ca3c ad44 6abc
00000270: 3d11 c6bc dfc9 963c b832 8abc 71fb 983b
00000280: 9519 663c 7f84 823c 0c20 06bc 8274 90bc
00000290: 2b0d 3b3c efe6 bdbb 11dc 1d3b 1b9d 86bc
000002a0: 884d 9cbc b79c 4ebb b2a9 88ba edf6 abbb
000002b0: 8132 153b c549 8abc 69bf 443c 39f1 3a3c
000002c0: 9c8e 873c 7a58 aabc a413 ed3b 65c0 51bb
000002d0: 0434 813c 9b79 233a f5ad 65bc 325b 1f3c
000002e0: 4310 a2bc a624 a03c fa90 953c eb5f 5e3c
000002f0: 4516 50ba 5005 5b3c 8a06 733c d1e1 693c
00000300: 2bfc 653c c0f7 8c3b c7ee 533c f83b 533b
00000310: 0b3b ce3c 3c26 9b3c 15da 133a fb5e 75bb
00000320: 2aae 893c c4fc cbbc 42c7 44bc a2d9 153d
00000330: 2840 0e3b 0ade 233c 02d2 0fbd 0cc5 183d
00000340: 9904 edbb 6065 583c 4ef7 29bc 379e 9d3c
00000350: a5f3 863c 1d40 73bb 42ba cc3b 84c5 833c
00000360: c772 c9bc ff1c d7bb 4e61 9d3b 0377 51bc
00000370: d51b d8bb 7631 9b3a b3f0 ddbb 30f8 c43b
00000380: d5c8 e63b 4bba 8e3c 12d6 043c 940d 563c
00000390: 9055 ae3c a8de fe3b ad1f c73c e8aa 893c
000003a0: 0f8c 9d3c df0e 2e3c 7756 d33b 5ab8 22bb
000003b0: 3578 92bb 004b 603b 672f 0b3d e3bd bebc
000003c0: 4f78 a0bb bae9 e93b 46e5 ef3c 8a3c b33b
000003d0: 0781 7aba df42 93bb 64b1 9dbb 681e 873c
000003e0: 386f ca3c 02bb 423c 5b4c 2a3c 6811 42bc
000003f0: 0f3c d63b 5f87 803c 4352 593c d760 9b3b
-0.009138447 -0.0027817432 0.020309746 -0.0021455628 0.008361191 0.026012057 -0.027409988 -0.004359749
0.007968347 -0.025886733 -0.0395724 -0.004778301 0.004176258 0.0074348906 -0.0072364635 0.007279688
0.006060967 0.0005565373 -0.00857097 -0.0020731387 0.005311513 0.008219382 -0.0006276563 -0.010388506
-0.0071763615 -0.025063194 -0.020271992 -0.01849095 -0.001492428 -0.021557342 0.0021473311 0.008041169
0.011480773 -0.021674307 0.025293184 -0.02516324 0.005240582 -0.008588628 0.021655113 -0.00304647
0.019015007 0.03308558 -0.0014666222 0.030461473 -0.0040246914 0.016484097 0.0007601763 0.02745955
0.0072159236 0.00093670585 0.0019348053 -0.049290184 -0.009643493 0.01249502 -0.012049574 -0.010173327
-0.0002010144 0.0045513264 -0.018817926 0.0029577876 0.007127606 -0.018734692 -0.024357762 0.012856596
-0.0042002103 -0.014767141 0.011237755 0.017487733 0.009385431 -0.0151334675 0.011387619 -0.01770164
-0.018322758 0.011038828 -0.009786776 0.015273809 -0.0017573802 0.0033000556 -0.01765188 0.008090949
-0.0036153675 -0.010654365 -0.0032371406 -0.010090951 -0.009582591 0.050418828 -0.0057517258 -0.028191669
-0.006242586 0.014032906 -0.009709451 0.0057254634 0.0036724634 0.015504355 0.016440103 0.027219603
-0.010197433 0.0046634325 -0.019214826 -0.023901643 0.000681118 0.010521359 -0.008822889 0.01855217
0.018776087 -0.029466158 -0.020644356 0.013015205 0.014610188 -0.015547252 -0.036678553 0.006793724
0.024564346 -0.0060798195 -0.011429161 0.001803297 0.019088555 0.011161522 0.0025766077 0.0032185973
-0.025836758 -0.02815033 -0.01537153 0.016399974 -0.004925441 -0.0051346873 -0.020267423 -0.02415853
0.015937904 0.0011685101 0.009877133 0.027358029 -0.028491423 -0.011545479 0.030526118 -0.000944769
0.006714288 0.011847283 0.0056539043 0.0072903787 -0.004926252 0.0068611433 -0.013982761 -0.0035224208
-0.007313102 0.0022816642 0.023137974 0.023371724 -0.027353616 -0.00078932324 -0.01755445 0.001104038
0.018788867 0.009952253 0.0246953 -0.0142986 -0.024178142 0.018406807 -0.016869888 0.004668646
0.014044185 0.01593232 -0.0081863515 -0.01763368 0.011416714 -0.0057953517 0.0024087469 -0.016432336
-0.019079939 -0.0031526515 -0.001042655 -0.0052479417 0.0022765698 -0.01688088 0.012008526 0.011410051
0.016547494 -0.020794142 0.0072350074 -0.0032005545 0.015771873 0.0006236077 -0.014018525 0.0097263325
-0.019783145 0.019548725 0.018257607 0.013572673 -0.0007937889 0.013367966 0.014833102 0.01427503
0.014037172 0.004301995 0.012935347 0.003223179 0.025174638 0.01893913 0.0005640102 -0.0037440646
0.01680668 -0.024900801 -0.012010397 0.036584504 0.002170572 0.010001669 -0.03511239 0.037297294
-0.007233214 0.013207763 -0.010373903 0.019240482 0.0164736 -0.0037117072 0.0062477896 0.016085394
-0.024590863 -0.006564736 0.0048028594 -0.012784722 -0.0065951147 0.0011840302 -0.0067730783 0.0060110316
0.007042984 0.017422816 0.008107679 0.013064761 0.021281034 0.0077780075 0.024307096 0.016805127
0.019231824 0.010623663 0.0064495164 -0.002482912 -0.004469896 0.003422439 0.033980753 -0.023283904
-0.0048971544 0.007138458 0.02928413 0.0054698633 -0.000955597 -0.0044940556 -0.0048124064 0.016493991
0.024711236 0.011885406 0.010394181 -0.01184497 0.0065379213 0.01568955 0.013264242 0.004741769

action_model._continuous_distribution.mu.bias f4 [2]
00000000: 5aab f23a bcbf 1cbb
0.0018514202 -0.0023917994

exp_avg f4 [128, 6]
00000000: 8528 c8b7 c713 8334 c45d 3537 1ebb b4b7
00000010: 8771 e534 a99a b3b7 67f7 4fb8 9920 c134
00000020: 4090 8538 147a d2b7 7e9a 0535 2f2a d1b7
00000030: 5d03 15b8 ccbc 7035 9d23 e537 bde6 e0b8
00000040: 6ec2 0e36 bd7f dfb8 a372 9bb9 4649 8036
00000050: ee79 ca37 c02b b7b9 7e8a e836 6007 b6b9
00000060: 6982 4bb6 a074 2a34 d97e 3436 61af 67b7
00000070: cf10 9334 903d 66b7 4c06 57ba 28fc 2937
00000080: 54ee 3139 3e12 81ba 23dc a337 3944 80ba
00000090: 570b 98b9 b9c9 1a36 5e5b 33b9 2534 80b9
000000a0: 32c2 a236 0fcf 7eb9 a72c 46ba 12c7 1637
000000b0: 19e7 ae38 ce01 56ba 1fd8 8737 38ac 54ba
000000c0: 5c65 39b6 4b26 8335 5a34 b136 bad3 abb8
000000d0: c523 da35 7dc1 aab8 e2dc 1a39 bd29 0db6
000000e0: c427 3d39 f501 6d39 bb71 96b6 a787 6b39
000000f0: 8679 8536 edce cc32 3c2e 6036 a610 2f35
00000100: 3d40 5eb2 45f9 2d35 d994 6639 2184 13b6
00000110: d843 ddb8 be08 4e39 89c8 82b6 e7bf 4c39
00000120: 3b7b 19b7 68e1 09b6 9219 a1b7 9084 3a39
00000130: 3eca 6cb6 d85a 3939 c90f 1936 117b 3433
00000140: 0c82 b9b6 9624 99b6 976b c233 3930 98b6
00000150: 67ca 2639 c583 53b6 35c3 af38 84a2 aa39
00000160: 48a0 d8b6 2792 a939 8c9e 19b7 fee7 d634
00000170: a595 4d37 d93f 00b8 05d1 2235 43e6 feb7
00000180: 1978 d839 16c8 9eb6 5709 75b9 8d62 da39
00000190: 8b9f 0ab7 fe05 d939 16b1 73b9 c61a 1e36
000001a0: aed4 bdb8 8c92 4fb9 7fc2 8336 3c47 4eb9
000001b0: e90d 89b8 665e a936 7664 96b9 a567 dbb9
000001c0: 4445 0b37 6009 dab9 386d 09b8 58ea 4132
000001d0: 566f bdb7 dcf9 35b8 1c06 6735 6ed7 34b8
000001e0: b4b5 c137 715e 00b5 20cf bab7 25b1 4438
000001f0: ddb4 79b5 3177 4338 c24e 72ba 93b3 3037
00000200: d20f 2139 709c 7cba 4759 a037 3c09 7bba
00000210: 8e30 1638 89b0 4236 e6dd 50b6 0181 7fb9
00000220: 5e2f a236 2fe9 7db9 7353 05ba 1c28 7e36
00000230: d549 2b39 4dcb dcb9 0527 0c37 dc6a dbb9
00000240: 4f6f 0eb7 f931 cc32 f363 a6b7 32f2 69b7
00000250: 3a80 9434 ad7c 68b7 a9f5 76b9 1a24 ca35
00000260: 44c7 16b8 371d 11b9 173a 3836 9835 10b9
00000270: 624a 1838 8553 6bb5 3393 8437 2957 0f39
00000280: 9ff9 35b6 5972 0e39 7764 03b8 bc34 b834
00000290: 6269 b7b6 1d40 eab7 abb1 1435 38ca e8b7
000002a0: 530c 5b38 361a 3eb4 c3fd 0cb9 8c2d 1937
000002b0: 7c76 42b4 9838 1837 f205 58b7 3098 5334
000002c0: 85dc a7b7 d873 b6b7 03a1 e734 9d50 b5b7
000002d0: 9b74 67b6 9ec3 1134 38ec 94b7 f32c 34b7
000002e0: 12bd 6434 6b0d 33b7 7498 aa39 504f 8cb6
000002f0: 0482 2d37 ba4a b839 d5f6 e9b6 9324 b739
00000300: 6b2f 1037 75de 6d35 d828 4838 546d a3b8
00000310: c379 cf35 7868 a2b8 9efd 2338 6200 c4b4
00000320: 70c8 a1b7 fdba 1638 5b5b 3fb5 65ca 1538
00000330: bf82 b9b8 57e6 1a36 42c1 e237 a2bd 3bb9
00000340: b157 6e36 f691 3ab9 e1fe 58b7 4c11 b434
00000350: fa8f 8e37 bc20 0ab8 855b 2f35 3f44 09b8
00000360: 865e b4b6 00dc 8f32 f0ae 83b6 9cc5 dfb2
00000370: e108 0e30 685e deb2 9471 1eb9 4d0e 4436
00000380: fedb edb8 d83c aeb9 3133 dd36 b926 adb9
00000390: 9b6e b7b9 c335 9536 8f75 2eb9 41d0 ceb9
000003a0: 2a47 0337 2186 cdb9 d649 03b9 5287 ed35
000003b0: fd06 c5b8 250a 5fb9 e993 8d36 24a6 5db9
000003c0: 1f1f 1fba 9b2c d936 c1c2 b039 8c18 29ba
000003d0: 1fac 5637 a10a 28ba a5f9 fab9 1db6 8036
000003e0: ed6c 8038 87ae efb9 4324 1837 f42f eeb9
000003f0: 7568 ecb6 cbb5 0634 21d6 8f36 1cda 38b7
-2.3860726e-05 2.441504e-07 1.0810272e-05 -2.1544805e-05 4.2737176e-07 -2.1410482e-05 -4.9583057e-05 3.597277e-07
6.368803e-05 -2.5090798e-05 4.9771177e-07 -2.4934385e-05 -3.55275e-05 8.96817e-07 2.7315511e-05 -0.00010724131
2.1272822e-06 -0.00010657262 -0.00029649315 3.8232274e-06 2.4137054e-05 -0.00034937076 6.9302614e-06 -0.0003471924
-3.0325266e-06 1.5874912e-07 2.6895925e-06 -1.38095065e-05 2.7393114e-07 -1.3723402e-05 -0.00082025374 1.0131895e-05
0.0001696882 -0.0009847356 1.9533623e-05 -0.0009785957 -0.00029000148 2.3065206e-06 -0.00017104807 -0.00024452913
4.8505835e-06 -0.00024300463 -0.00075597543 8.987046e-06 8.340012e-05 -0.0008163721 1.6193893e-05 -0.0008112821
-2.7626147e-06 9.771405e-07 5.2811056e-06 -8.1933526e-05 1.6252676e-06 -8.142272e-05 0.0001476887 -2.1034932e-06
0.00018039258 0.0002260281 -4.4835883e-06 0.00022461881 3.977856e-06 2.3842825e-08 3.3405513e-06 6.5216807e-07
-1.2936707e-08 6.4810257e-07 0.0002198996 -2.1981616e-06 -0.00010550738 0.00019648948 -3.8976473e-06 0.00019526445
-9.1482025e-06 -2.0545795e-06 -1.9204603e-05 0.00017787726 -3.528446e-06 0.00017676817 2.2807965e-06 4.2021444e-08
-5.528569e-06 -4.5640145e-06 9.0533995e-08 -4.535567e-06 0.00015906394 -3.151815e-06 8.3810104e-05 0.0003254601
-6.455961e-06 0.00032343084 -9.156425e-06 4.0029403e-07 1.2253794e-05 -3.057704e-05 6.0653866e-07 -3.0386384e-05
0.0004128821 -4.73206e-06 -0.000233685 0.00041653626 -8.2625875e-06 0.0004139393 -0.00023240256 2.355942e-06
-9.051837e-05 -0.00019795651 3.9267466e-06 -0.00019672228 -6.53526e-05 5.047582e-06 -0.0002868508 -0.00041848156
8.301173e-06 -0.00041587185 -3.2765063e-05 1.1287362e-08 -2.25824e-05 -4.3386462e-05 8.6063096e-07 -4.311598e-05
2.3092005e-05 -4.7821146e-07 -2.2269378e-05 4.689502e-05 -9.302292e-07 4.660263e-05 -0.0009243303 1.0532228e-05
0.0001536005 -0.0009636348 1.911506e-05 -0.0009576266 3.5808007e-05 2.901101e-06 -3.1123577e-06 -0.00024366753
4.8334905e-06 -0.00024214828 -0.0005085982 3.7872296e-06 0.00016335335 -0.0004211314 8.353735e-06 -0.00041850551
-8.489776e-06 2.377145e-08 -1.9835285e-05 -1.3944273e-05 2.7660445e-07 -1.3857306e-05 -0.00023551904 1.506068e-06
-3.5948367e-05 -0.00013839161 2.745195e-06 -0.00013752875 3.63089e-05 -8.766586e-07 1.5804171e-05 0.00013670012
-2.71164e-06 0.00013584773 -3.13264e-05 3.431104e-07 -5.466093e-06 -2.7924829e-05 5.539284e-07 -2.775072e-05
5.2225147e-05 -1.7704664e-07 -0.00013445974 9.130115e-06 -1.8110762e-07 9.073083e-06 -1.28759875e-05 1.9706272e-07
-2.0010639e-05 -2.1750035e-05 4.3144254e-07 -2.161442e-05 -3.4489556e-06 1.3575342e-07 -1.7752973e-05 -1.0739302e-05
2.1302938e-07 -1.06723555e-05 0.00032538513 -4.1815583e-06 1.0341875e-05 0.0003515089 -6.972676e-06 0.0003493173
8.594109e-06 8.86131e-07 4.7721755e-05 -7.7928096e-05 1.5458139e-06 -7.744221e-05 3.9098428e-05 -3.6508123e-07
-1.9286032e-05 3.5936933e-05 -7.1285984e-07 3.5712863e-05 -8.845841e-05 2.3081864e-06 2.7031292e-05 -0.00017904353
3.5515807e-06 -0.00017792717 -1.2933947e-05 3.3540198e-07 1.6994763e-05 -3.293225e-05 6.532576e-07 -3.2726904e-05
-5.375422e-06 1.6747435e-08 -3.9244696e-06 -2.6050479e-08 5.1671917e-10 -2.5887132e-08 -0.00015110365 2.92146e-06
-0.000113420174 -0.00033233198 6.5922727e-06 -0.00033025982 -0.00034986887 4.4468047e-06 -0.00016637727 -0.00039446543
7.824778e-06 -0.0003920058 -0.0001252064 1.7697259e-06 -9.394994e-05 -0.00021270716 4.2193465e-06 -0.00021138095
-0.0006070006 6.4722967e-06 0.0003371444 -0.0006450496 1.2795469e-05 -0.0006410275 -0.00047869715 3.835898e-06
6.1238046e-05 -0.00045715665 9.068349e-06 -0.00045430625 -7.0455085e-06 1.2545858e-07 4.28666e-06 -1.1018037e-05

exp_avg_sq f4 [128, 6]
00000000: 2478 8b30 1b8a 5e2a 3978 7f2f 3ab5 bf30
00000010: 0f7d 1a2b 2253 bd30 59d7 9b32 2b39 072d
00000020: f697 4733 a887 6933 e230 bc2d 7da0 6633
00000030: 02cc 4b32 fffd 192d 96d9 5232 e221 8733
00000040: 3ccb d92d da73 8533 2822 f133 69bc 742e
00000050: 0cc7 9f33 5e6a d534 4dfb 2b2f 26c3 d234
00000060: e4eb cc2e c498 3b29 5a03 bc2e 3bc9 a42f
00000070: 1fcb 042a d0bc a22f 3601 1d35 8a53 562f
00000080: 225a 2f34 8c41 ba35 5c18 1630 d4f0 b735
00000090: f23c 8d33 5bd5 502e 0c45 e233 8866 b634
000000a0: f7fc 122f 1222 b434 8695 bf34 d4a4 c02e
000000b0: b5ab b833 6d2c 2735 abb7 862f 6618 2535
000000c0: 57b5 d831 4e0e b92c 6ba4 ff32 457a 1f33
000000d0: 0284 802d c17e 1d33 2651 5c33 465e cb2d
000000e0: 373e c432 cb8b 3434 677e 912e 404d 3234
000000f0: 37e9 1e2d 931c ea28 9c7b 812e ed1e 502f
00000100: 0ab7 a729 9f88 4d2f ccc0 9b33 0c6a c82d
00000110: fd0a 3033 d47a 2d34 a0cc 8b2e c452 2b34
00000120: 4839 7830 f687 822b 237a ae30 f63a f531
00000130: a59e 452c 8a2e f231 9a15 fc2f 3848 8d29
00000140: af81 a22f 3b11 f42f b6ae 442a 7908 f12f
00000150: b139 8333 89ff 4a2e 2790 3e33 7a6b b234
00000160: c3c7 0f2f af33 b034 edd3 7d2f 787c 882a
00000170: 781a a12f d5e5 ea30 164b 3d2b 47fa e730
00000180: f299 3633 0721 b12d fdc7 3833 940b 1c34
00000190: cf7f 7b2e fb1a 1a34 646d aa32 7fac a22d
000001a0: 0f2f 2a33 5b95 0c34 5494 622e fad5 0a34
000001b0: 83cb 0635 5b77 722f 9721 e734 7b10 d135
000001c0: ab79 2830 2277 ce35 8d0c 7731 cbb2 182d
000001d0: 4e2d eb31 8d5d 8733 6c2b da2d caae 8533
000001e0: a2d9 2e32 882e 1f2c 0a84 8d31 50b9 8832
000001f0: e75b dc2c 3706 8732 5520 2035 09ee 4e2f
00000200: 968f 7734 3c52 b335 b381 1030 9217 b135
00000210: 6c8c 8830 0f08 012c 40bb 6f31 5b5a 6d32
00000220: 9845 bf2c 0967 6a32 ab89 fa33 7180 852e
00000230: 808e 9033 5c25 ed34 d91a 3f2f a532 ea34
00000240: 4a3a 7330 bc43 d92b 86b1 b231 fe8f 3f32
00000250: 145f 9a2c 642e 3d32 c6a1 9e32 0aa8 492d
00000260: 9d2c 6f32 8552 b333 f581 102e d617 b133
00000270: c7f6 b930 e3a8 ce2c 7c76 b631 cb39 4333
00000280: cb52 9d2d 83cc 4033 6118 9e2f b14f 482a
00000290: 9c70 6030 926c ac30 d8f2 0a2b d147 aa30
000002a0: 9609 4433 2f20 2a2d 226f 2433 261d 9333
000002b0: be1a ed2d f448 9133 1787 622f 9c2a 162a
000002c0: ccd7 ae2f adcc 8530 48a5 d72a de22 8430
000002d0: 13cb 4d30 b5b8 b42a 8244 e52f 8236 1c31
000002e0: 09c5 7b2b 6b45 1a31 da36 0033 cc62 a82c
000002f0: e747 fa31 a721 1133 d4e8 692d ca53 0f33
00000300: 24a3 222f 9e49 002a d01f b62f 074c 6030
00000310: 26c0 b42a 3f82 5d30 6c35 c930 b814 cc2a
00000320: 59b7 ae30 9747 3131 8cdc 8e2b 6613 2f31
00000330: e731 d732 70f0 922d 6c84 c131 7ffb 0134
00000340: 5f7e 512e d65d 0034 3e15 1230 787f c92a
00000350: 9675 0330 0726 3031 2ff3 8d2b 6af5 2d31
00000360: 4b11 e82e 632b c329 639d 6c2f b00c 2830
00000370: 676c 872a f2f5 2530 b2b1 f133 9065 d52e
00000380: f59e 1134 f1b8 3a35 9978 962f bb66 3835
00000390: 6d4c b033 66b9 012e 9162 6b33 5cad 6034
000003a0: 990e b52e 60e2 5d34 b203 4132 8f8b 732d
000003b0: 81b4 8e32 4135 da33 f9d7 2f2e d07e d733
000003c0: 15bb 1334 546a 8c2e 97de bf33 c5a3 f734
000003d0: b88f 472f b08f f434 4775 2533 1394 482e
000003e0: 642c ec32 2d23 b734 fd94 132f 65dc b434
000003f0: f055 de2f a541 8c2a b305 ee2f 290a f330
1.0147727e-09 1.9765476e-13 2.3234827e-10 1.3948587e-09 5.4885344e-13 1.3775188e-09 1.8142304e-08 7.686555e-12
4.6471506e-08 5.437292e-08 2.1394834e-11 5.369701e-08 1.1862541e-08 8.7534415e-12 1.2273082e-08 6.2925906e-08
2.4760298e-11 6.2143684e-08 1.122865e-07 5.564652e-11 7.440221e-08 3.9751734e-07 1.564164e-10 3.9257537e-07
9.3187486e-11 4.1654844e-14 8.5498456e-11 2.997441e-10 1.1794427e-13 2.9601788e-10 5.848882e-07 1.9492866e-10
1.6330935e-07 1.3877157e-06 5.46043e-10 1.3704653e-06 6.57691e-08 4.7483222e-11 1.0536505e-07 3.3974743e-07
1.3368494e-10 3.3552402e-07 3.5685315e-07 8.7604285e-11 8.599401e-08 6.2276996e-07 2.4504962e-10 6.1502794e-07
6.3070433e-09 5.2596044e-12 2.9760676e-08 3.7131276e-08 1.4610538e-11 3.6669693e-08 5.1296546e-08 2.3120294e-11
2.2845695e-08 1.6814663e-07 6.61629e-11 1.6605645e-07 9.033044e-12 2.5991611e-14 5.888198e-11 1.8928477e-10
7.448042e-14 1.8693179e-10 7.2528195e-08 2.2784462e-11 4.0988187e-08 1.6156565e-07 6.357337e-11 1.5955726e-07
9.0303276e-10 9.274792e-13 1.269488e-09 7.1371415e-09 2.808345e-12 7.048418e-09 4.5853882e-10 6.274186e-14
2.9559774e-10 4.4395584e-10 1.7468912e-13 4.3843665e-10 6.110657e-08 4.6156443e-11 4.4368928e-08 3.3233283e-07
1.3076744e-10 3.282016e-07 2.3085507e-10 2.424482e-13 2.9304537e-10 1.7091063e-09 6.725049e-13 1.6878595e-09
4.251519e-08 2.0137237e-11 4.3022727e-08 1.4532844e-07 5.718431e-11 1.4352183e-07 1.984035e-08 1.8493871e-11
3.962401e-08 1.3092851e-07 5.1518192e-11 1.2930096e-07 5.021504e-07 2.2052175e-10 4.3051543e-07 1.557651e-06
6.1290945e-10 1.5382868e-06 3.5950365e-09 8.6799e-12 6.8445507e-09 6.303444e-08 2.4803014e-11 6.225089e-08
1.0177617e-08 2.262109e-12 4.118651e-09 1.5916754e-08 6.2629793e-12 1.5718895e-08 5.9651694e-07 1.8820158e-10
2.3055904e-07 1.3360473e-06 5.257121e-10 1.3194388e-06 9.935213e-10 1.8336476e-12 3.4885517e-09 1.381576e-08
5.436273e-12 1.364402e-08 1.1666574e-07 6.0709555e-11 6.731443e-08 4.4171873e-07 1.7380887e-10 4.3622745e-07
8.848572e-10 1.5437577e-12 5.200664e-09 1.1150403e-08 4.387499e-12 1.1011796e-08 1.8467187e-08 1.1462839e-11
1.3921775e-08 8.350347e-08 3.2857234e-11 8.2465405e-08 1.353066e-09 5.8736223e-12 5.3103673e-09 4.5454538e-08
1.7885601e-11 4.4889486e-08 2.8757355e-10 1.7791217e-13 8.1650753e-10 1.2545505e-09 4.936446e-13 1.2389539e-09
4.5643525e-08 9.670527e-12 3.82853e-08 6.850523e-08 2.6955656e-11 6.765359e-08 2.0602574e-10 1.333746e-13
3.1803749e-10 9.735196e-10 3.830636e-13 9.614174e-10 7.486715e-10 3.210259e-13 4.1703535e-10 2.2731972e-09
8.9446555e-13 2.244941e-09 2.985221e-08 4.785816e-12 7.284132e-09 3.379105e-08 1.3296215e-11 3.3370988e-08
1.4791773e-10 1.1394225e-13 3.312821e-10 8.1598767e-10 3.2107753e-13 8.058442e-10 1.4639858e-09 3.6252056e-13
1.2712277e-09 2.5797584e-09 1.0150921e-12 2.5476878e-09 2.5051987e-08 1.6705054e-11 5.632094e-09 1.2105555e-07
4.7633338e-11 1.1955066e-07 5.314468e-10 3.5793222e-13 4.782462e-10 2.5632987e-09 1.008615e-12 2.5314315e-09
1.05532104e-10 8.667266e-14 2.151999e-10 6.1136074e-10 2.4056037e-13 6.037616e-10 1.12547596e-07 9.70416e-11
1.3562006e-07 6.9559525e-07 2.737053e-10 6.8694834e-07 8.2095404e-08 2.949587e-11 5.4804847e-08 2.0924693e-07
8.23352e-11 2.0664584e-07 1.1234919e-08 1.3843939e-11 1.661306e-08 1.0161103e-07 3.9982215e-11 1.0034785e-07
1.3758502e-07 6.3853506e-11 8.9346194e-08 4.6126493e-07 1.8150004e-10 4.5553088e-07 3.852372e-08 4.560625e-11
2.7494202e-08 3.4112e-07 1.3422503e-10 3.368797e-07 4.0442627e-10 2.4914546e-13 4.3295997e-10 1.7683465e-09

exp_avg f4 [128]
00000000: fe66 8fb6 2701 a7b6 1873 b2b7 9956 91b8
00000010: 0bd5 37b6 39d3 4cb9 c972 4bb8 32ce 29b9
00000020: 6156 88b7 310e 3c38 46e8 0a34 b87a 2338
00000030: 70fe 1338 7306 73b5 3664 8738 5385 cbb6
00000040: 7647 ad38 2ab3 24b8 a116 aeb8 e363 10b7
00000050: 1111 1c37 a66f 48b9 41bb 4ab8 d530 afb8
00000060: 4ba0 39b6 9e48 e6b7 1278 e337 24de b9b6
00000070: 2d14 f335 aec4 90b6 2df6 0eb6 4f3a 9238
00000080: 22ac 81b7 4232 ef36 d6f6 14b8 7432 dbb6
00000090: fb8a b1b1 0a40 8ab8 0219 a4b8 eef8 30b8
000000a0: 9c2b 06b9 5f2d beb8 13ac 12b6 5aac df36
000000b0: cbd3 24b9 dbed 03b8 fe3c 5738 efc8 c636
000000c0: 269a ecb7 9e5b 2f38 8337 41b3 b663 fa38
000000d0: 4fc4 2338 c981 c9b6 e482 1437 fb26 1db9
000000e0: 5785 88b7 7935 9238 92ea e3b6 6152 1035
000000f0: 6678 9635 af4b 20b6 acd6 cb38 155e 4237
00000100: 3a04 0db9 c32b 9d38 3c8c a7b7 a211 aeb6
00000110: 595f beb5 cbcb 9d37 e6a6 0038 a9fe 0f37
00000120: 06cb 1437 58b9 2a38 9f60 a938 b4af 8bb8
00000130: 34c4 e237 dd2f d638 a1f4 2c36 d62f fe38
00000140: d67e 09b8 c0d3 69b4 f67b e537 f25d 2539
00000150: 7eda f0b8 2864 0eb8 dd0e ad36 44b7 89b7
00000160: 59e0 8d36 66f0 d137 8353 ef38 2831 d237
00000170: 76b7 80b8 b277 57b6 3489 0bb8 b0c3 27b7
00000180: 6eee d8b5 4941 49b9 8bf3 2a39 957a 2839
00000190: 9286 78b5 9961 37b8 731e 4438 b80a 0d38
000001a0: d9bc 7835 68a6 34b6 8f9e 9a38 f5e1 1bb6
000001b0: 9781 da36 ad71 1738 e282 56b8 c18a 3738
000001c0: 4f71 f3b7 f4cb 50b7 d33d 8937 f81d 81b7
000001d0: a1d1 1a36 114b 94b6 5dc0 5a35 0dc6 a5b7
000001e0: 5e3c 10b9 6ee3 0539 c144 d938 7753 2536
000001f0: d987 78b6 da06 05b9 6a6c b6b6 f81c 4239
-4.273722e-06 -4.977122e-06 -2.1272848e-05 -6.930269e-05 -2.7393132e-06 -0.00019533643 -4.8505874e-05 -0.0001619391
-1.6252687e-05 4.483591e-05 1.2936752e-07 3.897652e-05 3.5284495e-05 -9.053394e-07 6.4559674e-05 -6.0653924e-06
8.2625935e-05 -3.9267507e-05 -8.3011815e-05 -8.6063255e-06 9.302298e-06 -0.00019115079 -4.8334947e-05 -8.353746e-05
-2.766045e-06 -2.7451952e-05 2.711642e-05 -5.53929e-06 1.8110783e-06 -4.314431e-06 -2.1302942e-06 6.972683e-05
-1.5458154e-05 7.128606e-06 -3.5515834e-05 -6.532582e-06 -5.1671782e-09 -6.592281e-05 -7.8247875e-05 -4.2193504e-05
-0.00012795482 -9.068357e-05 -2.1855856e-06 6.6659823e-06 -0.00015719158 -3.1454354e-05 5.1316798e-05 5.9242516e-06
-2.8205173e-05 4.1808576e-05 -4.4986802e-08 0.000119395016 3.9045055e-05 -6.005376e-06 8.851963e-06 -0.00014987208
-1.6274555e-05 6.9717826e-05 -6.7924348e-06 5.376406e-07 1.1210911e-06 -2.3885912e-06 9.71978e-05 1.1585206e-05
-0.00013448382 7.494495e-05 -1.9973253e-05 -5.187657e-06 -1.4183853e-06 1.8810757e-05 3.0673014e-05 8.582757e-06
8.8687575e-06 4.0703773e-05 8.076545e-05 -6.660764e-05 2.7032664e-05 0.000102132304 2.577239e-06 0.00012120574
-3.278147e-05 -2.177685e-07 2.7356651e-05 0.00015770624 -0.00011484789 -3.3948716e-05 5.157532e-06 -1.6417012e-05
4.228245e-06 2.5026686e-05 0.00011411963 2.5056841e-05 -6.137688e-05 -3.2107168e-06 -3.3267963e-05 -9.999538e-06
-1.6162646e-06 -0.00019193174 0.0001630319 0.00016067394 -9.2583025e-07 -4.3721495e-05 4.67584e-05 3.3627002e-05
9.266201e-07 -2.6918951e-06 7.372826e-05 -2.3228324e-06 6.5119925e-06 3.6107074e-05 -5.114347e-05 4.3759825e-05
-2.902062e-05 -1.2445253e-05 1.6360462e-05 -1.5391954e-05 2.3069808e-06 -4.4194826e-06 8.1491254e-07 -1.9761757e-05
-0.00013755399 0.00012768593 0.00010360173 2.46355e-06 -3.7033954e-06 -0.00012686421 -5.4366437e-06 0.00018512073

exp_avg_sq f4 [128]
00000000: 8a63 712e 4106 1331 d926 2a31 635c 8632
00000010: 767d 4f2d 2a86 6a33 58ab 6532 157f d232
00000020: 5fce c830 9e55 e331 0e07 032d da6f da31
00000030: 0564 9a2f 91a8 992d 3ea8 6032 b7e2 932e
00000040: f17b c431 f203 b131 1a9f 8333 0372 2a31
00000050: e027 2c30 c4ca 6133 736e 1530 0e4d 9532
00000060: b934 f12f 27cb 6131 78d1 f530 881b 592e
00000070: 003d 3931 3679 282e 01b2 c42e fcbd b630
00000080: 3236 0d2e ab38 df2e cdaa a331 1acc dd2e
00000090: 7699 d32d 861c eb32 7a73 0d32 d160 8931
000000a0: 59e8 9b32 e598 6632 f602 992e b391 8830
000000b0: cb55 5833 d289 a531 82fe 8130 3869 302f
000000c0: 13b0 b630 1205 d730 e133 7a2d 3d7b 6a33
000000d0: ed0b ea31 92d8 8f2e a435 b62f 1c07 5133
000000e0: 7b90 a22f 2a41 a031 1a6d 3431 4a02 002e
000000f0: 95ee 7d2b 89d9 f031 2479 0833 8159 e231
00000100: d0e1 7432 9743 a031 0bb9 8830 6ddd 6330
00000110: d988 e72d b93e 2132 815e 1432 9117 ba2e
00000120: 2863 d02f df87 d730 d175 4f32 642c 0d32
00000130: e9d1 b631 4e4f bb32 28c0 1731 ba41 2433
00000140: 361e d42e 97a7 e731 e5f2 2332 76e7 0a33
00000150: a338 c432 24dd 9f31 160c a62e 6c08 7a30
00000160: 50a4 bf30 4223 3731 85d6 2332 c1f0 d230
00000170: ce0f bb31 0659 5f2e 91b8 0432 ad0f 4031
00000180: ead5 a12e 276c 5d33 11b7 9532 00ce 0832
00000190: 03a6 d231 8968 da31 2da1 9e30 4a00 8032
000001a0: 35bc 5530 24a2 8d30 ad03 9332 b694 142e
000001b0: 1522 b330 348c 8b32 a032 f831 f6cf 4833
000001c0: 4efd f131 1c1e 5231 df17 1e31 10d0 2330
000001d0: 831f af31 7a57 452f 08a9 812e c6cb e932
000001e0: b25f b632 7713 9632 3acf 3932 bd34 002f
000001f0: 0467 aa2e 43e4 df32 cb54 492e 7ba2 8033
5.4885464e-11 2.139487e-09 2.4760338e-09 1.5641666e-08 1.1794446e-11 5.4604392e-08 1.3368513e-08 2.4505008e-08
1.4610569e-09 6.616303e-09 7.448054e-12 6.357351e-09 2.8083505e-10 1.7468945e-11 1.307677e-08 6.725059e-11
5.7184413e-09 5.1518265e-09 6.129103e-08 2.4803064e-09 6.26299e-10 5.257131e-08 5.436284e-10 1.7380923e-08
4.3875106e-10 3.2857288e-09 1.7885631e-09 4.936454e-11 2.6955718e-09 3.8306434e-11 8.944668e-11 1.329624e-09
3.2107823e-11 1.0150932e-10 4.763342e-09 1.0086172e-10 2.4056073e-11 2.7370572e-08 8.2335365e-09 3.9982315e-09
1.8150034e-08 1.3422526e-08 6.9581604e-11 9.936713e-10 5.0369447e-08 4.8178004e-09 9.458321e-10 1.6044488e-10
1.3292286e-09 1.564475e-09 1.4222374e-11 5.4594455e-08 6.811652e-09 6.541358e-11 3.314372e-10 4.866807e-08
2.9570288e-10 4.664021e-09 2.6255464e-09 2.9105864e-11 9.0214755e-13 7.00965e-09 3.1775144e-08 6.587641e-09
1.4254013e-08 4.664297e-09 9.947895e-10 8.2896784e-10 2.6322432e-11 9.385695e-09 8.6362215e-09 8.462487e-11
3.7905434e-10 1.5681926e-09 1.2075774e-08 8.2173734e-09 5.320761e-09 2.1805729e-08 2.208262e-09 3.8244004e-08
9.6460104e-11 6.7420376e-09 9.5430766e-09 3.234114e-08 2.2843158e-08 4.65265e-09 7.550953e-11 9.096144e-10
1.394378e-09 2.6650047e-09 9.536625e-09 1.5347937e-09 5.444213e-09 5.07834e-11 7.725377e-09 2.7948588e-09
7.359431e-11 5.1553936e-08 1.7429132e-08 7.963081e-09 6.1306777e-09 6.3565193e-09 1.1541822e-09 1.4901293e-08
7.7756407e-10 1.0305183e-09 1.7114724e-08 3.3783386e-11 1.3033651e-09 1.6245487e-08 7.2235053e-09 4.6755268e-08
7.0428205e-09 3.0576137e-09 2.3005595e-09 5.959473e-10 5.096753e-09 1.7948124e-10 5.896267e-11 2.7217435e-08
2.1231106e-08 1.747115e-08 1.0815535e-08 1.1660269e-10 7.749004e-11 2.6064418e-08 4.577742e-11 5.9900195e-08
