AITests/results/ppo/MoveToGoal/MoveToGoal-1600.pt (torch, 148388 bytes, 12 tensors)

network_body._body_endoder.seq_layers.0.weight f4 [128, 2]
0	0xbf87cbfc	-1.0609126
1	0xbf8fa202	-1.1221316
2	0x3ed62b82	0.4183007
3	0xbe901bbc	-0.2814616
4	0xbf190bae	-0.59783447
5	0x3e72967f	0.23690222
6	0x3d37f295	0.04490908
7	0x3d17350f	0.036915835
8	0xbf905073	-1.1274551
9	0x3efba376	0.49148148
10	0x3e598dec	0.21245545
11	0x3f8991fa	1.0747674
12	0x3f1cc7e8	0.6124253
13	0x3e9f6d6c	0.3113817
14	0xbe8b7d27	-0.2724392
15	0xbf5a82c1	-0.85355765
16	0x3e08b22b	0.13349216
17	0x3f31f55e	0.69515026
18	0x3ed2e745	0.4119207
19	0x3fae23bf	1.3604659
20	0xbe8dbb8a	-0.27682143
21	0x3e8b23c3	0.27175722
22	0x3f078f33	0.5295288
23	0xbf2b5f12	-0.6694194
24	0xbeeeba32	-0.4662643
25	0xbf02608c	-0.5092857
26	0xbf33555e	-0.70052135
27	0x3e2f0f25	0.17095621
28	0x3def6edc	0.116910666
29	0x3f738f80	0.9514084
30	0xbcb5aa5b	-0.022175958
31	0x3f8a8d65	1.08244
32	0xbf21dbb8	-0.6322589
33	0x3eee03a2	0.46487147
34	0x3eee5c03	0.46554574
35	0xbf4d9409	-0.8030401
36	0x3f89d75b	1.0768846
37	0xbf60b5d2	-0.87777436
38	0x3e27ccbf	0.16386698
39	0xbf10fbe2	-0.5663434
40	0x3c996aa4	0.018727608
41	0x3ee240d8	0.44190097
42	0x3f6baec8	0.9206357
43	0xbf4bd6c6	-0.79624593
44	0xbe99d364	-0.3004409
45	0x3f9de23a	1.2334664
46	0x3ebfd163	0.37464437
47	0x3f84e377	1.0381917
48	0xbe119d4f	-0.14220165
49	0xbe1d1d73	-0.15343265
50	0x3f31e79c	0.6949403
51	0x3ebcf650	0.36906672
52	0x3f7c1e19	0.98483425
53	0xbf6af919	-0.9178634
54	0xbfbd7644	-1.4801717
55	0xbe66e71f	-0.22549103
56	0x3f7d9973	0.9906227
57	0x3f6f0f5f	0.9338283
58	0x3f639f8c	0.88915324
59	0x3fc81a9c	1.563312
60	0x3f81052d	1.0079705
61	0xbfaf9010	-1.3715839
62	0xbf3ee4b5	-0.7456773
63	0xbf62b2ce	-0.88554084
64	0xbf79c1d9	-0.97561413
65	0x3e8ecf64	0.278926
66	0x3f1db2b9	0.61600834
67	0x3f21daf9	0.6322475
68	0x3ba28a9b	0.0049603707
69	0x3f15913f	0.5842475
70	0x3f868a2a	1.0510914
71	0xbf0f18c0	-0.5589714
72	0x3f9c0e96	1.2191951
73	0xbeb9fbbc	-0.3632487
74	0x3ec69ba1	0.3879061
75	0x3edcff5c	0.43163574
76	0xbf5878ea	-0.845595
77	0x3d0a0ce7	0.03370371
78	0xbf00de99	-0.5033966
79	0xbc9a6f32	-0.01885185
80	0x3f35eaf5	0.7106164
81	0x3f23bc72	0.6395942
82	0xbf4c8858	-0.79895544
83	0xbf073454	-0.5281422
84	0x3d83c88d	0.064347364
85	0xbf5405d2	-0.8282138
86	0xbe6dcedf	-0.23223446
87	0xbd9b7ca6	-0.07592134
88	0x3f09e76f	0.53868765
89	0xbe00492f	-0.12527917
90	0xbfc9aa1c	-1.5755038
91	0x3f7d226e	0.9888066
92	0x3f004916	0.5011152
93	0x3db55477	0.08854001
94	0x3f4e81db	0.80666894
95	0x3d9abec5	0.07555918
96	0x3e711c83	0.23546033
97	0xbf7c1645	-0.9847148
98	0xbe320d10	-0.17387795
99	0x3ebdd9fa	0.37080365
100	0xbf34572b	-0.7044551
101	0x3cd23198	0.025658414
102	0xbe64b367	-0.22334062
103	0x3f216642	0.6304666
104	0xbe8e9bcb	-0.27853236
105	0x3e23711c	0.15961117
106	0x3ed279ee	0.4110865
107	0xbf83b784	-1.029038
108	0xbc526195	-0.012840648
109	0xbf491b39	-0.78557163
110	0x3f33a9ab	0.7018077
111	0xbf6831fa	-0.9070126
112	0x3ee2456b	0.44193587
113	0xbe74b084	-0.2389546
114	0x3eefdae7	0.46846697
115	0xbe8ccdda	-0.27500802
116	0xbf87e88d	-1.0617844
117	0x3eef9285	0.46791473
118	0xbec1ded4	-0.37865317
119	0xbf239007	-0.63891643
120	0x3e217ddd	0.1577067
121	0xbf589337	-0.8459963
122	0xbf47c211	-0.78030497
123	0xbdc3cea5	-0.09560899
124	0xbf133926	-0.57509077
125	0x3f9cdb76	1.2254474
126	0xbebdd9a3	-0.37080106
127	0xbead03b1	-0.3379188
128	0xbf72a5e5	-0.94784385
129	0xbeccef21	-0.4002619
130	0xbe3f431c	-0.18677944
131	0xbc5284b0	-0.012849018
132	0xbdd32e81	-0.10311604
133	0x3d5f88f8	0.054573983
134	0xbf3bab9e	-0.7330874
135	0x3f87439d	1.0567509
136	0xbfbfdbf2	-1.4988997
137	0x3ebf386b	0.3734773
138	0x3f1902da	0.59769976
139	0xbdf1d6e6	-0.11808567
140	0x3f0752f8	0.52860975
141	0x3f834c19	1.0257598
142	0xbf07714d	-0.5290726
143	0xbfc00ad2	-1.5003302
144	0xbeaffaf4	-0.3437115
145	0xbedbbdf3	-0.42918357
146	0x3fa11cb6	1.2586887
147	0x3f8d669f	1.1046942
148	0xbd398c66	-0.04529991
149	0xbe66f317	-0.22553669
150	0x3c3e37f6	0.011610022
151	0x3eec9ff7	0.46215793
152	0x3fa38807	1.2775887
153	0x3fa0d6fa	1.2565606
154	0xbebd3163	-0.36951742
155	0xbf455063	-0.77075785
156	0x3ea54327	0.32277796
157	0x3d89d84f	0.06730711
158	0xbef896f1	-0.4855266
159	0xbe06afa8	-0.13152945
160	0xbebff8f0	-0.37494612
161	0xbcec109f	-0.02881652
162	0x3e8b642c	0.27224863
163	0xbe2df60c	-0.1698839
164	0xbdeb680e	-0.11494456
165	0xbf8be599	-1.0929443
166	0xbef3e67c	-0.47636783
167	0xbe220a5e	-0.15824267
168	0x3d1c8b62	0.038218863
169	0xbe6da09e	-0.23205802
170	0xbe3d2fe0	-0.18475294
171	0xbe0a25f7	-0.13491045
172	0xbe000d8a	-0.12505165
173	0xbe831ddc	-0.25608718
174	0x3f4014f5	0.7503198
175	0x3f85eeaf	1.0463465
176	0xbe8bdfa5	-0.27319065
177	0xbed61382	-0.41811758
178	0xbf029a43	-0.51016635
179	0xbf474064	-0.7783263
180	0xbf0e0af9	-0.5548549
181	0xbf54685a	-0.8297173
182	0x3f0fa9a1	0.5611821
183	0xbe20ed50	-0.15715528
184	0x3eff9326	0.49916953
185	0x3ed397c7	0.41326734
186	0xbede6f33	-0.43444213
187	0xbeed5640	-0.46354866
188	0xbcc994e2	-0.024607126
189	0x3f581b58	0.84416723
190	0x3f4538b7	0.77039665
191	0xbd4ee705	-0.050513286
192	0x3e501250	0.20319486
193	0xbf449957	-0.7679648
194	0x3f06e37c	0.52690864
195	0xbeb6d2c4	-0.35707676
196	0xbebd98ae	-0.37030548
197	0x3f642c7e	0.8913039
198	0x3f18097c	0.5938947
199	0xbe72961c	-0.23690075
200	0x3e7bc24c	0.24585837
201	0xbf6d4a57	-0.9269156
202	0x3efca63c	0.49345577
203	0xbd4689cd	-0.04847126
204	0xbc8f5259	-0.017495321
205	0xbedc6fad	-0.43053952
206	0x3f96663d	1.1749951
207	0x3f8fbc2f	1.1229304
208	0x3df58f70	0.11990249
209	0x3f53980f	0.826539
210	0xbe9d9261	-0.3077574
211	0x400355f0	2.0521202
212	0x3ef71a68	0.48262334
213	0xbd1c77b6	-0.038200103
214	0x3f1bb871	0.6082831
215	0x3f47ddd6	0.7807287
216	0xbe4e4df7	-0.20146929
217	0xbf3ec983	-0.7452623
218	0xbf1dc780	-0.6163254
219	0xbe89e4ed	-0.2693247
220	0xbf00a64d	-0.50253755
221	0x3e344fa3	0.17608504
222	0x3dc12db2	0.09432544
223	0xbd180ab5	-0.037119586
224	0x3e597ac2	0.21238235
225	0x3f5be473	0.8589546
226	0xbf9b6a88	-1.2141886
227	0x3e26ee3b	0.16301815
228	0x3f001236	0.5002779
229	0xbfbde489	-1.4835368
230	0x3f6e088d	0.929818
231	0x3f871c97	1.05556
232	0xbe7181a7	-0.23584615
233	0x3e6a83aa	0.22901788
234	0x3f1524c8	0.5825925
235	0xbf59412c	-0.8486507
236	0xbbc5e5de	-0.006039365
237	0x3f5f68a4	0.87269044
238	0x3ee7ed5e	0.45298284
239	0x3ed3a15f	0.41334054
240	0x3f74fa5c	0.9569452
241	0x3f3cd34e	0.73759925
242	0x3f8e3fae	1.1113183
243	0xbf339af0	-0.7015829
244	0xbf5bf5e5	-0.8592208
245	0xbe1ce548	-0.15321839
246	0xbf9b2c51	-1.2122899
247	0xbdc0df6d	-0.09417615
248	0x3e29f97a	0.16599074
249	0x3e2c845a	0.16847363
250	0x3f182a37	0.59439415
251	0xbec1617d	-0.3776969
252	0x3ccff677	0.025386078
253	0x3eae51d6	0.3404681
254	0x3eb06db7	0.34458706
255	0xbf9e0391	-1.2344838

network_body._body_endoder.seq_layers.0.bias f4 [128]
0	0x00000000	0.0
1	0x00000000	0.0
2	0x00000000	0.0
3	0x00000000	0.0
4	0x00000000	0.0
5	0x00000000	0.0
6	0x00000000	0.0
7	0x00000000	0.0
8	0x00000000	0.0
9	0x00000000	0.0
10	0x00000000	0.0
11	0x00000000	0.0
12	0x00000000	0.0
13	0x00000000	0.0
14	0x00000000	0.0
15	0x00000000	0.0
16	0x00000000	0.0
17	0x00000000	0.0
18	0x00000000	0.0
19	0x00000000	0.0
20	0x00000000	0.0
21	0x00000000	0.0
22	0x00000000	0.0
23	0x00000000	0.0
24	0x00000000	0.0
25	0x00000000	0.0
26	0x00000000	0.0
27	0x00000000	0.0
28	0x00000000	0.0
29	0x00000000	0.0
30	0x00000000	0.0
31	0x00000000	0.0
32	0x00000000	0.0
33	0x00000000	0.0
34	0x00000000	0.0
35	0x00000000	0.0
36	0x00000000	0.0
37	0x00000000	0.0
38	0x00000000	0.0
39	0x00000000	0.0
40	0x00000000	0.0
41	0x00000000	0.0
42	0x00000000	0.0
43	0x00000000	0.0
44	0x00000000	0.0
45	0x00000000	0.0
46	0x00000000	0.0
47	0x00000000	0.0
48	0x00000000	0.0
49	0x00000000	0.0
50	0x00000000	0.0
51	0x00000000	0.0
52	0x00000000	0.0
53	0x00000000	0.0
54	0x00000000	0.0
55	0x00000000	0.0
56	0x00000000	0.0
57	0x00000000	0.0
58	0x00000000	0.0
59	0x00000000	0.0
60	0x00000000	0.0
61	0x00000000	0.0
62	0x00000000	0.0
63	0x00000000	0.0
64	0x00000000	0.0
65	0x00000000	0.0
66	0x00000000	0.0
67	0x00000000	0.0
68	0x00000000	0.0
69	0x00000000	0.0
70	0x00000000	0.0
71	0x00000000	0.0
72	0x00000000	0.0
73	0x00000000	0.0
74	0x00000000	0.0
75	0x00000000	0.0
76	0x00000000	0.0
77	0x00000000	0.0
78	0x00000000	0.0
79	0x00000000	0.0
80	0x00000000	0.0
81	0x00000000	0.0
82	0x00000000	0.0
83	0x00000000	0.0
84	0x00000000	0.0
85	0x00000000	0.0
86	0x00000000	0.0
87	0x00000000	0.0
88	0x00000000	0.0
89	0x00000000	0.0
90	0x00000000	0.0
91	0x00000000	0.0
92	0x00000000	0.0
93	0x00000000	0.0
94	0x00000000	0.0
95	0x00000000	0.0
96	0x00000000	0.0
97	0x00000000	0.0
98	0x00000000	0.0
99	0x00000000	0.0
100	0x00000000	0.0
101	0x00000000	0.0
102	0x00000000	0.0
103	0x00000000	0.0
104	0x00000000	0.0
105	0x00000000	0.0
106	0x00000000	0.0
107	0x00000000	0.0
108	0x00000000	0.0
109	0x00000000	0.0
110	0x00000000	0.0
111	0x00000000	0.0
112	0x00000000	0.0
113	0x00000000	0.0
114	0x00000000	0.0
115	0x00000000	0.0
116	0x00000000	0.0
117	0x00000000	0.0
118	0x00000000	0.0
119	0x00000000	0.0
120	0x00000000	0.0
121	0x00000000	0.0
122	0x00000000	0.0
123	0x00000000	0.0
124	0x00000000	0.0
125	0x00000000	0.0
126	0x00000000	0.0
127	0x00000000	0.0

network_body._body_endoder.seq_layers.2.weight f4 [128, 128]
0	0x3e173b5c	0.14768738
1	0xbda9bc3a	-0.082878545
2	0xbd021d54	-0.03176625
3	0xbe5ee8a6	-0.21768436
4	0x3d16e9fe	0.036844246
5	0xbb8e0ab4	-0.004334772
6	0x3bd565dc	0.0065123867
7	0x3cea6ae9	0.028615432
8	0x3c19abba	0.009379322
9	0xbd5c9c1f	-0.053859826
10	0x3da32ab7	0.079671316
11	0x3df63bf6	0.120231554
12	0xbb857cd7	-0.00407372
13	0x3dd327df	0.10310339
14	0x3c5bbbbc	0.013411459
15	0xbb9486e7	-0.004532683
16	0xbd440a5a	-0.047861435
17	0xbdd6b1b4	-0.10483113
18	0x3d65a213	0.05606277
19	0x3c4a10dc	0.012333121
20	0xbd876ea4	-0.066129
21	0xbe160e83	-0.14653973
22	0x3e185590	0.1487639
23	0xbe2f3eaa	-0.17113748
24	0x3e326642	0.17421821
25	0xbd5aef60	-0.053450942
26	0xbc9a66df	-0.01884788
27	0xbd27232f	-0.040805038
28	0xbd8f126b	-0.06985935
29	0xbe25bbd1	-0.16184928
30	0xbb8e942f	-0.004351161
31	0xbe1766ec	-0.14785355
32	0xbdc51e81	-0.09624959
33	0x3ca513d2	0.020151053
34	0x3dc100e3	0.09423997
35	0x3d25f95a	0.040521003
36	0x3cf4013d	0.029785747
37	0x3d252477	0.04031798
38	0xbcc82982	-0.024433855
39	0xbc807084	-0.015678652
40	0xbd92bc79	-0.071648546
41	0x3dd008ec	0.10157952
42	0x3c235572	0.009969102
43	0x3ddaf1f8	0.10690683
44	0xbd3afa2f	-0.04564875
45	0x3d50fc85	0.05102207
46	0xbdebdc6a	-0.1151665
47	0x3d8bb596	0.06821744
48	0xbd712057	-0.058868732
49	0x3c484f0a	0.012225876
50	0xbd79b311	-0.060961787
51	0x3d074ec2	0.033034094
52	0xbe24647c	-0.16053957
53	0x3d0f3998	0.034967035
54	0x3e2f66d1	0.17129065
55	0x3e16b699	0.14718093
56	0x3da5003c	0.08056685
57	0xbcf63cc3	-0.03005827
58	0x3d48a250	0.04898292
59	0xbd981c08	-0.074272215
60	0x3cd2b7a7	0.025722338
61	0xbdd6aab3	-0.10481777
62	0x3d1dde1e	0.038541906
63	0x3d293d20	0.04131806
64	0xbe688c6a	-0.22709814
65	0x3d819eed	0.06329141
66	0xbddb51b5	-0.10708944
67	0x3c2c2179	0.010506027
68	0x3d740497	0.05957469
69	0x3e03b7f6	0.12863144
70	0xbcd98df9	-0.026556956
71	0xbdf9840f	-0.12183391
72	0x3e002dbb	0.12517445
73	0xbdecdbd2	-0.11565365
74	0x3e3034b2	0.17207602
75	0xbe095dc0	-0.13414669
76	0xbd411e29	-0.047147904
77	0xbcdc1483	-0.02686525
78	0x3db2fb06	0.08739285
79	0x3d8f429c	0.069951266
80	0x3d434662	0.047674544
81	0xbd138ce9	-0.036023054
82	0x3e453672	0.1925905
83	0x3d92d39e	0.07169269
84	0x3d586267	0.05282822
85	0x3d26d0be	0.040726416
86	0x3c1b6257	0.009483895
87	0x3d2074d9	0.039173935
88	0x3e00e2fa	0.12586585
89	0xbd9bff6d	-0.07617078
90	0x3e4aba6f	0.19797681
91	0xbc67134a	-0.01410372
92	0xbdc7e0d3	-0.09759679
93	0xbdc64d5b	-0.09682723
94	0x3e066c18	0.13127172
95	0xbd92ce37	-0.071682386
96	0x3d0558df	0.032555457
97	0xbd45adb3	-0.048261356
98	0x3d9300bc	0.071778744
99	0x3da3a2fc	0.07990071
100	0xbdb4c30a	-0.08826263
101	0x3da8bd10	0.08239186
102	0xbd597421	-0.053089265
103	0xbdd17e5a	-0.10229178
104	0x3d33554e	0.043782525
105	0x3ddc036f	0.107428424
106	0xbd49c052	-0.049255677
107	0x3ce71971	0.028210374
108	0x3d7f4195	0.062318403
109	0xbdb9f072	-0.090790644
110	0xbd39c0ea	-0.045349993
111	0x3d320a50	0.043466866
112	0xbddec6ec	-0.10877785
113	0xbe17598c	-0.14780253
114	0xbd749e66	-0.059721373
115	0xbd938723	-0.0720351
116	0x3e533c82	0.2062855
117	0xbceb8b71	-0.028753014
118	0xbd8cb03a	-0.0686955
119	0x3b9de683	0.004818739
120	0xbcbf56cd	-0.02335682
121	0x3dce442e	0.10071598
122	0x3caefe71	0.021361561
123	0x3c90682f	0.017627804
124	0xbdd1da2b	-0.1024669
125	0xbd19f18f	-0.037583884
126	0xbdc5dfc4	-0.096618205
127	0xbe2b862c	-0.16750401
128	0xbe1539a3	-0.14572768
129	0xbdb860b0	-0.09002817
130	0x3dcdf44a	0.1005636
131	0xbd85645d	-0.065132834
132	0x3e1263a4	0.14295822
133	0xbd8c531c	-0.06851789
134	0xbd053365	-0.032519717
135	0x3dd93840	0.10606432
136	0x3ce724d5	0.028215805
137	0xbdd8a7b0	-0.10578859
138	0xbc98c225	-0.018647263
139	0x3c6fb8b1	0.014631436
140	0x3d9c9225	0.07645062
141	0x3d1c40a2	0.038147576
142	0x3e2b9cfb	0.16759102
143	0x3b1831e9	0.0023223108
144	0xbe289ebf	-0.16466807
145	0xbd9b09da	-0.075702384
146	0x3b9b5c6c	0.004741242
147	0x3da870f9	0.08224673
148	0xbe27e7c3	-0.16397004
149	0x3db8f3e0	0.090308905
150	0x3b94a272	0.0045359666
151	0xbe28da89	-0.16489615
152	0x3c6b3dc9	0.014357992
153	0x3d1fc98f	0.03901058
154	0xbe200897	-0.15628277
155	0x3c959182	0.01825786
156	0xbdd143b2	-0.1021799
157	0xbe08ab5c	-0.13346618
158	0x3d83ef54	0.064421326
159	0xbd274048	-0.040832788
160	0x3df5a586	0.11994462
161	0xbd736686	-0.059423946
162	0xbc12d49b	-0.008961822
163	0xbd508909	-0.050911937
164	0xbcb5fb93	-0.022214686
165	0xbd96ff88	-0.073729575
166	0x3dfe95ee	0.124309406
167	0x3dcea5da	0.100902274
168	0xbdad7062	-0.08468701
169	0x3bc076de	0.005873545
170	0xbd98c04d	-0.074585535
171	0xbd2bbb96	-0.041926943
172	0xbe1a77c2	-0.15084746
173	0x3be1e29a	0.006893468
174	0x3b76e574	0.0037673386
175	0x3d3ab27b	0.04558037
176	0xbd31a1d4	-0.043367222
177	0xbcdf3b0e	-0.02724984
178	0x3d0e9e98	0.034819216
179	0x3e09fc31	0.1347511
180	0x3d9fdf20	0.078062296
181	0x3d2f01d9	0.04272637
182	0x3de5e1fa	0.11224742
183	0xbe05c3dd	-0.13062997
184	0x3ab05967	0.0013454378
185	0x3d4afe0e	0.04955869
186	0x3d6719af	0.05642098
187	0xbcc7b147	-0.024376525
188	0xbdd876a0	-0.10569501
189	0xbdfc5c23	-0.12322261
190	0xbde9ce09	-0.11416251
191	0x3ce94deb	0.028479537
192	0x3d8c2236	0.06842463
193	0xbc9a8ed2	-0.01886693
194	0xbcd4db99	-0.025983619
195	0x3e0a4d64	0.13506085
196	0xbc3a31ea	-0.0113644395
197	0xbd37a63f	-0.04483628
198	0x3cb135b0	0.021632046
199	0x3d5ee201	0.054414753
200	0xbe0d3764	-0.13790661
201	0xbdc3cd6f	-0.09560668
202	0x3d6011d1	0.05470449
203	0x3dcaf867	0.0991066
204	0x3dc76946	0.09736876
205	0x3cb5ff3e	0.022216436
206	0x3da8800f	0.0822755
207	0xbc251735	-0.010076334
208	0x3dd28ed2	0.10281147
209	0x3c9b3532	0.018946264
210	0xbdca047e	-0.09864138
211	0x3c9f5fd5	0.019454876
212	0x3df2f648	0.11863381
213	0xbb9e33ed	-0.0048279674
214	0xbd01ade3	-0.031659972
215	0x3e3635ca	0.17793956
216	0xbd8bd2da	-0.06827326
217	0x3d1fa8ac	0.038979217
218	0x3cc061d2	0.023484144
219	0xbc8922db	-0.016740253
220	0x3a4ab165	0.00077321223
221	0xbda1fec3	-0.0790992
222	0x3b673eee	0.0035285312
223	0xbe9725dd	-0.29521075
224	0xbc7e1db2	-0.01551001
225	0xbd871291	-0.06595338
226	0xbda8880c	-0.08229074
227	0xbd0576c4	-0.032583967
228	0x3a2514d9	0.0006297357
229	0x3dde4c17	0.10854357
230	0x3d0075aa	0.031362213
231	0xbd0ebcdf	-0.03484809
232	0xbd7217ce	-0.059104733
233	0x3c938a6d	0.018010342
234	0x3b583f2f	0.0032996645
235	0x3d74762d	0.059683014
236	0x3cdc2fb2	0.026878212
237	0x3c976f8c	0.018485807
238	0xbba1a411	-0.0049328883
239	0x3e06bab8	0.13157165
240	0xbd8bcf64	-0.06826666
241	0xbd0c187b	-0.034203034
242	0xbd4a3dea	-0.049375452
243	0xbbafead2	-0.005368569
244	0xbd30ab2f	-0.043132003
245	0xbd5374de	-0.051625125
246	0xbc78e8cf	-0.015192225
247	0xbe1511f7	-0.14557634
248	0xbca89e1d	-0.020583207
249	0xbd3e64ac	-0.046482727
250	0xbd617a20	-0.055048108
251	0xbdb163c2	-0.086616054
252	0x3c72bbc9	0.014815279
253	0xbd898933	-0.06715622
254	0xbc8904bd	-0.016725892
255	0xbe0a0409	-0.13478102

network_body._body_endoder.seq_layers.2.bias f4 [128]
0	0x00000000	0.0
1	0x00000000	0.0
2	0x00000000	0.0
3	0x00000000	0.0
4	0x00000000	0.0
5	0x00000000	0.0
6	0x00000000	0.0
7	0x00000000	0.0
8	0x00000000	0.0
9	0x00000000	0.0
10	0x00000000	0.0
11	0x00000000	0.0
12	0x00000000	0.0
13	0x00000000	0.0
14	0x00000000	0.0
15	0x00000000	0.0
16	0x00000000	0.0
17	0x00000000	0.0
18	0x00000000	0.0
19	0x00000000	0.0
20	0x00000000	0.0
21	0x00000000	0.0
22	0x00000000	0.0
23	0x00000000	0.0
24	0x00000000	0.0
25	0x00000000	0.0
26	0x00000000	0.0
27	0x00000000	0.0
28	0x00000000	0.0
29	0x00000000	0.0
30	0x00000000	0.0
31	0x00000000	0.0
32	0x00000000	0.0
33	0x00000000	0.0
34	0x00000000	0.0
35	0x00000000	0.0
36	0x00000000	0.0
37	0x00000000	0.0
38	0x00000000	0.0
39	0x00000000	0.0
40	0x00000000	0.0
41	0x00000000	0.0
42	0x00000000	0.0
43	0x00000000	0.0
44	0x00000000	0.0
45	0x00000000	0.0
46	0x00000000	0.0
47	0x00000000	0.0
48	0x00000000	0.0
49	0x00000000	0.0
50	0x00000000	0.0
51	0x00000000	0.0
52	0x00000000	0.0
53	0x00000000	0.0
54	0x00000000	0.0
55	0x00000000	0.0
56	0x00000000	0.0
57	0x00000000	0.0
58	0x00000000	0.0
59	0x00000000	0.0
60	0x00000000	0.0
61	0x00000000	0.0
62	0x00000000	0.0
63	0x00000000	0.0
64	0x00000000	0.0
65	0x00000000	0.0
66	0x00000000	0.0
67	0x00000000	0.0
68	0x00000000	0.0
69	0x00000000	0.0
70	0x00000000	0.0
71	0x00000000	0.0
72	0x00000000	0.0
73	0x00000000	0.0
74	0x00000000	0.0
75	0x00000000	0.0
76	0x00000000	0.0
77	0x00000000	0.0
78	0x00000000	0.0
79	0x00000000	0.0
80	0x00000000	0.0
81	0x00000000	0.0
82	0x00000000	0.0
83	0x00000000	0.0
84	0x00000000	0.0
85	0x00000000	0.0
86	0x00000000	0.0
87	0x00000000	0.0
88	0x00000000	0.0
89	0x00000000	0.0
90	0x00000000	0.0
91	0x00000000	0.0
92	0x00000000	0.0
93	0x00000000	0.0
94	0x00000000	0.0
95	0x00000000	0.0
96	0x00000000	0.0
97	0x00000000	0.0
98	0x00000000	0.0
99	0x00000000	0.0
100	0x00000000	0.0
101	0x00000000	0.0
102	0x00000000	0.0
103	0x00000000	0.0
104	0x00000000	0.0
105	0x00000000	0.0
106	0x00000000	0.0
107	0x00000000	0.0
108	0x00000000	0.0
109	0x00000000	0.0
110	0x00000000	0.0
111	0x00000000	0.0
112	0x00000000	0.0
113	0x00000000	0.0
114	0x00000000	0.0
115	0x00000000	0.0
116	0x00000000	0.0
117	0x00000000	0.0
118	0x00000000	0.0
119	0x00000000	0.0
120	0x00000000	0.0
121	0x00000000	0.0
122	0x00000000	0.0
123	0x00000000	0.0
124	0x00000000	0.0
125	0x00000000	0.0
126	0x00000000	0.0
127	0x00000000	0.0

action_model._continuous_distribution.mu.weight f4 [1, 128]
0	0xbb627c20	-0.0034558848
1	0xbbd6857f	-0.0065466757
2	0xbc56961a	-0.01309731
3	0x3d18f7b3	0.0373456
4	0xbcf233d2	-0.029565725
5	0x3c09b8b3	0.008405852
6	0x3c03cab6	0.0080439355
7	0x3b0972ad	0.0020972893
8	0xbbee8895	-0.0072794654
9	0xbb7bca42	-0.0038420116
10	0x3cced4cf	0.02524796
11	0xbb053c8b	-0.0020330276
12	0xbc016b57	-0.007899127
13	0xba5143d0	-0.0007982822
14	0xbc295624	-0.010335479
15	0x3b9da9c7	0.004811499
16	0x3c5c8495	0.013459344
17	0x3b1a2ee3	0.0023526482
18	0x3d087567	0.03331509
19	0x3a11ca05	0.00055614143
20	0x3beffa2d	0.0073235244
21	0xbcbc168f	-0.022959976
22	0x3c613f60	0.01374802
23	0x3cfdb027	0.030967785
24	0xbd1b05c4	-0.037847295
25	0xbc183be0	-0.009291619
26	0x3b6337c3	0.0034670688
27	0xbc9d896b	-0.019230565
28	0xbba72353	-0.0051006465
29	0x3cedd27b	0.029031029
30	0xbb20c5db	-0.0024531994
31	0x3cc151d4	0.023598589
32	0xbc36ff65	-0.011169289
33	0x3ccfe5e7	0.02537818
34	0xba1918a3	-0.0005840158
35	0x3bab91a4	0.0052358676
36	0xbc1c113f	-0.009525596
37	0x3b5ea51f	0.0033972932
38	0xbba52259	-0.005039495
39	0xbc27b01e	-0.010234861
40	0x3cee13df	0.02906221
41	0xbcd53733	-0.026027298
42	0x39fed3d7	0.00048604488
43	0x3c60bfcd	0.013717604
44	0xba399d97	-0.00070806727
45	0x3b778a5d	0.003777168
46	0xbba4adf9	-0.005025622
47	0x3c4aac82	0.012370231
48	0x3d0671c3	0.032823335
49	0x3c9f6368	0.01945658
50	0xbc7f204a	-0.015571663
51	0x3a5f38e7	0.0008515254
52	0x3c0c9b68	0.008581974
53	0xbc4535e7	-0.012036777
54	0xbc3a5f05	-0.0113751935
55	0x3d4554cb	0.048176568
56	0x3c1da374	0.00962149
57	0x3bc13d01	0.005897165
58	0x3d198bf0	0.03748697
59	0x3b64ad0b	0.003489318
60	0xb9ad3d2b	-0.00033042705
61	0xbace1b2a	-0.0015724648
62	0xbb045e7d	-0.002019792
63	0x3ce0daf3	0.027448153
64	0x3b43c673	0.0029872924
65	0x3cc1f071	0.023674222
66	0x3cc0a633	0.02351675
67	0x3c5cf0df	0.0134851625
68	0xbc715c92	-0.014731543
69	0x3ca7fe2f	0.020506946
70	0x3bd82545	0.0065962397
71	0xbc8f423f	-0.017487643
72	0x3c8d82ab	0.017274221
73	0xbc456a8a	-0.012049327
74	0xbbdab6a0	-0.0066746026
75	0xbc3e1b17	-0.011603138
76	0x3c9b1973	0.018933034
77	0xbca44d84	-0.020056494
78	0xbc51a39b	-0.012795354
79	0x3c101920	0.008795053
80	0xbbe26513	-0.0069090216
81	0x3b313ca1	0.0027044194
82	0x3a616115	0.0008597535
83	0xbc331487	-0.010930187
84	0x3add23d7	0.0016871643
85	0xbc656da3	-0.01400319
86	0x3be51a00	0.006991625
87	0x3c2d6a4b	0.010584424
88	0x3ce8d133	0.028420066
89	0xbc85de8f	-0.016341476
90	0xbc4769f1	-0.0121712545
91	0x3be2ab43	0.0069173886
92	0x3c87795b	0.016537359
93	0xbc800a83	-0.015630012
94	0x3c616b5a	0.013758505
95	0xbcac953c	-0.021067254
96	0x3cb57e61	0.022154989
97	0xba86df27	-0.0010289893
98	0xbc5c7723	-0.013456139
99	0xba0adc0b	-0.0005297071
100	0xbb41a0a7	-0.002954522
101	0x3c14134c	0.009037804
102	0x3bc081af	0.0058748345
103	0xba5f821d	-0.00085261633
104	0xbcc66dc7	-0.024222268
105	0xbc02da0f	-0.0079865595
106	0xbcf3f397	-0.029779239
107	0xbc09a553	-0.008401233
108	0x3acd0f98	0.0015644906
109	0x3d3fe215	0.046846468
110	0x3c599775	0.013280739
111	0x3a2cffe7	0.0006599412
112	0xba4365af	-0.00074538117
113	0x3ca2b6e1	0.019862594
114	0xba7a3667	-0.000954485
115	0x3c009be3	0.007849666
116	0x3cd6b540	0.026209474
117	0xbbca6007	-0.006175998
118	0x3cc42e04	0.023947723
119	0xbd1f9570	-0.038960874
120	0xbc646023	-0.013938936
121	0x3c8fa6fe	0.017535683
122	0x3d463e24	0.048399106
123	0xbcae667b	-0.0212891
124	0xbbc875f7	-0.006117578
125	0xbc136b86	-0.008997804
126	0xbccba2ff	-0.024857996
127	0x38af5628	8.360698e-05

action_model._discrete_distribution.branches.0.weight f4 [5, 128]
0	0x3bd320aa	0.006443103
1	0xbc440e82	-0.01196635
2	0x3bb3a95b	0.005482835
3	0xbcafd18c	-0.021462224
4	0x3b7cba05	0.0038563025
5	0x3c6f6550	0.014611557
6	0xbbd1b4b3	-0.006399715
7	0x3b9d2844	0.00479606
8	0xbc759e5f	-0.014991372
9	0xbb89718f	-0.0041944454
10	0xbb63f10a	-0.0034781122
11	0xbbdb2792	-0.0066880668
12	0xbbd0c62f	-0.0063712816
13	0x3c59c507	0.013291604
14	0xbbbf1479	-0.005831298
15	0x3c857c9b	0.016294768
16	0xba3414b3	-0.00068695395
17	0x3c66c213	0.014084357
18	0x3c72844d	0.014802051
19	0x3a214e2e	0.0006153312
20	0xba729dbd	-0.0009255072
21	0x3c8cd8a9	0.017193155
22	0xbc0f9517	-0.008763573
23	0x3af0368f	0.0018326807
24	0x3c02141e	0.007939367
25	0xbb757160	-0.003745161
26	0xbbd02fcb	-0.0063533536
27	0x3a72bae3	0.00092594157
28	0xbc9ba03b	-0.018997302
29	0x3c7f5fe5	0.015586828
30	0xbc2971e3	-0.010342094
31	0x3ca078c3	0.019588834
32	0xbc4c7a00	-0.012480259
33	0xbbf38d00	-0.00743258
34	0x3be263bf	0.0069088633
35	0x3b682170	0.003542032
36	0x3b4e6795	0.0031494845
37	0x3939da57	0.00017724313
38	0x3bda568a	0.0066631483
39	0x3b5f2b7d	0.003405302
40	0xbbc8f998	-0.0061332695
41	0xbb818121	-0.003952161
42	0x3c910680	0.017703295
43	0x3a0c3d91	0.000534975
44	0xbc421785	-0.011846428
45	0x3b583c3b	0.0032994885
46	0x3b361d0a	0.0027788305
47	0x3b050c82	0.0020301645
48	0x3b59e288	0.0033246595
49	0x3b7132db	0.0036803994
50	0x3bb8ea05	0.0056431317
51	0x3c5c33e8	0.01344011
52	0xbc1c593c	-0.0095427595
53	0xbc84f76d	-0.016231263
54	0xbbaf82bc	-0.005356161
55	0x3c9a69eb	0.018849334
56	0xbc0539bd	-0.008131442
57	0xbb22ed53	-0.0024860695
58	0xbc86ade7	-0.016440345
59	0xbc282717	-0.010263226
60	0xbbb5c948	-0.0055476762
61	0x3b5666d2	0.0032715094
62	0xbb917d5f	-0.004439994
63	0x3bc015c0	0.005861968
64	0xbbb597a7	-0.00554176
65	0x3a4b60f3	0.0007758282
66	0xbba776ea	-0.005110611
67	0xbb808f47	-0.00392333
68	0xbc4d73ba	-0.012539798
69	0x3be56fc5	0.0070018494
70	0xbc75033a	-0.014954383
71	0xbb96e328	-0.004604716
72	0x3b92b1cb	0.004476761
73	0xbc55aa40	-0.013041079
74	0x3ae774b2	0.0017658679
75	0x3b6baae2	0.0035960008
76	0xbc5436ba	-0.012952501
77	0x3b410bfd	0.0029456608
78	0x3b0fa5bb	0.0021918851
79	0xbb8ce93e	-0.0043002656
80	0xbb5dea10	-0.0033861436
81	0x3b292aae	0.0025812793
82	0x3a4d610a	0.00078345893
83	0x3b561e20	0.0032671764
84	0x3b8120eb	0.0039406917
85	0xbc5e222d	-0.013557953
86	0x3c3448ba	0.0110036675
87	0x3a5f4b5a	0.0008518003
88	0xbbdc88ed	-0.00673019
89	0xbb3489fb	-0.0027548063
90	0x3b1836bb	0.0023225981
91	0x3ad8c44f	0.0016537997
92	0xbadcad1a	-0.0016836256
93	0x3ad5143a	0.0016256638
94	0x3b0161cb	0.0019742127
95	0x3b9e7554	0.004835764
96	0xbc845267	-0.016152574
97	0x3be0c992	0.0068599666
98	0x3c6dbdc0	0.014510572
99	0x3c3a4084	0.011367921
100	0x3c0de5cf	0.008660748
101	0xbb928a0d	-0.0044720233
102	0xbc6c1f45	-0.014411752
103	0xbbc8e520	-0.0061308295
104	0xbc192e4f	-0.00934942
105	0xbb98cdcf	-0.004663206
106	0x3b67a78f	0.0035347675
107	0xba2fe500	-0.0006709844
108	0x3b511d75	0.0031908427
109	0x3c04f3fb	0.00811481
110	0x3a820337	0.0009919171
111	0x3b8cee8f	0.0043008993
112	0x3b192958	0.002337059
113	0xbbde403a	-0.0067825587
114	0xbc422eaf	-0.011851951
115	0xbca79bc0	-0.02046001
116	0x3b77379a	0.003772235
117	0x3cc6be35	0.02426062
118	0x3b569883	0.0032744713
119	0xbb8e4ea3	-0.0043428703
120	0x3a9f3689	0.001214699
121	0xbbc227f7	-0.0059251743
122	0xbc11e8cd	-0.008905602
123	0xbbb04ee2	-0.0053804973
124	0x3b5133d7	0.0031921768
125	0x3a95b9c4	0.001142316
126	0xbae3979f	-0.0017363912
127	0xbc610c83	-0.013735893
128	0xbbdc2550	-0.006718315
129	0x3c3644e7	0.011124826
130	0xbbe9a22a	-0.007129927
131	0xbc79dc6a	-0.015250305
132	0x3d008827	0.031379845
133	0xba9f83ff	-0.0012170075
134	0xba6e8f37	-0.000910032
135	0xbc3644fb	-0.011124845
136	0xbb85059c	-0.0040595066
137	0xbaad9fd5	-0.0013246486
138	0x38d234d3	0.000100234196
139	0x3c3fe57f	0.011712431
140	0xbbd28808	-0.0064249076
141	0x3c2a92d6	0.010410985
142	0x3c1b8bb9	0.009493762
143	0x3c179b99	0.009253406
144	0xbc0797dd	-0.008275953
145	0x3c57c3cd	0.013169241
146	0xbbb2dd24	-0.005458491
147	0xba8ad2d4	-0.0010591396
148	0x390aee08	0.00013249379
149	0xbbb833a3	-0.00562139
150	0xbc37dca0	-0.011222035
151	0x3bfd380d	0.007727629
152	0xbad53dc3	-0.0016269017
153	0x3bda4723	0.006661312
154	0x3c8b2fdf	0.0169906
155	0x3b75a7da	0.003748408
156	0x3c8929d1	0.016743572
157	0x3c153e23	0.009109053
158	0x3c0243bf	0.007950722
159	0x3adc91fb	0.0016828174
160	0x3b2ebf73	0.0026664406
161	0x3b6fe44a	0.0036604577
162	0x389aba2f	7.3779716e-05
163	0x387cc852	6.0268045e-05
164	0xbbf4a90f	-0.0074664424
165	0xbc0e174c	-0.008672547
166	0xb983aa42	-0.0002511312
167	0x3c5ba118	0.013405107
168	0xbb83c53e	-0.004021316
169	0x3a49b138	0.0007693949
170	0xbb712a65	-0.003679895
171	0xbc0468d6	-0.008081635
172	0x3ba76153	0.0051080375
173	0x3c46fb01	0.012144805
174	0x3b103b4f	0.0022008007
175	0xbb105d44	-0.0022028247
176	0xba9debce	-0.0012048425
177	0xbaf6824f	-0.0018807146
178	0x3c07993f	0.008276283
179	0x3bddfa82	0.0067742476
180	0x3aac5053	0.0013146497
181	0x3c5bff8b	0.013427625
182	0x3aa0bc46	0.0012263141
183	0xbbd6be30	-0.006553434
184	0xba64ac30	-0.00087231677
185	0x3c141afc	0.009039637
186	0x3a9829d6	0.0011609148
187	0x3bd6fa50	0.0065606013
188	0xbce0cd1f	-0.02744156
189	0x3c54cba7	0.012988008
190	0x3c9fe3aa	0.019517738
191	0x3bbca084	0.0057564396
192	0x3bcb1947	0.0061980817
193	0x3b55d8c7	0.003263043
194	0x3c9f8001	0.019470217
195	0xbaaee8a6	-0.0013344481
196	0xbcb752ac	-0.022378288
197	0x3c374a2b	0.011187117
198	0xbc876750	-0.016528755
199	0xbbe6c44b	-0.007042443
200	0xbbfbe375	-0.007687027
201	0x3bb842a4	0.0056231786
202	0xbb0896ad	-0.0020841763
203	0xb9c17a90	-0.00036903145
204	0x3bef56ef	0.0073040645
205	0x3c1d6220	0.009605914
206	0x3bd6f8bf	0.0065604146
207	0xbc64e6a7	-0.013971007
208	0xbbd529cd	-0.006505227
209	0xbb418e0c	-0.002953413
210	0x3b8c72a5	0.0042861276
211	0x3c8e6af5	0.017384985
212	0xbaf38f8a	-0.0018582207
213	0xbb634d3f	-0.0034683493
214	0xbc37b700	-0.011213064
215	0x3b277fa0	0.0025558248
216	0xbc1bbd1a	-0.009505535
217	0x3b99b47e	0.004690706
218	0x3bf7821b	0.0075533516
219	0x3b3d7cc2	0.0028913473
220	0x3b4a6c4e	0.0030887309
221	0xbc6b088a	-0.014345298
222	0x3c98067e	0.018557783
223	0x3c192ddf	0.009349315
224	0xba8e2e52	-0.0010847545
225	0xbc097f13	-0.008392113
226	0x3c15258d	0.009103191
227	0xbc0bab3d	-0.008524713
228	0xbbb835a1	-0.0056216274
229	0xbb4a9a3b	-0.0030914682
230	0xbc84be60	-0.01620406
231	0x3b7e477f	0.003879994
232	0x394f4a2f	0.00019768694
233	0x3b91445c	0.004433198
234	0x3a8bf803	0.0010678772
235	0xbba5a6e7	-0.0050552967
236	0x3bbbfccb	0.0057369224
237	0x3bcb649f	0.0062070633
238	0x3be913b8	0.0071129464
239	0xbb2dec22	-0.0026538451
240	0xbb815121	-0.003946439
241	0xbb5eb4ed	-0.0033982352
242	0x3b054447	0.0020334886
243	0xb9ba70c2	-0.00035560696
244	0xbc9a4769	-0.01883288
245	0x3c2f356b	0.010693888
246	0x3c15f87b	0.009153481
247	0xbc937203	-0.017998701
248	0xbb82ccdb	-0.003991706
249	0xbb3969d4	-0.0028291838
250	0xb8665082	-5.4911252e-05
251	0xbaf64a63	-0.001879048
252	0x3c652620	0.0139861405
253	0x3b78f11d	0.0037985512
254	0x3be620a8	0.007022936
255	0x3b27567b	0.0025533724

action_model._discrete_distribution.branches.0.bias f4 [5]
0	0x00000000	0.0
1	0x00000000	0.0
2	0x00000000	0.0
3	0x00000000	0.0
4	0x00000000	0.0

network_body._body_endoder.seq_layers.0.weight f4 [128, 2]
0	0xbf9aa508	-1.2081614
1	0x3eb006f5	0.34380308
2	0xbe42df60	-0.19030523
3	0x3f12c42c	0.57330585
4	0xbe890573	-0.2676197
5	0x3ce727db	0.028217247
6	0xbee151df	-0.44007775
7	0xbfa86466	-1.3155639
8	0x3ef647f3	0.48101768
9	0x3f54125d	0.8284052
10	0xbe9a516e	-0.3014025
11	0xbe2fc5fe	-0.17165372
12	0x3f977ddb	1.1835283
13	0xbf4be7f8	-0.7965083
14	0x3ef8a7e1	0.4856558
15	0xbf152a33	-0.58267516
16	0xbe2a7543	-0.16646294
17	0x3f55150b	0.83235234
18	0x3f1ff4f0	0.6248312
19	0xbf6c0308	-0.92192125
20	0xbda8059e	-0.082041964
21	0x3f2672c3	0.6501886
22	0x3f59035a	0.8477074
23	0x3ea6f436	0.32608193
24	0xbf8682fc	-1.0508723
25	0xbf92ca43	-1.1467975
26	0x3f0b8971	0.54506594
27	0xbf8b13b2	-1.0865386
28	0x3f4a9a94	0.7914212
29	0x3fa06926	1.2532089
30	0x3f05a2af	0.5220136
31	0xbedb6852	-0.42853028
32	0x3e29279a	0.16519013
33	0x3e0af454	0.13569766
34	0x3e2fce00	0.17168427
35	0xbde2fc2e	-0.11083256
36	0x3f95ebc7	1.1712579
37	0x3e830d7e	0.2559623
38	0x3d934a7f	0.071919434
39	0xbebfb9d7	-0.37446472
40	0x3dfff71f	0.124983065
41	0x3ed0e8a1	0.40802482
42	0x3dbfff92	0.09374918
43	0x3ebc0e96	0.36729878
44	0x3eb4cc0f	0.35311934
45	0x3d415b64	0.047206298
46	0xbeecc2ef	-0.46242473
47	0x3c8cadd4	0.017172731
48	0xbdf7b7d5	-0.1209561
49	0x3e42be16	0.19017825
50	0x3ef093e5	0.46987835
51	0xbf329ecd	-0.6977356
52	0xbe93ecb3	-0.28891525
53	0xbee000c6	-0.4375059
54	0x3ee0a30b	0.43874392
55	0xbe6fc10a	-0.23413482
56	0xbeea7f36	-0.4580018
57	0xbf021e09	-0.5082708
58	0xbf0c4234	-0.5478852
59	0x3d946127	0.07245093
60	0xbfa7383c	-1.3064036
61	0x3f8881d2	1.0664618
62	0x3dd65e2b	0.1046718
63	0xbc8f42a4	-0.017487831
64	0x3ed815e3	0.42204198
65	0xbeb51891	-0.35370305
66	0xbf836762	-1.0265925
67	0x3f6f34d8	0.9344001
68	0x3e92ada1	0.28648093
69	0xbe98c655	-0.29838815
70	0xbe3454b9	-0.17610444
71	0xbeafa89b	-0.34308323
72	0x3fa3bf2c	1.2792716
73	0x3f80f336	1.0074222
74	0xbd9b3855	-0.07579104
75	0xbdeaf1a1	-0.11471868
76	0xbf3ad9e5	-0.7298873
77	0x3d134ad6	0.03596004
78	0xbe899433	-0.2687088
79	0xbeb97b85	-0.3622705
80	0xbf2ce5d2	-0.6753818
81	0xbe53b036	-0.20672688
82	0x3ea0a352	0.31374604
83	0x3ebc1703	0.36736307
84	0xbca0284f	-0.01955047
85	0xbf38a8f4	-0.721328
86	0xbee9f342	-0.45693403
87	0xbf138de4	-0.5763838
88	0x3e44d5dd	0.19222207
89	0x3f2770bd	0.654064
90	0x3e3e823d	0.1860437
91	0xbeccdfb2	-0.40014416
92	0xbf5742d7	-0.84086365
93	0x3fa4b13d	1.2866589
94	0x3f03f0a2	0.5153905
95	0x4002bbea	2.0427194
96	0xbddbf8c6	-0.10740809
97	0x3f522939	0.8209415
98	0x3e399981	0.18124963
99	0x3e97df30	0.29662466
100	0x3e89dfeb	0.26928648
101	0x3f190366	0.5977081
102	0xbf07748d	-0.5291222
103	0xbe6b2a0a	-0.22965255
104	0xbeb21ef6	-0.34789246
105	0xbedf685c	-0.43634307
106	0x3eabeb77	0.33578083
107	0x3f100273	0.5625374
108	0x3f1d8270	0.61527157
109	0x3f1b385b	0.60632867
110	0xbe04f3a0	-0.1298356
111	0x3f94fde1	1.1639978
112	0xbf3b88e3	-0.7325575
113	0xbeca1d4b	-0.39475474
114	0x3ed11855	0.40838876
115	0xbfba86a3	-1.4572338
116	0x3fd038fb	1.6267389
117	0x3fb744e3	1.4317898
118	0xbd97c662	-0.074108854
119	0x3d3b5dfc	0.045743927
120	0xbf97ce5d	-1.1859852
121	0x3f9030b7	1.1264867
122	0xbf04fddb	-0.5194985
123	0xbe50fbba	-0.20408526
124	0xbf25a492	-0.6470424
125	0x3f4ea551	0.80721
126	0x3f85bb9e	1.0447881
127	0xbe871576	-0.2638356
128	0x3f372557	0.7154135
129	0x3f006dc7	0.50167507
130	0xbf3cfcaa	-0.73823035
131	0xbe97baa7	-0.29634592
132	0xbe579bcb	-0.21055524
133	0x3f297d3c	0.6620672
134	0x3f21c5d9	0.63192517
135	0x3f4e1f91	0.80516917
136	0xbe064b07	-0.13114558
137	0xbd16212d	-0.036652733
138	0x3e321d78	0.17394054
139	0xbe34dc21	-0.17662098
140	0xbf79ed93	-0.97628134
141	0xbf20fe17	-0.6288771
142	0xbea399ff	-0.31953427
143	0xbeb2453b	-0.34818444
144	0x3e6c5f71	0.23083283
145	0xbffc5cf3	-1.9715866
146	0x3f15c1e5	0.58498985
147	0xbf669c84	-0.90082574
148	0x3df0650e	0.11738025
149	0x3e541225	0.20710047
150	0xbe8c0655	-0.2734858
151	0xbf2f973a	-0.6859013
152	0xbe451940	-0.19247913
153	0xbeb602c9	-0.35549
154	0x3e0ae392	0.13563374
155	0x3ecd1b3c	0.4005984
156	0x3e064bbd	0.1311483
157	0x3fae106f	1.3598765
158	0x3eb06a25	0.34455982
159	0x3ea702a9	0.32619217
160	0x3f89c8f1	1.0764447
161	0x3f29dfcf	0.6635713
162	0x3f90fb1b	1.1326631
163	0xbf3097cb	-0.6898162
164	0xbfa528ef	-1.2903117
165	0x3f96ae7b	1.1771997
166	0xbf8a91f3	-1.082579
167	0xbf72dbde	-0.9486674
168	0xbb667b74	-0.0035168799
169	0xbf6b8e4f	-0.9201402
170	0x3f6f86e1	0.93565184
171	0xbf01c935	-0.5069764
172	0x3f47778e	0.779168
173	0x3ed9ad9c	0.42515266
174	0xbefc3d00	-0.4926529
175	0xbf8e448e	-1.1114671
176	0xbf0f594e	-0.55995643
177	0x3ea6a0f2	0.32544667
178	0xbf1d2356	-0.61382043
179	0xbe8caed6	-0.2747714
180	0x3d7c3688	0.061575443
181	0xbe69b439	-0.22822656
182	0x3f6d61bd	0.9272726
183	0x3f262b19	0.6490951
184	0xbf208af9	-0.62712055
185	0x3f24f143	0.64430636
186	0x3f48ce0f	0.7843942
187	0x3e0c0ece	0.13677523
188	0xbf235dc2	-0.6381494
189	0xbe2ff8a2	-0.1718469
190	0xbeab4e03	-0.33457956
191	0xbf7e7c30	-0.99408245
192	0x3eab2d43	0.3343297
193	0x3f8a5bea	1.08093
194	0xbda7402f	-0.08166539
195	0x3e735efd	0.23766704
196	0xbef87e5c	-0.48533905
197	0x3f92f62c	1.1481376
198	0x3f658887	0.8966145
199	0xbf49358c	-0.7859733
200	0x3f3d8a9c	0.74039626
201	0xbebf3c1a	-0.3735054
202	0x3f34fd94	0.7069943
203	0xbe5335c8	-0.20625985
204	0xbd0a3419	-0.03374109
205	0xbefb6c8e	-0.49106258
206	0xbd6c733b	-0.05772708
207	0x3f5e6fd5	0.8688939
208	0xbeeece68	-0.4664185
209	0xbc8d929a	-0.01728182
210	0x3f89c336	1.0762699
211	0x3efa375f	0.4887037
212	0x3f875969	1.0574161
213	0x3fe14374	1.759871
214	0xbecb362c	-0.39689767
215	0x3ed13bc6	0.40865916
216	0xbea902a3	-0.33009824
217	0x3f9b8a65	1.215161
218	0x3f8eb42a	1.1148732
219	0xbf4fbec0	-0.81150436
220	0xbdf5eb81	-0.120078094
221	0x3f9a8d9e	1.2074468
222	0xbfbf0b37	-1.4925297
223	0x3e7f0b94	0.2490676
224	0x3fc445b7	1.5333775
225	0xbef82e80	-0.48472977
226	0xbe0a8505	-0.13527305
227	0x3f9926c5	1.1964957
228	0xbf3cc5fe	-0.7373961
229	0x3ef633c3	0.48086366
230	0xbf2527f5	-0.64514095
231	0x3ed966e0	0.424613
232	0x3e4275c8	0.18990242
233	0x3ee69151	0.45032743
234	0xbfb52a60	-1.4153557
235	0xbeef7310	-0.46767473
236	0xbf4eeafb	-0.808273
237	0xbfcd7eb9	-1.6054298
238	0xbf0b79a1	-0.54482466
239	0xbe038c3a	-0.12846461
240	0xbe8f6486	-0.2800638
241	0xbec230bd	-0.3792781
242	0xbea19323	-0.3155757
243	0xbea21d80	-0.31663132
244	0xbecaa8a5	-0.3958179
245	0x3e45a509	0.19301237
246	0x3e869446	0.26285
247	0x3ea1567e	0.315113
248	0x3b8321f7	0.0040018517
249	0x3ebf6b99	0.37386778
250	0x3fe02047	1.750985
251	0xbfa6fff4	-1.3046861
252	0xbe9e8ee5	-0.30968395
253	0x3f4fd4dd	0.8118418
254	0x3f8ae60a	1.0851452
255	0xbf035b01	-0.51310736

network_body._body_endoder.seq_layers.0.bias f4 [128]
0	0x00000000	0.0
1	0x00000000	0.0
2	0x00000000	0.0
3	0x00000000	0.0
4	0x00000000	0.0
5	0x00000000	0.0
6	0x00000000	0.0
7	0x00000000	0.0
8	0x00000000	0.0
9	0x00000000	0.0
10	0x00000000	0.0
11	0x00000000	0.0
12	0x00000000	0.0
13	0x00000000	0.0
14	0x00000000	0.0
15	0x00000000	0.0
16	0x00000000	0.0
17	0x00000000	0.0
18	0x00000000	0.0
19	0x00000000	0.0
20	0x00000000	0.0
21	0x00000000	0.0
22	0x00000000	0.0
23	0x00000000	0.0
24	0x00000000	0.0
25	0x00000000	0.0
26	0x00000000	0.0
27	0x00000000	0.0
28	0x00000000	0.0
29	0x00000000	0.0
30	0x00000000	0.0
31	0x00000000	0.0
32	0x00000000	0.0
33	0x00000000	0.0
34	0x00000000	0.0
35	0x00000000	0.0
36	0x00000000	0.0
37	0x00000000	0.0
38	0x00000000	0.0
39	0x00000000	0.0
40	0x00000000	0.0
41	0x00000000	0.0
42	0x00000000	0.0
43	0x00000000	0.0
44	0x00000000	0.0
45	0x00000000	0.0
46	0x00000000	0.0
47	0x00000000	0.0
48	0x00000000	0.0
49	0x00000000	0.0
50	0x00000000	0.0
51	0x00000000	0.0
52	0x00000000	0.0
53	0x00000000	0.0
54	0x00000000	0.0
55	0x00000000	0.0
56	0x00000000	0.0
57	0x00000000	0.0
58	0x00000000	0.0
59	0x00000000	0.0
60	0x00000000	0.0
61	0x00000000	0.0
62	0x00000000	0.0
63	0x00000000	0.0
64	0x00000000	0.0
65	0x00000000	0.0
66	0x00000000	0.0
67	0x00000000	0.0
68	0x00000000	0.0
69	0x00000000	0.0
70	0x00000000	0.0
71	0x00000000	0.0
72	0x00000000	0.0
73	0x00000000	0.0
74	0x00000000	0.0
75	0x00000000	0.0
76	0x00000000	0.0
77	0x00000000	0.0
78	0x00000000	0.0
79	0x00000000	0.0
80	0x00000000	0.0
81	0x00000000	0.0
82	0x00000000	0.0
83	0x00000000	0.0
84	0x00000000	0.0
85	0x00000000	0.0
86	0x00000000	0.0
87	0x00000000	0.0
88	0x00000000	0.0
89	0x00000000	0.0
90	0x00000000	0.0
91	0x00000000	0.0
92	0x00000000	0.0
93	0x00000000	0.0
94	0x00000000	0.0
95	0x00000000	0.0
96	0x00000000	0.0
97	0x00000000	0.0
98	0x00000000	0.0
99	0x00000000	0.0
100	0x00000000	0.0
101	0x00000000	0.0
102	0x00000000	0.0
103	0x00000000	0.0
104	0x00000000	0.0
105	0x00000000	0.0
106	0x00000000	0.0
107	0x00000000	0.0
108	0x00000000	0.0
109	0x00000000	0.0
110	0x00000000	0.0
111	0x00000000	0.0
112	0x00000000	0.0
113	0x00000000	0.0
114	0x00000000	0.0
115	0x00000000	0.0
116	0x00000000	0.0
117	0x00000000	0.0
118	0x00000000	0.0
119	0x00000000	0.0
120	0x00000000	0.0
121	0x00000000	0.0
122	0x00000000	0.0
123	0x00000000	0.0
124	0x00000000	0.0
125	0x00000000	0.0
126	0x00000000	0.0
127	0x00000000	0.0

network_body._body_endoder.seq_layers.2.weight f4 [128, 128]
0	0x3cafacf4	0.021444775
1	0x3c9aef07	0.018912805
2	0x3db9fb50	0.09081137
3	0xbd818961	-0.06325031
4	0x3a677114	0.00088288006
5	0xbc7e0031	-0.015502975
6	0xbde751ef	-0.112949245
7	0x3ce98415	0.028505364
8	0xbced99f1	-0.029004069
9	0xbe04cb7f	-0.12968253
10	0xbe151164	-0.14557415
11	0x3c452ad3	0.012034136
12	0x3d3cdb4e	0.046107583
13	0x3e054460	0.13014364
14	0xbcfb0087	-0.0306399
15	0x3b10c5df	0.0022090597
16	0x3caf24c3	0.021379834
17	0x3d56d681	0.05245066
18	0xbc1d3326	-0.009594714
19	0xbc06da76	-0.008230796
20	0x3cc70135	0.024292568
21	0x3e4054b3	0.1878231
22	0x3cfcec8a	0.03087451
23	0x3ca46002	0.020065311
24	0x3c247d33	0.010039615
25	0x3e43af02	0.19109729
26	0x3dbd2840	0.09236193
27	0xbce11bff	-0.02747917
28	0xbd1042e0	-0.035220027
29	0x3db35b4a	0.087576464
30	0xba986de8	-0.0011629434
31	0xbe10f3f6	-0.14155564
32	0x3d438e66	0.047743224
33	0xbd80e29b	-0.062932216
34	0x3d86a8fb	0.06575199
35	0xbdec9a6c	-0.11552891
36	0xbd8715b6	-0.06595938
37	0x3e3634f6	0.1779364
38	0x3e0ecb6e	0.1394479
39	0xbd9c4047	-0.076294474
40	0x3deaf20e	0.114719495
41	0xbd89fb4e	-0.06737386
42	0x3cc42d48	0.023947373
43	0x3d0c54f5	0.03426071
44	0xbd657cb3	-0.056027126
45	0xbd14e9ea	-0.03635589
46	0x3d547a07	0.051874187
47	0xbdf3a6dc	-0.1189706
48	0xbe5b3082	-0.21405223
49	0x3c8b1def	0.016982047
50	0xbde76ab0	-0.11299646
51	0x3cc1a32b	0.023637375
52	0x3cfb0229	0.030640678
53	0xbd892542	-0.066965595
54	0x3d57adf4	0.05265613
55	0x3c03f65b	0.008054341
56	0xbc99b5a0	-0.018763363
57	0x3ce4afb2	0.02791581
58	0xba2c4823	-0.00065720285
59	0x3d2ba080	0.04190111
60	0xbe0f0ae2	-0.13968995
61	0x3d88a31e	0.06671737
62	0x3e27b6f1	0.1637838
63	0xbbbdd6e2	-0.0057934383
64	0x3e205213	0.15656309
65	0x3c83ca68	0.016087726
66	0x3d473aad	0.048639942
67	0x3c826248	0.015916005
68	0xbe15783f	-0.14596651
69	0xbd45bf34	-0.04827805
70	0xbd9e9438	-0.07743114
71	0x3d6f37c7	0.058402803
72	0xbde38b20	-0.1111052
73	0xbd1b7650	-0.03795463
74	0x3bfb402f	0.0076675634
75	0xbdedf822	-0.11619593
76	0xbc9a51fb	-0.01883792
77	0x3cbbaa12	0.022908244
78	0x3c24b08a	0.010051856
79	0x3cb40b25	0.02197797
80	0xbd9e9b7b	-0.07744499
81	0xbd996037	-0.07489055
82	0x3db7208b	0.08941754
83	0x3d338a86	0.043833278
84	0x3b5e205b	0.0033893797
85	0x3d8a1f24	0.06744221
86	0xbd39fe8c	-0.04540877
87	0xbbe30533	-0.00692811
88	0x3d9e4377	0.07727712
89	0x3d56b277	0.05241629
90	0x3d8b994e	0.0681635
91	0xbd27e2ba	-0.040987708
92	0xbd921b30	-0.07134092
93	0xbdd46e96	-0.10372655
94	0x3d3049e5	0.04303922
95	0xbb1f6b15	-0.00243253
96	0xbd2b78e0	-0.041863322
97	0x3dc754cf	0.09732973
98	0x3d1ff97c	0.039056286
99	0x3d39b846	0.045341752
100	0x3de4ad2c	0.111658424
101	0x3b50d659	0.0031866042
102	0xbd2836b3	-0.04106779
103	0xbd7c92e3	-0.06166352
104	0x3e38a2c2	0.18030837
105	0xbdbfcde4	-0.093654424
106	0xbc887d40	-0.016661286
107	0xbd9d2c38	-0.0767445
108	0x3d95c184	0.07312301
109	0x3ca12c8e	0.019674566
110	0x3b20d033	0.002453816
111	0xbe1f1336	-0.15534672
112	0xbcf3e7bd	-0.029773587
113	0xbdab3e29	-0.083614655
114	0x3d5f98d3	0.054589104
115	0x3c42777a	0.011869306
116	0x3aa624e4	0.0012675789
117	0xbc475d5d	-0.012168256
118	0xbe55cf13	-0.20879774
119	0xbe104d7e	-0.14092061
120	0xbde7a3f1	-0.11310566
121	0xbbe4cf48	-0.0069827177
122	0xbdbe8772	-0.09303178
123	0xbd050b37	-0.0324814
124	0xbdc2c21c	-0.0950968
125	0x3e050219	0.12989081
126	0xbd928100	-0.07153511
127	0x3d999808	0.07499701
128	0xbd903685	-0.07041649
129	0xbdd42378	-0.103583276
130	0xbda79840	-0.08183336
131	0xbdf90937	-0.12159961
132	0x3d629b47	0.055323865
133	0xbe100ea4	-0.14068085
134	0x3ce67dc0	0.028136134
135	0xbcbaee83	-0.02281881
136	0x3d4206dc	0.047369823
137	0x3e4ebe31	0.2018974
138	0xbe40fdf0	-0.1884687
139	0xbb292215	-0.0025807668
140	0xbdf557ac	-0.11979613
141	0x3d74238a	0.059604205
142	0x3dbea109	0.09308059
143	0x3df8f9f8	0.12157053
144	0xbc876bcb	-0.016530892
145	0x3e1738b1	0.1476772
146	0x3c94c86b	0.018161973
147	0x3df44c86	0.11928658
148	0xbe736460	-0.23768759
149	0xbd3caf1f	-0.046065446
150	0xbba6fce0	-0.005096063
151	0xbd1676e8	-0.03673449
152	0x3e458acf	0.19291233
153	0x3e996315	0.29958406
154	0x3b7eda93	0.0038887605
155	0x3da73603	0.08164599
156	0x3df4a082	0.11944677
157	0x3daaad62	0.083338514
158	0xbd4093b3	-0.047015857
159	0xbe2ac50a	-0.16676727
160	0xbb4deaa2	-0.003142037
161	0xbcebe981	-0.028797867
162	0xbbe03870	-0.0068426654
163	0x3d5a3da1	0.05328143
164	0x3de8804e	0.11352597
165	0xbc78b1bf	-0.015179097
166	0xbcd57340	-0.026055932
167	0xbe4d1d95	-0.20030816
168	0xbe00f237	-0.12592398
169	0xbcb60dae	-0.02222332
170	0x3cc735b8	0.024317607
171	0xbc5c80cb	-0.013458441
172	0x3c844004	0.016143806
173	0x3dbcdf17	0.092222385
174	0xbdd84693	-0.10560336
175	0xbe031df0	-0.12804389
176	0x3da9aab6	0.08284514
177	0x3d91c688	0.07117945
178	0xbd4a47c1	-0.049384836
179	0xbd295df6	-0.041349374
180	0xbe1e5e6b	-0.15465705
181	0x3c9dd4d8	0.01926653
182	0xbe0feae5	-0.14054449
183	0xbd3cd40e	-0.04610067
184	0xbc92655e	-0.017870601
185	0x3e130433	0.1435707
186	0x3da7fdac	0.08202681
187	0xbc07ec72	-0.008296119
188	0x3dee5265	0.11636809
189	0xbd80c6aa	-0.06287892
190	0xbd92a881	-0.07161046
191	0x3d686f76	0.056746922
192	0xbe107d06	-0.14110193
193	0x3d9391c9	0.07205541
194	0xbe2a5322	-0.16633275
195	0x3d43bbe1	0.047786597
196	0xbd0e4ddf	-0.034742232
197	0xbdaa235e	-0.08307527
198	0xbd5fe19e	-0.054658525
199	0xbcb3264e	-0.021868851
200	0xbd924679	-0.07142348
201	0xbdaedbb8	-0.08538002
202	0x3b1c6b73	0.0023867756
203	0x3defe749	0.11714036
204	0xbd07a4f7	-0.033116307
205	0xbd97c2d1	-0.07410205
206	0x3e4ea667	0.20180665
207	0x3d4202b3	0.047365855
208	0xbdd40f5e	-0.103544936
209	0x3d016246	0.03158786
210	0xbd85b8f1	-0.065294154
211	0xbcbb39e2	-0.02285475
212	0xbd42c73b	-0.047553282
213	0x3aa91c22	0.0012902061
214	0x3b82e47c	0.0039945226
215	0x3def44ff	0.11683082
216	0xbd548fc4	-0.051894918
217	0xbdf02062	-0.117249265
218	0xbdeacefa	-0.11465259
219	0xbd36d3a2	-0.044635423
220	0x3d11fc5d	0.035641063
221	0x3be5ddbc	0.007014958
222	0x3d1dcfb7	0.03852817
223	0xbbc751b0	-0.006082736
224	0x3c69d554	0.014272053
225	0xbe1e7f72	-0.15478304
226	0x3d7972fd	0.060900677
227	0x3cb908fe	0.022587296
228	0xbcfd51ed	-0.030922854
229	0xbc0acc29	-0.008471527
230	0x3d89bf86	0.06725983
231	0x3c64df0f	0.013969197
232	0x3e140bf7	0.14457689
233	0x3c7e6cdc	0.015528884
234	0x3ced29bd	0.028950566
235	0x39c28058	0.00037098187
236	0xbe2f3940	-0.17111683
237	0x3e2d8d6f	0.16948484
238	0x3e501267	0.2031952
239	0x3d372c6a	0.04472009
240	0xbc10fe3e	-0.008849679
241	0x3cb530d8	0.022118017
242	0xbd191054	-0.037369087
243	0x3da173bb	0.07883402
244	0x3dd6208f	0.10455429
245	0xbd9bed34	-0.07613602
246	0xbb6ce481	-0.003614694
247	0xbda79266	-0.0818222
248	0xbd7bed4f	-0.061505612
249	0xbcb700c7	-0.022339238
250	0x3e0e5f7f	0.13903616
251	0x3d563353	0.05229504
252	0xbd968efd	-0.073514916
253	0x3daf577f	0.085616104
254	0x3d0edf45	0.034880895
255	0xbc89c1d7	-0.016816063

network_body._body_endoder.seq_layers.2.bias f4 [128]
0	0x00000000	0.0
1	0x00000000	0.0
2	0x00000000	0.0
3	0x00000000	0.0
4	0x00000000	0.0
5	0x00000000	0.0
6	0x00000000	0.0
7	0x00000000	0.0
8	0x00000000	0.0
9	0x00000000	0.0
10	0x00000000	0.0
11	0x00000000	0.0
12	0x00000000	0.0
13	0x00000000	0.0
14	0x00000000	0.0
15	0x00000000	0.0
16	0x00000000	0.0
17	0x00000000	0.0
18	0x00000000	0.0
19	0x00000000	0.0
20	0x00000000	0.0
21	0x00000000	0.0
22	0x00000000	0.0
23	0x00000000	0.0
24	0x00000000	0.0
25	0x00000000	0.0
26	0x00000000	0.0
27	0x00000000	0.0
28	0x00000000	0.0
29	0x00000000	0.0
30	0x00000000	0.0
31	0x00000000	0.0
32	0x00000000	0.0
33	0x00000000	0.0
34	0x00000000	0.0
35	0x00000000	0.0
36	0x00000000	0.0
37	0x00000000	0.0
38	0x00000000	0.0
39	0x00000000	0.0
40	0x00000000	0.0
41	0x00000000	0.0
42	0x00000000	0.0
43	0x00000000	0.0
44	0x00000000	0.0
45	0x00000000	0.0
46	0x00000000	0.0
47	0x00000000	0.0
48	0x00000000	0.0
49	0x00000000	0.0
50	0x00000000	0.0
51	0x00000000	0.0
52	0x00000000	0.0
53	0x00000000	0.0
54	0x00000000	0.0
55	0x00000000	0.0
56	0x00000000	0.0
57	0x00000000	0.0
58	0x00000000	0.0
59	0x00000000	0.0
60	0x00000000	0.0
61	0x00000000	0.0
62	0x00000000	0.0
63	0x00000000	0.0
64	0x00000000	0.0
65	0x00000000	0.0
66	0x00000000	0.0
67	0x00000000	0.0
68	0x00000000	0.0
69	0x00000000	0.0
70	0x00000000	0.0
71	0x00000000	0.0
72	0x00000000	0.0
73	0x00000000	0.0
74	0x00000000	0.0
75	0x00000000	0.0
76	0x00000000	0.0
77	0x00000000	0.0
78	0x00000000	0.0
79	0x00000000	0.0
80	0x00000000	0.0
81	0x00000000	0.0
82	0x00000000	0.0
83	0x00000000	0.0
84	0x00000000	0.0
85	0x00000000	0.0
86	0x00000000	0.0
87	0x00000000	0.0
88	0x00000000	0.0
89	0x00000000	0.0
90	0x00000000	0.0
91	0x00000000	0.0
92	0x00000000	0.0
93	0x00000000	0.0
94	0x00000000	0.0
95	0x00000000	0.0
96	0x00000000	0.0
97	0x00000000	0.0
98	0x00000000	0.0
99	0x00000000	0.0
100	0x00000000	0.0
101	0x00000000	0.0
102	0x00000000	0.0
103	0x00000000	0.0
104	0x00000000	0.0
105	0x00000000	0.0
106	0x00000000	0.0
107	0x00000000	0.0
108	0x00000000	0.0
109	0x00000000	0.0
110	0x00000000	0.0
111	0x00000000	0.0
112	0x00000000	0.0
113	0x00000000	0.0
114	0x00000000	0.0
115	0x00000000	0.0
116	0x00000000	0.0
117	0x00000000	0.0
118	0x00000000	0.0
119	0x00000000	0.0
120	0x00000000	0.0
121	0x00000000	0.0
122	0x00000000	0.0
123	0x00000000	0.0
124	0x00000000	0.0
125	0x00000000	0.0
126	0x00000000	0.0
127	0x00000000	0.0

value_heads.value_heads.extrinsic.weight f4 [1, 128]
0	0xbe4b6198	-0.19861448
1	0x3e1ace80	0.15117836
2	0xbdc7d52a	-0.09757455
3	0x3dfc2cdc	0.12313244
4	0x3e577aca	0.21042934
5	0xbe2ad6a2	-0.16683438
6	0x3e4b70f0	0.19867301
7	0xbe250d14	-0.1611827
8	0x3d971ee4	0.07378939
9	0x3df8b1a4	0.12143257
10	0xbd3cda28	-0.046106488
11	0xbe3981e6	-0.18115959
12	0x3e2852bc	0.1643781
13	0xbd9287fa	-0.07154842
14	0xbc9733d0	-0.018457323
15	0xbe0da05a	-0.138307
16	0xbd444b28	-0.047923237
17	0x3ced1d60	0.028944671
18	0x3e43095a	0.19046536
19	0x3e25edd4	0.16204005
20	0x3dba2224	0.09088543
21	0xbd842008	-0.06451422
22	0x3e2cb94c	0.1686756
23	0xbd2fca0c	-0.042917296
24	0xbe4c06a5	-0.1992441
25	0xbcccf7d0	-0.02502051
26	0xbd9245ac	-0.07142195
27	0xbdff03cb	-0.12451895
28	0x3dc86158	0.09784192
29	0x3cf6fef8	0.030150875
30	0x3db55ad4	0.08855215
31	0x3e47ee14	0.19524413
32	0x3e15b6fc	0.14620584
33	0x3db87c40	0.09008074
34	0x3e145ba6	0.14488086
35	0x3db85700	0.09000969
36	0xbe47473a	-0.19460765
37	0xbe288840	-0.16458225
38	0x3d7aa998	0.061196893
39	0x3d051ca4	0.032498017
40	0x3defef64	0.11715582
41	0xbe24c207	-0.1608964
42	0x3d3a51a0	0.045488
43	0xbdcb22c6	-0.09918742
44	0x3e4b97bc	0.19882101
45	0xbd0bceb4	-0.034132674
46	0x3de39878	0.111130655
47	0xbe11f7ba	-0.14254656
48	0x3de9e144	0.11419919
49	0xbcc9cc78	-0.024633631
50	0x3e0dc952	0.13846329
51	0x3e4676c8	0.19381249
52	0xbd85953a	-0.06522603
53	0xbe1df131	-0.15424038
54	0xbe219c5d	-0.15782304
55	0xbd9a8158	-0.075442016
56	0xbcf4b3f0	-0.029870957
57	0x3d4ad840	0.04952264
58	0xbd9c8068	-0.07641679
59	0x3e0e4db2	0.13896826
60	0xbe43b51c	-0.19112056
61	0x3dcfb438	0.10141796
62	0x3e107b50	0.1410954
63	0xbe2abcc0	-0.16673565
64	0x3e25e100	0.16199112
65	0x3e44ef4e	0.19231912
66	0xbd872d92	-0.06600489
67	0x3c927d70	0.017882079
68	0xbe270b5d	-0.16312928
69	0xbccffc18	-0.025388762
70	0x3d7ab2a8	0.061205536
71	0x3e4df736	0.20113835
72	0x3c0cb6c0	0.008588493
73	0xbdb228b6	-0.08699171
74	0xbe3aa329	-0.18226303
75	0x3aa02700	0.0012218654
76	0x3df673a0	0.120337725
77	0xbe3833ef	-0.17988561
78	0x3d38be48	0.04510334
79	0x3e3f6784	0.18691832
80	0x3c7e1d70	0.015509948
81	0x3d7d03e0	0.061771274
82	0x3e325f1c	0.17419094
83	0x3d4be1e8	0.049775988
84	0xbd71b608	-0.05901149
85	0x3e46b8e8	0.19406474
86	0xbc065340	-0.008198559
87	0xbe2106ed	-0.15725298
88	0x3e4a545a	0.1975874
89	0xbd5ebfb8	-0.054382056
90	0xbd888e60	-0.06667781
91	0xbe0ba04b	-0.13635366
92	0xbe470f00	-0.19439316
93	0xbe429816	-0.19003329
94	0x3dbe3c44	0.092888385
95	0xbe0c3e0c	-0.13695544
96	0x3d337c00	0.043819427
97	0xbda53a60	-0.08067775
98	0xbdde3975	-0.10850803
99	0xbe40ed3d	-0.18840499
100	0x3e43a09a	0.19104233
101	0x3bbd6620	0.0057799965
102	0xbe05e660	-0.13076162
103	0x3d8266b8	0.06367248
104	0x3d8c77a4	0.06858757
105	0x3c9feb90	0.019521505
106	0x3cb56190	0.022141248
107	0x3e255528	0.16145766
108	0xbb9038a0	-0.0044012815
109	0xbd1c2bac	-0.038127586
110	0x3e3b3d70	0.18285155
111	0x3ab89f80	0.0014085621
112	0x3d309448	0.043110162
113	0xbc82f280	-0.015984774
114	0xbdfd7534	-0.1237587
115	0x3e39cc02	0.18144229
116	0xbe2ac13c	-0.16675276
117	0xbb6c7c40	-0.00360848
118	0x3e5030e6	0.20331153
119	0xbde98643	-0.114025615
120	0xbad84b80	-0.0016501993
121	0xbcb190c0	-0.021675467
122	0x3e3cd1e6	0.18439445
123	0xbe3a896a	-0.18216482
124	0xbe09468a	-0.13405815
125	0xbd3d5918	-0.046227545
126	0xbe38c190	-0.18042588
127	0x3bcbf4e0	0.0062242597
