AITests/results/Test1/MoveToGoal/MoveToGoal-2211.pt (torch, 149530 bytes, 12 tensors)

network_body._body_endoder.seq_layers.0.weight f4 [128, 6]
0	0x3e6645fa	0.22487631
1	0xbd3efadb	-0.046625953
2	0xbd453485	-0.04814579
3	0x3f32be1d	0.6982134
4	0xbda8432e	-0.082159385
5	0xbdf4c461	-0.11951519
6	0x3ed87a85	0.42280975
7	0xbec563f3	-0.38552818
8	0x3e192b3d	0.149579
9	0xbe8c6100	-0.27417755
10	0x3e5c6de0	0.21526289
11	0xbeb7d95e	-0.35908026
12	0x3d2840f0	0.041077554
13	0x3f46c76d	0.7764805
14	0x3f2d41a1	0.67678267
15	0xbf16d86a	-0.5892397
16	0x3df145f9	0.11780924
17	0x3d2e0c3d	0.04249214
18	0xbe3f8f96	-0.18707117
19	0x3f30bcb5	0.69037944
20	0x3e1cba0c	0.15305346
21	0x3ea11b8f	0.31466338
22	0x3f0e0a07	0.5548405
23	0x3e4331ee	0.19062015
24	0x3deaf874	0.1147317
25	0xbf08354b	-0.5320632
26	0xbede9829	-0.43475464
27	0x3f345688	0.70444536
28	0x3e119811	0.14218165
29	0xbe9b8539	-0.30375078
30	0xbcdf6f5f	-0.027274786
31	0xbeefa71c	-0.46807182
32	0x3e3394f0	0.17537284
33	0xbded58f3	-0.11589231
34	0x3eebd172	0.46058232
35	0xbcc20ee7	-0.023688747
36	0x3efa5fc6	0.48901194
37	0x3d97a882	0.07405187
38	0x3de19f6e	0.11016737
39	0xbebff614	-0.3749243
40	0x3eba4f3b	0.36388573
41	0x3e76ec8e	0.24113676
42	0x3dfc6406	0.123237655
43	0x3e2a043c	0.16603178
44	0xbf0a59c0	-0.540432
45	0x3f413f4f	0.75487226
46	0x3f00a3d9	0.5025001
47	0xbe869db6	-0.262922
48	0xbecfefe4	-0.4061271
49	0xbdb2c522	-0.08729006
50	0xbf37795b	-0.7166955
51	0xbd9ce008	-0.07659918
52	0xbd11f62c	-0.03563516
53	0x3f2c0ff6	0.67211854
54	0x3f41c0b2	0.75684655
55	0xbeef5bbe	-0.4674968
56	0x3f493174	0.78591084
57	0xbee44f09	-0.4459155
58	0xbdaf998f	-0.08574211
59	0x3e971fea	0.29516536
60	0xbebfb8d7	-0.3744571
61	0xbe309387	-0.17243777
62	0x3f633f55	0.8876851
63	0x3e0a6322	0.13514379
64	0xbf5bf0cf	-0.8591432
65	0x3f09812b	0.5371272
66	0x3e010624	0.12599999
67	0xbd2a9a98	-0.04165134
68	0x3dd65edd	0.104673125
69	0x3ee19792	0.4406095
70	0x3f7ddfe1	0.9916974
71	0x3c6e836e	0.0145577025
72	0x3ebbc20c	0.36671484
73	0x3ef6e66b	0.4822267
74	0xbe590279	-0.2119235
75	0x3d85657e	0.06513499
76	0x3e906d71	0.28208497
77	0xbdffd75c	-0.124922484
78	0x3df64346	0.1202455
79	0xbdb9fb75	-0.09081165
80	0x3e183753	0.14864855
81	0x3b947c81	0.0045314436
82	0xbedfe00c	-0.43725622
83	0xbf5762fe	-0.84135425
84	0x3f21c858	0.63196325
85	0xbe0abae5	-0.13547857
86	0xbf0c0240	-0.54690933
87	0xbd176be8	-0.03696814
88	0x3ee80ceb	0.45322356
89	0x3f489e27	0.7836632
90	0xbd486175	-0.048921067
91	0xbe575ec5	-0.21032245
92	0xbe56b190	-0.20966172
93	0x3f2a61e3	0.66555613
94	0x3e53f632	0.20699385
95	0x3ee27aa5	0.44234195
96	0xbedbd5c5	-0.4293653
97	0xbd2f513d	-0.042802084
98	0x3f48f33d	0.7849615
99	0xbca49847	-0.020092143
100	0x3cae70c6	0.021294009
101	0x3e0a4c2e	0.13505623
102	0xbf1d2899	-0.6139007
103	0x3f21ea60	0.6324825
104	0xbe68fcdc	-0.22752708
105	0xbe86b838	-0.26312423
106	0x3f4d21a8	0.8012948
107	0x3edccf09	0.43126705
108	0xbe91cfb0	-0.28478765
109	0xbe2cb21a	-0.16864815
110	0x3ea2001e	0.31640714
111	0x3b74775b	0.0037302587
112	0x3ecad746	0.39617366
113	0x3e9d1928	0.30683255
114	0xbe31839d	-0.17335363
115	0x3efe52ba	0.4967249
116	0x3f04b99e	0.5184573
117	0xbe77a50c	-0.24184054
118	0xbce601d8	-0.028077051
119	0x3e6382de	0.2221789
120	0x3ed880f3	0.4228588
121	0x3ec34612	0.38139397
122	0xbee3906a	-0.44446117
123	0xbec1fb43	-0.3788701
124	0x3f07c0d0	0.53028584
125	0xbc6b05f0	-0.014344677
126	0x3e4e4506	0.20143518
127	0xbf1552fd	-0.58329755
128	0xbe707dfa	-0.23485556
129	0xbf175aae	-0.5912274
130	0x3e8ad84f	0.27118155
131	0xbf1bf0c1	-0.60914236
132	0xbf1795d0	-0.5921297
133	0xbefc1c6d	-0.49240437
134	0xbe98b787	-0.2982752
135	0xbd93e294	-0.07220951
136	0xbf05ade5	-0.52218467
137	0x3d05fccd	0.032711793
138	0xbb71c753	-0.0036892488
139	0x3d868048	0.065674365
140	0x3eb3bd2a	0.35105258
141	0xbd7e869b	-0.06214009
142	0xbdee91ea	-0.11648925
143	0x3ec05c3a	0.37570363
144	0x3db344c9	0.08753354
145	0xbeb2cc82	-0.34921652
146	0x3e22988b	0.15878503
147	0x3e739315	0.23786576
148	0x3da63a2e	0.08116566
149	0xbe0821d5	-0.13294156
150	0xbd1c106b	-0.038101595
151	0xbd0b659b	-0.034032445
152	0x3e305da5	0.17223223
153	0xbd36f487	-0.044666793
154	0xbdd8063c	-0.10548064
155	0x3d991860	0.07475352
156	0x3e51b4fc	0.20479196
157	0xbe3ac7be	-0.18240258
158	0xbe8fc156	-0.2807719
159	0x3de6139e	0.112342104
160	0xbe76717d	-0.2406673
161	0x3ea3d55f	0.31998727
162	0xbea7d689	-0.32780865
163	0xbf1409d6	-0.5782751
164	0xbec6fc03	-0.38864145
165	0xbdb1afbd	-0.086760975
166	0x3e47896e	0.19486019
167	0xbee88098	-0.4541061
168	0xbf070f7e	-0.52758014
169	0x3dccf8fb	0.10008427
170	0x3dc84f16	0.097807094
171	0xbd7ff19d	-0.06248628
172	0xbd302d6f	-0.04301208
173	0xbe5e544f	-0.21711849
174	0x3eb1b605	0.34709182
175	0x3e73b29b	0.23798601
176	0x3e8a285e	0.26983923
177	0xbee92d3d	-0.45542327
178	0xbecce6f6	-0.4001996
179	0x3f34415a	0.7041222
180	0x3dc62849	0.096756525
181	0xbe45438e	-0.19264051
182	0x3ecbea4c	0.39827192
183	0x3d548edb	0.05189405
184	0xbec1cf76	-0.37853593
185	0x3da98568	0.08277398
186	0xbd33b1bc	-0.043870673
187	0xbf056498	-0.5210662
188	0x3c9015f3	0.017588591
189	0xbe471d07	-0.19444667
190	0xbe8a445c	-0.2700528
191	0xbe96ee9a	-0.29478914
192	0xbefdebca	-0.49593955
193	0x3e7dcdc7	0.24785529
194	0xbe1b2bfc	-0.15153497
195	0x3e33945a	0.1753706
196	0x3f5c1067	0.8596253
197	0x3f5fc4cf	0.8740968
198	0xbd187109	-0.037217174
199	0x3e2bba99	0.167704
200	0xbe5a7da9	-0.21336998
201	0x3e93a70c	0.28838384
202	0xbeb84bfb	-0.35995468
203	0x3eb04800	0.34429932
204	0x3e711a8b	0.23545282
205	0xbecfbd07	-0.40573904
206	0xbd612470	-0.05496639
207	0x3eb5ba05	0.35493484
208	0xbd0a708c	-0.03379874
209	0xbeee757c	-0.46574008
210	0xbeffbcde	-0.49948782
211	0x3e83e1e2	0.25758272
212	0x3eca0a45	0.3946096
213	0xbe0ff94e	-0.14059946
214	0x3f18637a	0.5952679
215	0xbeb3d3ab	-0.35122427
216	0xbf8d7ab5	-1.1053072
217	0x3f68bb65	0.9091094
218	0x3e9b3e53	0.30320987
219	0xbdbb5a4a	-0.09148081
220	0x3f18f2e6	0.59745634
221	0xbed041e4	-0.4067527
222	0xbf1cf2f4	-0.6130822
223	0xbe60d4f8	-0.21956241
224	0x3eb36b1b	0.35042652
225	0xbeebf564	-0.46085656
226	0xbf8ff96a	-1.124799
227	0x3e9975db	0.2997273
228	0xbf4d6a69	-0.80240494
229	0xbe66c7ca	-0.22537151
230	0xbd254a1f	-0.04035389
231	0xbe842e47	-0.25816557
232	0x3df2901b	0.11843892
233	0xbd98841b	-0.07447072
234	0x3e0cfdc3	0.13768677
235	0x3f4e6f04	0.80638146
236	0x3ef110d6	0.47083157
237	0xbf5ed13d	-0.8703802
238	0xbdf7d11c	-0.12100431
239	0x3cfcb30c	0.030847095
240	0x3ef377a4	0.47552216
241	0x3d1db611	0.03850371
242	0x3e677edc	0.22606987
243	0x3d0f3145	0.034959096
244	0x3f0c0a90	0.5470362
245	0x3ee74d3d	0.45176116
246	0x3ec8e6d6	0.39238614
247	0x3ed3d286	0.41371554
248	0x3f2c2af2	0.6725303
249	0x3ea85dae	0.32883972
250	0xbe62d748	-0.22152436
251	0x3e89b1aa	0.2689336
252	0xbf96ebdc	-1.1790729
253	0x3e85bbb1	0.2611976
254	0xbdb2f717	-0.08738535
255	0xbd13dba4	-0.036098137

network_body._body_endoder.seq_layers.0.bias f4 [128]
0	0x00000000	0.0
1	0x00000000	0.0
2	0x00000000	0.0
3	0x00000000	0.0
4	0x00000000	0.0
5	0x00000000	0.0
6	0x00000000	0.0
7	0x00000000	0.0
8	0x00000000	0.0
9	0x00000000	0.0
10	0x00000000	0.0
11	0x00000000	0.0
12	0x00000000	0.0
13	0x00000000	0.0
14	0x00000000	0.0
15	0x00000000	0.0
16	0x00000000	0.0
17	0x00000000	0.0
18	0x00000000	0.0
19	0x00000000	0.0
20	0x00000000	0.0
21	0x00000000	0.0
22	0x00000000	0.0
23	0x00000000	0.0
24	0x00000000	0.0
25	0x00000000	0.0
26	0x00000000	0.0
27	0x00000000	0.0
28	0x00000000	0.0
29	0x00000000	0.0
30	0x00000000	0.0
31	0x00000000	0.0
32	0x00000000	0.0
33	0x00000000	0.0
34	0x00000000	0.0
35	0x00000000	0.0
36	0x00000000	0.0
37	0x00000000	0.0
38	0x00000000	0.0
39	0x00000000	0.0
40	0x00000000	0.0
41	0x00000000	0.0
42	0x00000000	0.0
43	0x00000000	0.0
44	0x00000000	0.0
45	0x00000000	0.0
46	0x00000000	0.0
47	0x00000000	0.0
48	0x00000000	0.0
49	0x00000000	0.0
50	0x00000000	0.0
51	0x00000000	0.0
52	0x00000000	0.0
53	0x00000000	0.0
54	0x00000000	0.0
55	0x00000000	0.0
56	0x00000000	0.0
57	0x00000000	0.0
58	0x00000000	0.0
59	0x00000000	0.0
60	0x00000000	0.0
61	0x00000000	0.0
62	0x00000000	0.0
63	0x00000000	0.0
64	0x00000000	0.0
65	0x00000000	0.0
66	0x00000000	0.0
67	0x00000000	0.0
68	0x00000000	0.0
69	0x00000000	0.0
70	0x00000000	0.0
71	0x00000000	0.0
72	0x00000000	0.0
73	0x00000000	0.0
74	0x00000000	0.0
75	0x00000000	0.0
76	0x00000000	0.0
77	0x00000000	0.0
78	0x00000000	0.0
79	0x00000000	0.0
80	0x00000000	0.0
81	0x00000000	0.0
82	0x00000000	0.0
83	0x00000000	0.0
84	0x00000000	0.0
85	0x00000000	0.0
86	0x00000000	0.0
87	0x00000000	0.0
88	0x00000000	0.0
89	0x00000000	0.0
90	0x00000000	0.0
91	0x00000000	0.0
92	0x00000000	0.0
93	0x00000000	0.0
94	0x00000000	0.0
95	0x00000000	0.0
96	0x00000000	0.0
97	0x00000000	0.0
98	0x00000000	0.0
99	0x00000000	0.0
100	0x00000000	0.0
101	0x00000000	0.0
102	0x00000000	0.0
103	0x00000000	0.0
104	0x00000000	0.0
105	0x00000000	0.0
106	0x00000000	0.0
107	0x00000000	0.0
108	0x00000000	0.0
109	0x00000000	0.0
110	0x00000000	0.0
111	0x00000000	0.0
112	0x00000000	0.0
113	0x00000000	0.0
114	0x00000000	0.0
115	0x00000000	0.0
116	0x00000000	0.0
117	0x00000000	0.0
118	0x00000000	0.0
119	0x00000000	0.0
120	0x00000000	0.0
121	0x00000000	0.0
122	0x00000000	0.0
123	0x00000000	0.0
124	0x00000000	0.0
125	0x00000000	0.0
126	0x00000000	0.0
127	0x00000000	0.0

network_body._body_endoder.seq_layers.2.weight f4 [128, 128]
0	0x3d914e5c	0.07095024
1	0x3d7f1360	0.062274337
2	0x3df57b00	0.11986351
3	0xbd5b2cf0	-0.053509653
4	0x3cb9dd1b	0.02268844
5	0xbcf4dc6e	-0.029890265
6	0x3de3be40	0.11120272
7	0xbcdf423f	-0.027253268
8	0x3da3fd4a	0.080072954
9	0x3c69bb22	0.014265807
10	0x3cc1a513	0.023638284
11	0x3d552a49	0.05204228
12	0xbcb11642	-0.021617059
13	0x3e61b9eb	0.22043578
14	0xbb3a896f	-0.0028463264
15	0xbdcf03b0	-0.10108125
16	0x3d14a899	0.0362936
17	0x3da622f3	0.08112135
18	0x3d6f2a4e	0.058389954
19	0xbcfdbc3d	-0.030973548
20	0x3dd20903	0.10255625
21	0x3d7f4f51	0.0623315
22	0xbddebef9	-0.10876269
23	0x3dc7880c	0.09742746
24	0xbd6d70a8	-0.057968765
25	0x3e0c9b9d	0.13731237
26	0x3dc13bd6	0.09435241
27	0xbd76ceb0	-0.060255706
28	0xbd19548d	-0.03743415
29	0x3d56f929	0.05248371
30	0x3d86bc19	0.065788455
31	0x3d2d5d3f	0.042325255
32	0x3db17104	0.08664134
33	0xbe1e7bae	-0.15476868
34	0x3dfa27c1	0.12214614
35	0xbe02e0ad	-0.1278102
36	0xbd901726	-0.07035665
37	0x3c476c9e	0.012171892
38	0x3d6114e6	0.05495157
39	0xbcd5c249	-0.026093619
40	0xbd33a13e	-0.043854944
41	0x3e5070aa	0.20355478
42	0xbe96777a	-0.29388028
43	0xbda494f6	-0.080362245
44	0xbe04582c	-0.1292426
45	0xbd36fecd	-0.04467659
46	0xbd76edd8	-0.06028542
47	0x3c24e109	0.010063418
48	0x3d002907	0.031289127
49	0xbd8dca87	-0.06923395
50	0xbdd6dcba	-0.10491319
51	0xbd83ee5f	-0.0644195
52	0xbe05be29	-0.13060822
53	0xbcaacf3b	-0.020850768
54	0x3db2d070	0.087311625
55	0x3d85cc1b	0.06533071
56	0x3d70e4cc	0.058811948
57	0xbcdcd63a	-0.02695762
58	0x3dfa569b	0.1222355
59	0x3e081768	0.13290179
60	0xbd2b01c5	-0.041749734
61	0xbdc4ed6e	-0.096155986
62	0xbd8a9206	-0.06766133
63	0x3d1d8eed	0.038466383
64	0x3e10fd53	0.14159136
65	0x3d02835c	0.031863555
66	0xbd6e18ab	-0.058128994
67	0x3e43f21b	0.19135325
68	0xbc95c892	-0.018284116
69	0x3da92fdc	0.082610816
70	0x3dba2419	0.09088916
71	0xbc3d2113	-0.01154353
72	0xbbebbf72	-0.007194453
73	0x3d82aae1	0.06380249
74	0xbd999cd3	-0.07500615
75	0x3cd4ad67	0.02596159
76	0xbd66cee8	-0.056349665
77	0xbd958aa1	-0.07301832
78	0xbdefd161	-0.11709858
79	0xbdc25df0	-0.094905734
80	0xbc8e5d74	-0.017378546
81	0xbcabb002	-0.02095795
82	0x3ce0284a	0.027362961
83	0xbb86f358	-0.0041183643
84	0xbddfae89	-0.10921962
85	0x3d8e4ea4	0.06948593
86	0x3cd94474	0.026521899
87	0x3b44a4b7	0.0030005404
88	0xbe0482f2	-0.12940577
89	0x3d508816	0.05091103
90	0xbd4d5049	-0.050125394
91	0x3de47082	0.11154272
92	0x3e2ad108	0.16681302
93	0xbd0c9f55	-0.03433164
94	0x3dd14745	0.10218672
95	0xbd276686	-0.04086926
96	0x3be74dfd	0.0070588575
97	0x3db4deaa	0.08831532
98	0x3d234c9a	0.039867975
99	0x3caa5526	0.020792555
100	0x3d921ec4	0.07134774
101	0xbc1b9cf6	-0.009497872
102	0x3d971267	0.07376557
103	0x3da316aa	0.07963307
104	0x3db6daf7	0.08928483
105	0x3cff251f	0.03114563
106	0xbd0bfa4c	-0.03417425
107	0x3d6b5c60	0.057461143
108	0x3c8b80b0	0.017029136
109	0xbe4d7930	-0.2006576
110	0x3caa2980	0.020771742
111	0xbda493aa	-0.08035977
112	0xbd5b77e2	-0.053581126
113	0xbd12e880	-0.03586626
114	0x3c6cb85b	0.014448251
115	0xbb04b3e6	-0.002024883
116	0xbd9ad1a3	-0.07559516
117	0x3d9852d0	0.0743767
118	0xbda551f0	-0.08072269
119	0x3e64c227	0.22339688
120	0xbd2768a4	-0.040871277
121	0xbe21e4a5	-0.15809877
122	0x3cdbf95f	0.026852308
123	0x3b84b5c0	0.0040499866
124	0xbdf542ed	-0.11975656
125	0x3e143813	0.14474516
126	0x3c0d30f7	0.008617631
127	0x3d7c42ca	0.061587133
128	0xbc9df7cc	-0.019283198
129	0xbbd66ec4	-0.006543966
130	0x3dcfaa22	0.10139872
131	0x3da59db6	0.080867216
132	0x3e1272a5	0.14301546
133	0xbe0dd93c	-0.138524
134	0xbd135ec0	-0.035979033
135	0xbc896882	-0.016773466
136	0xbe0d017b	-0.13770096
137	0xbd17573f	-0.03694844
138	0x3d8e8510	0.069589734
139	0x3da0850c	0.07837877
140	0xbc1d839d	-0.009613899
141	0xbdf9065e	-0.121594176
142	0x3b24692a	0.0025087097
143	0xbc8976c0	-0.016780257
144	0x3b5496a2	0.0032438417
145	0x3d4bb395	0.04973181
146	0xbd075b33	-0.03304596
147	0xbd04d11a	-0.032425977
148	0xbd308022	-0.043090947
149	0x3dc3d06e	0.09561239
150	0xbd98283d	-0.0742955
151	0x3ce69865	0.02814884
152	0xbd054688	-0.032537967
153	0xb9d46ac8	-0.0004051535
154	0xbe2377a6	-0.15963611
155	0xbded0be7	-0.11574536
156	0x3d758825	0.05994429
157	0xbd2dda27	-0.042444374
158	0x3ad60b4a	0.0016330269
159	0xbe46e8d6	-0.19424757
160	0x3e199690	0.14998841
161	0x3bc26b14	0.005933175
162	0xbdd0d86a	-0.10197528
163	0xbc653362	-0.013989301
164	0xbd834179	-0.06408972
165	0xbe27e509	-0.16395964
166	0x3d8fed78	0.070277154
167	0x3e381bfe	0.17979428
168	0xbdebabbe	-0.115073666
169	0x3dfd8534	0.12378922
170	0xbe245ce2	-0.16051057
171	0x3dd7bd01	0.105340965
172	0x3da9f3f3	0.08298483
173	0xbc9fb34f	-0.01949468
174	0xbd71f8ec	-0.05907528
175	0xbd28f660	-0.041250587
176	0x3cf3e032	0.02976999
177	0xbdef9e04	-0.11700061
178	0x3e282561	0.16420509
179	0xbdbe08eb	-0.09279045
180	0x3dc3361c	0.09531805
181	0xbc91895f	-0.017765699
182	0x3d30505e	0.043045394
183	0x3d071815	0.03298195
184	0x3c3c2628	0.0114837065
185	0xbb66694a	-0.0035157972
186	0xbda68310	-0.08130467
187	0x3c4df42b	0.012570421
188	0xbdd04f34	-0.10171357
189	0x3e15f853	0.1464551
190	0xbdb1985c	-0.08671638
191	0x3dba171c	0.09086439
192	0xbd0436ee	-0.032278948
193	0x3dc54eb2	0.096341506
194	0xbda23994	-0.079211384
195	0xbca6e24b	-0.020371577
196	0xbd4811d1	-0.048845116
197	0xbb2bf783	-0.0026240058
198	0xbc1bbaad	-0.009504956
199	0x3c89b2f9	0.016808974
200	0xbdbb3f42	-0.09142925
201	0x3ba4fbc0	0.0050348938
202	0x3cdf57fc	0.027263634
203	0x3d85a9ce	0.06526528
204	0x3e08deea	0.13366285
205	0xbd1cb49f	-0.03825819
206	0xbda6ee6c	-0.08150944
207	0xbe2a3051	-0.16619994
208	0x3dfa8fb2	0.12234439
209	0xbe1059cb	-0.14096753
210	0xbc8f46b5	-0.01748977
211	0xbd91c1d5	-0.07117049
212	0x3d37ce90	0.044874728
213	0xbde9b6b4	-0.11411801
214	0x3dc7216c	0.097231716
215	0xbe07a2ac	-0.13245648
216	0x3d879691	0.06620515
217	0xbd08ea89	-0.033426795
218	0x3d7b1afa	0.061305024
219	0xbc2c2f4c	-0.010509323
220	0xbd9af82e	-0.07566868
221	0x3d0d1f05	0.03445341
222	0x3c4d5b47	0.012533969
223	0xbe04e51c	-0.12978023
224	0x3e01ff70	0.12695098
225	0x3dc6caf0	0.09706676
226	0xbdf637f3	-0.1202239
227	0xbda0ea99	-0.07857246
228	0x3a7e7f43	0.00097082945
229	0x3d4378b1	0.047722522
230	0xbdb1e712	-0.08686651
231	0x3d82c7e4	0.06385782
232	0xbd3d2f73	-0.04618783
233	0xbd15d6fa	-0.03658197
234	0x3db42ad6	0.08797233
235	0xbd23a2bb	-0.039950114
236	0x3d4b4ba3	0.04963268
237	0x3d0fd3e6	0.03511419
238	0xbbfd3d65	-0.007728266
239	0xbdf2c47b	-0.11853882
240	0xbce59272	-0.028023932
241	0xbdf1ab7d	-0.11800287
242	0xbb7ed0f1	-0.0038881863
243	0xbd4795cc	-0.04872684
244	0x3d11951b	0.03554259
245	0xbdc06c47	-0.09395652
246	0xbd693aed	-0.05694096
247	0xbe20db1c	-0.15708584
248	0xbbc2c65a	-0.0059440555
249	0xbd271c18	-0.040798277
250	0xbd13b485	-0.03606083
251	0x3d14f8fa	0.036370255
252	0x3de1a94f	0.11018621
253	0x3d114dc3	0.03547455
254	0x3d4934b1	0.049122516
255	0x3d6da8a6	0.058022164

network_body._body_endoder.seq_layers.2.bias f4 [128]
0	0x00000000	0.0
1	0x00000000	0.0
2	0x00000000	0.0
3	0x00000000	0.0
4	0x00000000	0.0
5	0x00000000	0.0
6	0x00000000	0.0
7	0x00000000	0.0
8	0x00000000	0.0
9	0x00000000	0.0
10	0x00000000	0.0
11	0x00000000	0.0
12	0x00000000	0.0
13	0x00000000	0.0
14	0x00000000	0.0
15	0x00000000	0.0
16	0x00000000	0.0
17	0x00000000	0.0
18	0x00000000	0.0
19	0x00000000	0.0
20	0x00000000	0.0
21	0x00000000	0.0
22	0x00000000	0.0
23	0x00000000	0.0
24	0x00000000	0.0
25	0x00000000	0.0
26	0x00000000	0.0
27	0x00000000	0.0
28	0x00000000	0.0
29	0x00000000	0.0
30	0x00000000	0.0
31	0x00000000	0.0
32	0x00000000	0.0
33	0x00000000	0.0
34	0x00000000	0.0
35	0x00000000	0.0
36	0x00000000	0.0
37	0x00000000	0.0
38	0x00000000	0.0
39	0x00000000	0.0
40	0x00000000	0.0
41	0x00000000	0.0
42	0x00000000	0.0
43	0x00000000	0.0
44	0x00000000	0.0
45	0x00000000	0.0
46	0x00000000	0.0
47	0x00000000	0.0
48	0x00000000	0.0
49	0x00000000	0.0
50	0x00000000	0.0
51	0x00000000	0.0
52	0x00000000	0.0
53	0x00000000	0.0
54	0x00000000	0.0
55	0x00000000	0.0
56	0x00000000	0.0
57	0x00000000	0.0
58	0x00000000	0.0
59	0x00000000	0.0
60	0x00000000	0.0
61	0x00000000	0.0
62	0x00000000	0.0
63	0x00000000	0.0
64	0x00000000	0.0
65	0x00000000	0.0
66	0x00000000	0.0
67	0x00000000	0.0
68	0x00000000	0.0
69	0x00000000	0.0
70	0x00000000	0.0
71	0x00000000	0.0
72	0x00000000	0.0
73	0x00000000	0.0
74	0x00000000	0.0
75	0x00000000	0.0
76	0x00000000	0.0
77	0x00000000	0.0
78	0x00000000	0.0
79	0x00000000	0.0
80	0x00000000	0.0
81	0x00000000	0.0
82	0x00000000	0.0
83	0x00000000	0.0
84	0x00000000	0.0
85	0x00000000	0.0
86	0x00000000	0.0
87	0x00000000	0.0
88	0x00000000	0.0
89	0x00000000	0.0
90	0x00000000	0.0
91	0x00000000	0.0
92	0x00000000	0.0
93	0x00000000	0.0
94	0x00000000	0.0
95	0x00000000	0.0
96	0x00000000	0.0
97	0x00000000	0.0
98	0x00000000	0.0
99	0x00000000	0.0
100	0x00000000	0.0
101	0x00000000	0.0
102	0x00000000	0.0
103	0x00000000	0.0
104	0x00000000	0.0
105	0x00000000	0.0
106	0x00000000	0.0
107	0x00000000	0.0
108	0x00000000	0.0
109	0x00000000	0.0
110	0x00000000	0.0
111	0x00000000	0.0
112	0x00000000	0.0
113	0x00000000	0.0
114	0x00000000	0.0
115	0x00000000	0.0
116	0x00000000	0.0
117	0x00000000	0.0
118	0x00000000	0.0
119	0x00000000	0.0
120	0x00000000	0.0
121	0x00000000	0.0
122	0x00000000	0.0
123	0x00000000	0.0
124	0x00000000	0.0
125	0x00000000	0.0
126	0x00000000	0.0
127	0x00000000	0.0

action_model._continuous_distribution.log_sigma f4 [1, 2]
0	0x00000000	0.0
1	0x00000000	0.0

action_model._continuous_distribution.mu.weight f4 [2, 128]
0	0xbce38d33	-0.02777729
1	0xbcad8725	-0.021182606
2	0xbd2c3518	-0.04204282
3	0xbcb5b253	-0.022179758
4	0xbb4d008d	-0.0031280846
5	0xbca0fa6c	-0.01965066
6	0xbd2d1bcf	-0.04226285
7	0x3d0138ca	0.0315483
8	0xbccc8ca2	-0.024969403
9	0x3c4c0f5b	0.012454833
10	0x3c9e5afa	0.01933049
11	0x3ba5dcc3	0.0050617172
12	0xbc1451bb	-0.009052689
13	0x3c240f8a	0.01001347
14	0x3cf4d765	0.029887864
15	0xbc916118	-0.017746493
16	0xbc6fbd0f	-0.014632477
17	0x3c201650	0.009770945
18	0xbc851f7f	-0.01625037
19	0xbc78f522	-0.015195163
20	0xbbff4237	-0.007789876
21	0x3c23945e	0.009984104
22	0x3cf73920	0.030178607
23	0xbc295685	-0.010335569
24	0x3b77026f	0.003769066
25	0xbd1122bf	-0.035433527
26	0xbc88c96e	-0.016697612
27	0x3c6ef635	0.0145850675
28	0x38c039fb	9.166073e-05
29	0xbbfd4e33	-0.0077302693
30	0x3d2c4c33	0.042064857
31	0x3c0362ef	0.008019193
32	0x3c347859	0.011015021
33	0xbbd56047	-0.0065117213
34	0x3a8a750f	0.0010563451
35	0xbc91292b	-0.017719826
36	0x3b11c612	0.0022243303
37	0xbc19d796	-0.009389779
38	0x3aecabdb	0.0018056588
39	0xbca80e32	-0.020514581
40	0x3c96938d	0.018380905
41	0xbbba7294	-0.0056899283
42	0xbc0b0360	-0.008484691
43	0xbbb35cc7	-0.0054737064
44	0x3cd59203	0.0260706
45	0xbb26f21d	-0.00254739
46	0x3aa23167	0.0012374342
47	0xbc8a47f1	-0.016880007
48	0x3d0207cd	0.03174572
49	0xbbad9a5a	-0.005297941
50	0x3bbdaf51	0.0057887216
51	0x3c94b5af	0.01815304
52	0xbc75a7e8	-0.014993645
53	0xbc28ba28	-0.010298289
54	0xbb94cbe9	-0.0045409095
55	0xbc8daab8	-0.01729332
56	0x3bddbb5b	0.0067667193
57	0xbcd6184b	-0.02613463
58	0x3c1969e4	0.009363625
59	0xbcbb5ac7	-0.022870434
60	0xbb6967a5	-0.0035614755
61	0xbbf564eb	-0.007488837
62	0x3ca6841f	0.020326672
63	0x3bda34df	0.0066591348
64	0x3bc72b61	0.006078169
65	0xbc454144	-0.012039486
66	0x3d434fef	0.047683652
67	0x3d53da25	0.05172171
68	0x3ccfa342	0.025346402
69	0xbbd9acfa	-0.006642935
70	0x3c2062d0	0.009789184
71	0x3c8cbc46	0.01717962
72	0xbc961c11	-0.01832393
73	0xbb8f9f5a	-0.00438301
74	0xbc44d844	-0.012014452
75	0xbca531ef	-0.020165412
76	0xba5b6295	-0.0008368877
77	0xbcc4bb0a	-0.024014968
78	0x3b86a458	0.004108947
79	0x3c839d1e	0.01606613
80	0x3caf68e4	0.02141232
81	0xbc8720bb	-0.0164951
82	0x3baab0bf	0.005209058
83	0x3c38c5c7	0.011277623
84	0xbc748b5f	-0.014925807
85	0xbc8db0da	-0.017296243
86	0x3c15b503	0.009137395
87	0xbc4ea9a8	-0.012613691
88	0x3c1cf613	0.009580153
89	0xbd18489e	-0.03717863
90	0x3c3c7cb5	0.011504342
91	0x3c38d131	0.011280344
92	0xbc90c257	-0.017670793
93	0xbc3a5227	-0.011372126
94	0xbbc38365	-0.005966591
95	0x3c34bb11	0.011030928
96	0x3c8bb9c4	0.017056353
97	0xbc97b211	-0.018517526
98	0x3c6ce328	0.014458455
99	0x3b23e2c9	0.0025007
100	0x3cc9014f	0.024536757
101	0xbba33b6a	-0.004981448
102	0xbc0604c5	-0.008179848
103	0x3c1e628b	0.009667049
104	0xbc21333b	-0.009838874
105	0xbc1ca27b	-0.009560223
106	0x3c03b260	0.008038133
107	0x3c9adea9	0.018905
108	0xbbdc80ef	-0.0067292373
109	0x3bcdea5a	0.0062840404
110	0x3c9446e6	0.018100213
111	0xbcb6f4db	-0.022333553
112	0xbcb2dcca	-0.021833796
113	0x3c87d35f	0.016580282
114	0x3c955eca	0.018233676
115	0xbcc08a5e	-0.023503479
116	0xbcc3145d	-0.02381342
117	0xbce95547	-0.028483046
118	0x3ac177ca	0.0014760431
119	0xbcc938d7	-0.024563236
120	0x3b8ff8a4	0.004393654
121	0x3a0c3c98	0.00053496053
122	0xbb7e4b80	-0.0038802326
123	0x3b75403f	0.0037422327
124	0x3ce792db	0.028268268
125	0x3c4d3bea	0.012526492
126	0xbc91ca55	-0.017796675
127	0xbb389f4d	-0.0028171123
128	0xbc3362ec	-0.010948878
129	0x3bdc6435	0.006725813
130	0xbc44c1d8	-0.012009107
131	0xbb1b1bbf	-0.002366766
132	0x3b31a3d2	0.00271057
133	0xbbb89953	-0.005633512
134	0xba85df93	-0.0010213725
135	0x3c25365f	0.010083764
136	0xbc8ee35d	-0.0174424
137	0xbc816208	-0.015793815
138	0x3bf85397	0.007578324
139	0xbcebe213	-0.028794324
140	0xbbc1dc57	-0.005916159
141	0x3c824ce2	0.015905801
142	0xbb18335d	-0.0023223974
143	0x3c6c435b	0.014420356
144	0x3acc5289	0.0015588562
145	0xbd063527	-0.032765534
146	0x3aa6fefe	0.0012740789
147	0x3d53f2c3	0.051745187
148	0x3cb8a1e3	0.022538131
149	0x3c3a8cb5	0.011386086
150	0x3cd763aa	0.02629264
151	0xbbf93215	-0.007604847
152	0xbc58111d	-0.013187674
153	0xbcc6bf15	-0.024261037
154	0xbbb9b132	-0.0056668753
155	0x3b208c15	0.0024497558
156	0x3cedda1b	0.029034665
157	0x3cc6dda4	0.024275608
158	0xbcaa1ca6	-0.020765614
159	0x3d237407	0.039905574
160	0xbc83399f	-0.016018687
161	0xbb94c37c	-0.004539905
162	0xbc64ca3b	-0.013964231
163	0xbb95aa90	-0.004567452
164	0xbc89b20b	-0.01680853
165	0xbc887310	-0.016656429
166	0xbb95ab52	-0.004567542
167	0xbc4ec775	-0.012620796
168	0xbbb753d5	-0.0055947104
169	0xbd3b2c6a	-0.045696653
170	0xbcf6b04b	-0.03011336
171	0xbc6466c7	-0.01394052
172	0x3ccdbaeb	0.025113543
173	0x3b3f7b61	0.0029217827
174	0x3a0301cf	0.0004997523
175	0xbc4d60cd	-0.012535286
176	0x3c189d64	0.009314869
177	0xbc7b6f03	-0.0153462915
178	0x3b63909b	0.0034723643
179	0x3c10f21e	0.008846788
180	0xbc1a88d3	-0.0094320355
181	0xbcdc88d3	-0.026920712
182	0xbc6ea218	-0.014565013
183	0xbb0a4e06	-0.0021103634
184	0xbb0f9e6d	-0.0021914497
185	0xbcb7cba9	-0.02243598
186	0xbcc61268	-0.024178699
187	0xbd2956fc	-0.04134272
188	0x3c82ecba	0.01598202
189	0xbc4c17ab	-0.012456815
190	0xbc498669	-0.012300112
191	0xbabcb8f6	-0.0014398384
192	0xbc8d61a7	-0.017258478
193	0xbcd47170	-0.025932997
194	0x3bacfad4	0.0052789245
195	0xbb886105	-0.0041619563
196	0x3a67d378	0.0008843462
197	0x3c9ade1b	0.018904736
198	0xbc0c35c7	-0.008557743
199	0xbc027223	-0.007961783
200	0xbca89226	-0.020577502
201	0x3c893b9b	0.016752055
202	0xbc9dfbf4	-0.01928518
203	0xbd1879f3	-0.037225675
204	0xbb83386b	-0.0040045283
205	0x3c2fb2fb	0.010723825
206	0x3d17d917	0.037072267
207	0xbca87683	-0.020564323
208	0x3d27b49e	0.040943734
209	0x3ca28f18	0.019843623
210	0x3b13818c	0.0022507636
211	0x3d1b929f	0.037981626
212	0x3b907923	0.004408972
213	0xbbe22300	-0.006901145
214	0x3c9f1c57	0.019422693
215	0xbc1221e2	-0.008919211
216	0x3c8ab3dd	0.016931469
217	0xba0754b5	-0.00051624636
218	0x3cd65c02	0.02616692
219	0x39315469	0.0001691148
220	0xbcc48bc8	-0.023992434
221	0x38b07e70	8.415885e-05
222	0xbbcca660	-0.0062454194
223	0x3b9da425	0.0048108273
224	0x3c9b2988	0.018940702
225	0xbd0c63a1	-0.0342747
226	0x3d04bd07	0.032406833
227	0xbc40725b	-0.0117460145
228	0xbc803d9f	-0.015654383
229	0x3cf95e32	0.030440424
230	0xbc01a416	-0.007912656
231	0xbb0983d1	-0.002098311
232	0xbcc7e56e	-0.024401393
233	0xbc4da135	-0.012550642
234	0x3d24c97e	0.04023122
235	0xbc9a07fb	-0.018802634
236	0x3b877768	0.0041341074
237	0xbcf1845b	-0.029482057
238	0xbc6fefaa	-0.014644543
239	0xbc8f2847	-0.01747526
240	0x3bc94988	0.006142799
241	0xbc652ec3	-0.0139882
242	0xbc168590	-0.009187117
243	0xbd52e26d	-0.051485468
244	0x3d290e51	0.04127342
245	0xbba047dd	-0.0048913793
246	0x3cd84798	0.026401326
247	0x3c930c5a	0.017950226
248	0xbb713a1d	-0.003680832
249	0xba7a6c5b	-0.00095528894
250	0xbd190d77	-0.037366357
251	0x3b04e24c	0.0020276485
252	0xbc62a240	-0.013832629
253	0x3c1fd176	0.009754529
254	0xbcc25516	-0.023722213
255	0xbd2e1e6d	-0.042509485

action_model._continuous_distribution.mu.bias f4 [2]
0	0x00000000	0.0
1	0x00000000	0.0

network_body._body_endoder.seq_layers.0.weight f4 [128, 6]
0	0x3edc6108	0.4304278
1	0xbd3a806f	-0.04553264
2	0xbd5c2b92	-0.05375249
3	0x3e661941	0.22470571
4	0xbe55be67	-0.20873414
5	0x3e24dc68	0.16099703
6	0xbf1b5a21	-0.606844
7	0x3e9274a7	0.28604624
8	0xbd933e80	-0.07189655
9	0x3e53e566	0.20692977
10	0xbf28f113	-0.6599285
11	0xbf8a0bf8	-1.0784903
12	0x3f2b51ca	0.66921675
13	0xbe0b4b59	-0.13602962
14	0xbeabf2e4	-0.33583748
15	0x3e41c528	0.18922865
16	0xbe9b9ed0	-0.30394602
17	0x3f08319d	0.53200704
18	0xbec9ea7d	-0.39436713
19	0xbd9485f1	-0.0725211
20	0xbe511372	-0.20417574
21	0x3c3bb179	0.011455887
22	0x3ebb0e10	0.36534166
23	0xbf776728	-0.9664178
24	0x3dae0226	0.084965035
25	0xbf23eab6	-0.64030015
26	0xbdcbffe0	-0.09960914
27	0xbe869390	-0.26284456
28	0x3f384ab7	0.71989006
29	0x3e227889	0.15866293
30	0xbed07654	-0.40715277
31	0x3e931146	0.28724116
32	0xbe927108	-0.2860186
33	0xbc9f1f47	-0.019424094
34	0x3da83695	0.08213536
35	0xbd1b4409	-0.03790668
36	0xbed02a37	-0.40657207
37	0x3f3053dc	0.6887796
38	0xbe1cc6e5	-0.15310247
39	0xbf2bdd8b	-0.6713492
40	0x3f1ea9a6	0.6197761
41	0x3d9c6f52	0.0763842
42	0x3e24bd9b	0.16087954
43	0xbdcf9547	-0.10135894
44	0x3e189bff	0.14903258
45	0xbf1acac5	-0.6046565
46	0x3d6e70d1	0.05821306
47	0x3eb7e2c8	0.35915208
48	0x3e13b076	0.14422783
49	0xbe892939	-0.26789263
50	0xbe07eba2	-0.1327348
51	0xbf669d82	-0.9008409
52	0x3eeef942	0.46674544
53	0x3e850fa6	0.259885
54	0xbf180ded	-0.5939625
55	0xbf4b654c	-0.7945144
56	0x3e48db81	0.19614984
57	0xbf3b89a0	-0.73256874
58	0x3d2fbadc	0.042902812
59	0xbe7950c5	-0.24347217
60	0x3d285cc8	0.041104108
61	0x3ec2c4a3	0.38040647
62	0x3e053daa	0.13011804
63	0x3f340871	0.7032538
64	0x3d9104f1	0.070810206
65	0xbcb8ff5b	-0.0225827
66	0x3e8566a0	0.2605486
67	0x3d811f2c	0.06304774
68	0xbf2ac35a	-0.6670433
69	0xbec3b822	-0.3822642
70	0xbd6c04ae	-0.05762165
71	0xbe04c897	-0.12967144
72	0x3dca10af	0.098664634
73	0xbea2f2be	-0.31825823
74	0x3e05ec20	0.13078356
75	0x3d09525f	0.03352582
76	0xbe073288	-0.1320287
77	0xbe79bdca	-0.24388805
78	0xbe05df7b	-0.13073532
79	0xbe7eea90	-0.24894166
80	0xbebb08ec	-0.36530244
81	0xbc0ce510	-0.008599535
82	0xbedd6161	-0.43238357
83	0xbdf4f912	-0.11961569
84	0xbf10e528	-0.56599665
85	0x3edf274f	0.43584678
86	0xbf20c1e9	-0.62795883
87	0x3ebb542b	0.36587653
88	0xbdf70239	-0.12060971
89	0xbe00eee3	-0.12591128
90	0x3dbd481d	0.0924227
91	0xbdb7701b	-0.08956929
92	0xbe5db9d6	-0.21652922
93	0xbebaf1dc	-0.3651265
94	0x3fa5cf93	1.2953972
95	0xbec7bea8	-0.39012647
96	0xbe4dffcf	-0.20117114
97	0x3e8bc4d5	0.27298608
98	0xbea973b0	-0.33096075
99	0x3e7f04f0	0.24904227
100	0x3eb5fde5	0.3554527
101	0x3f5c2e71	0.86008364
102	0xbe8df512	-0.27726036
103	0x3df77922	0.12083651
104	0x3d9fe99c	0.07808229
105	0xb8bf435e	-9.120138e-05
106	0xbef408f0	-0.4766307
107	0x3f552585	0.83260375
108	0x3ead925f	0.33900735
109	0x3ed8955f	0.4230146
110	0xbeff731a	-0.49892503
111	0xbec2120c	-0.37904394
112	0x3e7067e4	0.23477131
113	0xbe5bf53c	-0.21480268
114	0xbe8a33e0	-0.26992702
115	0xbf62739e	-0.8845767
116	0x3eb4e59c	0.35331428
117	0x3f6e9d66	0.9320892
118	0xbd27d348	-0.040972978
119	0xbece50df	-0.40296075
120	0x3cd7a1d5	0.026322285
121	0x3cf0089f	0.029300986
122	0xbd6bd561	-0.05757654
123	0xbee35930	-0.44403982
124	0xbe38c88f	-0.18045257
125	0xbf2aec61	-0.66766936
126	0xbe7bb493	-0.24580602
127	0x3d1fd234	0.039018825
128	0x3f20d273	0.6282112
129	0x3f138fa3	0.5764105
130	0xbe902021	-0.28149512
131	0xbd674597	-0.05646285
132	0x3e4ec74c	0.20193213
133	0xbda53ce6	-0.08068256
134	0xbeb8ffbb	-0.36132607
135	0xbe92a336	-0.28640145
136	0x3d876cdc	0.0661256
137	0xbe0a8592	-0.13527516
138	0xbbde1d63	-0.0067784055
139	0xbf74f686	-0.95688665
140	0xbee1d69b	-0.44109043
141	0xbd47b752	-0.048758812
142	0x3dcbf7bb	0.0995936
143	0xbd6efac0	-0.058344603
144	0xbef7d4b0	-0.48404455
145	0xbe40aa92	-0.18815067
146	0x3eb0c4ea	0.34525234
147	0xbedcfd1b	-0.43161854
148	0xbe5c396f	-0.21506284
149	0x3ee5b925	0.44867817
150	0x3ecd5e12	0.40110832
151	0x3ec8d7da	0.39227182
152	0xbdcfda9c	-0.10149118
153	0xbf111222	-0.56668293
154	0x3f3ee2bd	0.74564725
155	0x3df2401b	0.118286334
156	0x3e5d229d	0.21595235
157	0x3ea435ae	0.32072204
158	0x3e9e4896	0.30914754
159	0xbe7406fc	-0.2383079
160	0xbeb7285a	-0.35772973
161	0x3dbd5297	0.092442684
162	0x3f0a8661	0.54111296
163	0xbefd2398	-0.49441218
164	0xbe58eec0	-0.21184826
165	0x3e978673	0.29594764
166	0x3b934e31	0.004495405
167	0x3f0ef73c	0.55846
168	0xbec67c7b	-0.38766846
169	0xbe3191c8	-0.17340767
170	0x3e4f8f84	0.2026959
171	0x3e669a8e	0.22519895
172	0xbfbae3d9	-1.4600784
173	0xbda3afad	-0.07992492
174	0x3da66914	0.08125511
175	0x3e25f9c1	0.16208555
176	0xbef0272d	-0.4690489
177	0x3f1e2d3a	0.6178776
178	0x3f2d357a	0.67659724
179	0x3ee756ae	0.4518332
180	0x3dd3835b	0.103277884
181	0x3e94d69c	0.29069984
182	0xbe2deeb6	-0.16985592
183	0xbe212d26	-0.15739879
184	0xbecf9e35	-0.4055039
185	0xbf6bacc4	-0.92060494
186	0x3f1eae83	0.61985034
187	0x3dca3d14	0.09874931
188	0xbf77a90f	-0.9674234
189	0x3f0978dd	0.5370005
190	0xbecbc560	-0.39799023
191	0xbf5a01e6	-0.85159147
192	0x3f1bfed7	0.6093573
193	0xbe9df9bf	-0.30854604
194	0x3e6fd5d9	0.2342142
195	0x3efc5939	0.4928682
196	0xbdad12fd	-0.08450887
197	0xbd89e821	-0.06733728
198	0x3e2063c0	0.15663052
199	0xbe53dddb	-0.206901
200	0x3e5e3d49	0.21703066
201	0x3db6f4c3	0.08933403
202	0xbdcdd77f	-0.10050868
203	0x3ed5d67e	0.41765207
204	0xbeb5ec4e	-0.3553185
205	0xbeb4adc5	-0.35288826
206	0xbec805d1	-0.39066938
207	0x3d98d550	0.07462561
208	0xbe8dea7b	-0.27717957
209	0x3e7b37ba	0.24532977
210	0xbe69b24a	-0.22821918
211	0xbdb4b989	-0.088244505
212	0xbd209f05	-0.039214153
213	0x3d6dcde9	0.0580577
214	0xbe76aab6	-0.24088559
215	0x3ec0c271	0.37648347
216	0xbecdbaaf	-0.4018149
217	0x3ee61616	0.44938725
218	0x3de2aa57	0.11067646
219	0xbefb04ab	-0.49027
220	0x3ed5211f	0.41626832
221	0xbe836087	-0.25659582
222	0x3f2e6d7a	0.681358
223	0xbdfd6b99	-0.12374038
224	0xbe97c44a	-0.29641944
225	0xbe30ea8f	-0.17276977
226	0xbda1e4fb	-0.07905003
227	0xbac3f363	-0.0014949854
228	0xbea11815	-0.31463686
229	0x3f3335c9	0.70003945
230	0xbf0829a2	-0.53188527
231	0xbda88ca3	-0.08229949
232	0x3e73ad99	0.23796691
233	0x3e18ec22	0.14933828
234	0x3e6c6349	0.2308475
235	0x3ed15837	0.40887615
236	0x3e428506	0.18996057
237	0xbf170cef	-0.5900411
238	0x3d5556a3	0.052084576
239	0x3e36331c	0.17792934
240	0xbdb5b573	-0.08872499
241	0xbcc00e7d	-0.023444409
242	0x3f2c7078	0.67359114
243	0xbeb39405	-0.35073867
244	0x3e9d7ee6	0.30760878
245	0xbd05ece2	-0.032696612
246	0x3d37a3e7	0.044834044
247	0x3e3359a8	0.1751467
248	0xbe9d621d	-0.30738917
249	0xbca62875	-0.020282963
250	0x3ea34d09	0.3189471
251	0xbe410781	-0.18850519
252	0xbe0a1280	-0.1348362
253	0xbd32c679	-0.04364631
254	0x3dd8bd69	0.10583002
255	0xbea4054d	-0.32035294

network_body._body_endoder.seq_layers.0.bias f4 [128]
0	0x00000000	0.0
1	0x00000000	0.0
2	0x00000000	0.0
3	0x00000000	0.0
4	0x00000000	0.0
5	0x00000000	0.0
6	0x00000000	0.0
7	0x00000000	0.0
8	0x00000000	0.0
9	0x00000000	0.0
10	0x00000000	0.0
11	0x00000000	0.0
12	0x00000000	0.0
13	0x00000000	0.0
14	0x00000000	0.0
15	0x00000000	0.0
16	0x00000000	0.0
17	0x00000000	0.0
18	0x00000000	0.0
19	0x00000000	0.0
20	0x00000000	0.0
21	0x00000000	0.0
22	0x00000000	0.0
23	0x00000000	0.0
24	0x00000000	0.0
25	0x00000000	0.0
26	0x00000000	0.0
27	0x00000000	0.0
28	0x00000000	0.0
29	0x00000000	0.0
30	0x00000000	0.0
31	0x00000000	0.0
32	0x00000000	0.0
33	0x00000000	0.0
34	0x00000000	0.0
35	0x00000000	0.0
36	0x00000000	0.0
37	0x00000000	0.0
38	0x00000000	0.0
39	0x00000000	0.0
40	0x00000000	0.0
41	0x00000000	0.0
42	0x00000000	0.0
43	0x00000000	0.0
44	0x00000000	0.0
45	0x00000000	0.0
46	0x00000000	0.0
47	0x00000000	0.0
48	0x00000000	0.0
49	0x00000000	0.0
50	0x00000000	0.0
51	0x00000000	0.0
52	0x00000000	0.0
53	0x00000000	0.0
54	0x00000000	0.0
55	0x00000000	0.0
56	0x00000000	0.0
57	0x00000000	0.0
58	0x00000000	0.0
59	0x00000000	0.0
60	0x00000000	0.0
61	0x00000000	0.0
62	0x00000000	0.0
63	0x00000000	0.0
64	0x00000000	0.0
65	0x00000000	0.0
66	0x00000000	0.0
67	0x00000000	0.0
68	0x00000000	0.0
69	0x00000000	0.0
70	0x00000000	0.0
71	0x00000000	0.0
72	0x00000000	0.0
73	0x00000000	0.0
74	0x00000000	0.0
75	0x00000000	0.0
76	0x00000000	0.0
77	0x00000000	0.0
78	0x00000000	0.0
79	0x00000000	0.0
80	0x00000000	0.0
81	0x00000000	0.0
82	0x00000000	0.0
83	0x00000000	0.0
84	0x00000000	0.0
85	0x00000000	0.0
86	0x00000000	0.0
87	0x00000000	0.0
88	0x00000000	0.0
89	0x00000000	0.0
90	0x00000000	0.0
91	0x00000000	0.0
92	0x00000000	0.0
93	0x00000000	0.0
94	0x00000000	0.0
95	0x00000000	0.0
96	0x00000000	0.0
97	0x00000000	0.0
98	0x00000000	0.0
99	0x00000000	0.0
100	0x00000000	0.0
101	0x00000000	0.0
102	0x00000000	0.0
103	0x00000000	0.0
104	0x00000000	0.0
105	0x00000000	0.0
106	0x00000000	0.0
107	0x00000000	0.0
108	0x00000000	0.0
109	0x00000000	0.0
110	0x00000000	0.0
111	0x00000000	0.0
112	0x00000000	0.0
113	0x00000000	0.0
114	0x00000000	0.0
115	0x00000000	0.0
116	0x00000000	0.0
117	0x00000000	0.0
118	0x00000000	0.0
119	0x00000000	0.0
120	0x00000000	0.0
121	0x00000000	0.0
122	0x00000000	0.0
123	0x00000000	0.0
124	0x00000000	0.0
125	0x00000000	0.0
126	0x00000000	0.0
127	0x00000000	0.0

network_body._body_endoder.seq_layers.2.weight f4 [128, 128]
0	0x3d676ef6	0.056502305
1	0xbd38109d	-0.04493772
2	0xbda579e1	-0.08079887
3	0xbe5a8d4c	-0.21342963
4	0x3e4b18e3	0.19833712
5	0x3e43ca9a	0.19120255
6	0xbcca7191	-0.024712356
7	0x3cc3d2f3	0.0239043
8	0xbdb15361	-0.086584814
9	0x3e05384d	0.13009758
10	0x3dbf4fbc	0.0934138
11	0xbd417c89	-0.047237907
12	0xbda151b1	-0.078769095
13	0xbdbfb23d	-0.09360168
14	0x3d1f2954	0.038857773
15	0xbcab1793	-0.020885265
16	0x3d46780c	0.04845433
17	0x3ca5af66	0.020225238
18	0x3981a086	0.00024724397
19	0x3e01b850	0.12667966
20	0x3d29cfc4	0.041457906
21	0x3c0ca78e	0.00858487
22	0x3d19ec01	0.037578586
23	0xbd300326	-0.042971753
24	0xbe076d38	-0.13225257
25	0x3d664fed	0.056228567
26	0x3bbbb8ca	0.0057288157
27	0xbd8736ba	-0.06602235
28	0xbd92bcd8	-0.07164925
29	0x3db3c498	0.08777732
30	0x3e665f05	0.22497185
31	0x3daa37fd	0.0831146
32	0xbe255ca3	-0.1614862
33	0x3cc1d918	0.023663089
34	0x3c1ba33a	0.009499365
35	0x3d078f63	0.03309573
36	0xbe286a12	-0.16446713
37	0x3d43f938	0.047845095
38	0x3d07dd2c	0.03316991
39	0x3c4855d3	0.012227493
40	0x3d389784	0.04506637
41	0xbcbcaabc	-0.023030631
42	0xbda0bc23	-0.07848384
43	0xbdb4b7e9	-0.088241406
44	0xbc4ebc9f	-0.012618213
45	0xbd449c78	-0.048000783
46	0xbd44d375	-0.048053224
47	0xbd9808da	-0.07423563
48	0xbbcf33b7	-0.0063233036
49	0xbd2641fc	-0.04059027
50	0xbd90bbee	-0.07067095
51	0x3a514f7c	0.00079845614
52	0xbbc694b2	-0.0060602063
53	0xbd96f265	-0.07370452
54	0x3d3336a5	0.043753285
55	0xbbf697cf	-0.007525421
56	0x3d3e33c1	0.046436075
57	0xbd0264b9	-0.031834338
58	0xbd10eadb	-0.035380226
59	0xbd695c49	-0.056972776
60	0x3d7c3250	0.06157142
61	0x3d80430d	0.06262789
62	0x3e0c1d9d	0.13683172
63	0x3d73c6fa	0.05951593
64	0xbcda3591	-0.02663687
65	0xbcfca127	-0.030838562
66	0x3d1f3082	0.03886462
67	0xbd1f8571	-0.03894562
68	0x3d8837d6	0.06651275
69	0x3d4d3ab8	0.050104827
70	0xbdfe6dc5	-0.124232806
71	0x3de50e47	0.11184364
72	0xbdb4664e	-0.088085756
73	0xbdff6fcf	-0.12472498
74	0xbd846c43	-0.06465962
75	0x3d47988d	0.048729468
76	0x3e2bfd94	0.16795951
77	0x3dc4f3fe	0.0961685
78	0x3e11a92e	0.14224693
79	0xbce38a19	-0.027775811
80	0xbdeee84a	-0.116653994
81	0x3d97f11f	0.07419037
82	0xbd8ac039	-0.06774945
83	0x3d0ae36c	0.033908293
84	0x3d75c0ea	0.05999843
85	0xbc6809f1	-0.0141625265
86	0xbe1216d2	-0.14266518
87	0xbe42f8fb	-0.19040291
88	0xbdbfd7ab	-0.09367307
89	0xbda9583d	-0.08268783
90	0x3e01c640	0.12673283
91	0xbd97ea66	-0.07417755
92	0x3debbe05	0.11510853
93	0x3d838f9a	0.06423874
94	0x3d8810f6	0.0664386
95	0xbe1e9fcf	-0.1549065
96	0x3c5e6c7f	0.013575672
97	0x3d0123d4	0.03152831
98	0x3bbe2d80	0.005803764
99	0x3d633fb5	0.055480678
100	0x3c0ec618	0.008714221
101	0xbd5d1349	-0.05397347
102	0x3d193c09	0.03741077
103	0x3cdaf36a	0.026727397
104	0xbdb2c93f	-0.08729791
105	0x3df74c32	0.1207508
106	0x3db76b94	0.08956066
107	0xbd43d7a5	-0.047813077
108	0xbdbd34f2	-0.09238614
109	0x3a7ff56f	0.00097640505
110	0xbdb43728	-0.08799583
111	0x3db28d35	0.08718339
112	0xbd7e9033	-0.062149238
113	0x3d97df4a	0.07415636
114	0xbd10aaba	-0.035319068
115	0xbc9e37cf	-0.019313721
116	0xbda17265	-0.07883147
117	0xbe21e714	-0.15810806
118	0xbc4911e7	-0.012272335
119	0x3e20861f	0.15676163
120	0x3e1768f4	0.1478613
121	0x3bdb97d5	0.0067014494
122	0x3e10dfaf	0.14147829
123	0xbd8960ff	-0.06707954
124	0x3e33d134	0.17560273
125	0x3d919c14	0.07109848
126	0x3d8a0587	0.067393355
127	0x3c908ec2	0.017646197
128	0xbe368a1b	-0.1782612
129	0x3dbc8b4c	0.09206256
130	0xbd89da5f	-0.06731104
131	0x3d1df880	0.038567066
132	0x3db65933	0.08903732
133	0xbcf3af8a	-0.02974679
134	0xbdb78283	-0.0896044
135	0x3e06f22d	0.1317832
136	0xbc4b9e36	-0.012427857
137	0x3d9bd59b	0.076091014
138	0xbd35f0ee	-0.04441922
139	0xbdc3f342	-0.09567882
140	0x3dd7a638	0.105297506
141	0x3bda799e	0.00666733
142	0x3e14f1c8	0.14545357
143	0x3d511a5c	0.05105053
144	0x3c483a4c	0.01222093
145	0x3dd13b4f	0.1021639
146	0x3d00f199	0.031480405
147	0x3ca5f983	0.020260578
148	0xbe73334e	-0.2375004
149	0xbdfc0a6a	-0.12306674
150	0xbdec34dc	-0.115335196
151	0x3e2dadfd	0.16960903
152	0xbcbeb4ed	-0.023279632
153	0x3b1103e2	0.0022127558
154	0xbe0f6424	-0.14003044
155	0xbc683c43	-0.014174524
156	0xbd5370e1	-0.05162132
157	0x3df64644	0.12025121
158	0x3e11f0f7	0.14252077
159	0x3c975a15	0.018475572
160	0xbd483e82	-0.048887737
161	0xbd9ce9a5	-0.07661752
162	0xbd70cf90	-0.058791697
163	0xbe11b76b	-0.14230125
164	0xbd80522a	-0.062656716
165	0xbdc0f38c	-0.09421453
166	0xbd95ec74	-0.073204905
167	0x3da5f243	0.081028484
168	0xbd523f4a	-0.05132989
169	0x3cd3da9d	0.025861079
170	0xbc9f9a79	-0.019482838
171	0x3d085221	0.03328145
172	0x3cbb051b	0.022829583
173	0xbc92f988	-0.017941251
174	0xbd478cbb	-0.048718195
175	0x3d259352	0.0404237
176	0x3db06a37	0.08614009
177	0x3d46e869	0.048561487
178	0x3ce813f8	0.028329834
179	0xbcc5ad2b	-0.024130424
180	0xbc429a9e	-0.011877684
181	0x3cd76cb4	0.02629695
182	0x3c26e6af	0.010186835
183	0x3dd939a9	0.10606701
184	0xbe354ea7	-0.17705785
185	0xbc422661	-0.011849971
186	0xbc872c6c	-0.016500674
187	0x3bfa7ecd	0.0076445104
188	0xbdda6099	-0.10662956
189	0xbc2eb3c9	-0.010662981
190	0x3dce83cb	0.10083731
191	0xbcf82d96	-0.030295175
192	0xbd33ffb4	-0.04394503
193	0xbd9a562f	-0.075359695
194	0xbe12e364	-0.14344555
195	0x3d151fe8	0.03640738
196	0xbcbec004	-0.02328492
197	0xbe5bb83d	-0.21457
198	0x3ccb4b42	0.02481616
199	0x3e399bf8	0.18125904
200	0x3c91d823	0.017803257
201	0xbd829786	-0.06376557
202	0xbd833be8	-0.064079106
203	0xbe06cb9f	-0.13163613
204	0xbd994836	-0.07484476
205	0xbdb6d1aa	-0.08926709
206	0xbe3a96bf	-0.18221568
207	0x3d7132dc	0.058886394
208	0x3cf0e6a5	0.029406855
209	0x3dbca47b	0.0921106
210	0x3cfaae9a	0.030600835
211	0x3de2f91e	0.110826716
212	0xbd68da4d	-0.056848813
213	0x3c87d8d3	0.016582882
214	0x3cbb4b07	0.022862924
215	0x3cfa874f	0.030582098
216	0xbb064163	-0.002048575
217	0xbe28628d	-0.16443844
218	0xbb3be47b	-0.002867012
219	0xbe0558a6	-0.13022098
220	0x39f09d7f	0.0004589371
221	0xbe4f3c73	-0.20237903
222	0x3d4a1fdd	0.049346793
223	0x3c8f7fe9	0.017517047
224	0x3d02f9dd	0.03197657
225	0x3d646822	0.05576337
226	0x3cffd1c4	0.031227954
227	0x3de15c3d	0.11003921
228	0xbdaaef68	-0.08346444
229	0xbd7e97f7	-0.062156644
230	0x3d3425de	0.043981425
231	0xbe1ba21f	-0.15198563
232	0x3c266a59	0.010157191
233	0xbda82f0a	-0.08212097
234	0xbdb6999d	-0.08916018
235	0x3d683f73	0.056701135
236	0x3cd1b98a	0.025601167
237	0x3cd9ed40	0.026602387
238	0x3d99624a	0.0748945
239	0x3c9d652a	0.019213278
240	0xbe1082e9	-0.14112438
241	0xbe092130	-0.13391566
242	0xbce11a94	-0.027478494
243	0xbd751171	-0.059831087
244	0xbdc48867	-0.09596329
245	0x3cf13ac8	0.029446974
246	0x3d43aee1	0.0477742
247	0xbb9f45b2	-0.0048606033
248	0x3d3df209	0.0463734
249	0xbe9774c8	-0.29581285
250	0x3d5fd192	0.05464322
251	0xbd0513f1	-0.03248972
252	0x3e2ce642	0.16884711
253	0xbd74b9f8	-0.059747666
254	0x3cc8138a	0.02442338
255	0xbcb304ec	-0.021852933

network_body._body_endoder.seq_layers.2.bias f4 [128]
0	0x00000000	0.0
1	0x00000000	0.0
2	0x00000000	0.0
3	0x00000000	0.0
4	0x00000000	0.0
5	0x00000000	0.0
6	0x00000000	0.0
7	0x00000000	0.0
8	0x00000000	0.0
9	0x00000000	0.0
10	0x00000000	0.0
11	0x00000000	0.0
12	0x00000000	0.0
13	0x00000000	0.0
14	0x00000000	0.0
15	0x00000000	0.0
16	0x00000000	0.0
17	0x00000000	0.0
18	0x00000000	0.0
19	0x00000000	0.0
20	0x00000000	0.0
21	0x00000000	0.0
22	0x00000000	0.0
23	0x00000000	0.0
24	0x00000000	0.0
25	0x00000000	0.0
26	0x00000000	0.0
27	0x00000000	0.0
28	0x00000000	0.0
29	0x00000000	0.0
30	0x00000000	0.0
31	0x00000000	0.0
32	0x00000000	0.0
33	0x00000000	0.0
34	0x00000000	0.0
35	0x00000000	0.0
36	0x00000000	0.0
37	0x00000000	0.0
38	0x00000000	0.0
39	0x00000000	0.0
40	0x00000000	0.0
41	0x00000000	0.0
42	0x00000000	0.0
43	0x00000000	0.0
44	0x00000000	0.0
45	0x00000000	0.0
46	0x00000000	0.0
47	0x00000000	0.0
48	0x00000000	0.0
49	0x00000000	0.0
50	0x00000000	0.0
51	0x00000000	0.0
52	0x00000000	0.0
53	0x00000000	0.0
54	0x00000000	0.0
55	0x00000000	0.0
56	0x00000000	0.0
57	0x00000000	0.0
58	0x00000000	0.0
59	0x00000000	0.0
60	0x00000000	0.0
61	0x00000000	0.0
62	0x00000000	0.0
63	0x00000000	0.0
64	0x00000000	0.0
65	0x00000000	0.0
66	0x00000000	0.0
67	0x00000000	0.0
68	0x00000000	0.0
69	0x00000000	0.0
70	0x00000000	0.0
71	0x00000000	0.0
72	0x00000000	0.0
73	0x00000000	0.0
74	0x00000000	0.0
75	0x00000000	0.0
76	0x00000000	0.0
77	0x00000000	0.0
78	0x00000000	0.0
79	0x00000000	0.0
80	0x00000000	0.0
81	0x00000000	0.0
82	0x00000000	0.0
83	0x00000000	0.0
84	0x00000000	0.0
85	0x00000000	0.0
86	0x00000000	0.0
87	0x00000000	0.0
88	0x00000000	0.0
89	0x00000000	0.0
90	0x00000000	0.0
91	0x00000000	0.0
92	0x00000000	0.0
93	0x00000000	0.0
94	0x00000000	0.0
95	0x00000000	0.0
96	0x00000000	0.0
97	0x00000000	0.0
98	0x00000000	0.0
99	0x00000000	0.0
100	0x00000000	0.0
101	0x00000000	0.0
102	0x00000000	0.0
103	0x00000000	0.0
104	0x00000000	0.0
105	0x00000000	0.0
106	0x00000000	0.0
107	0x00000000	0.0
108	0x00000000	0.0
109	0x00000000	0.0
110	0x00000000	0.0
111	0x00000000	0.0
112	0x00000000	0.0
113	0x00000000	0.0
114	0x00000000	0.0
115	0x00000000	0.0
116	0x00000000	0.0
117	0x00000000	0.0
118	0x00000000	0.0
119	0x00000000	0.0
120	0x00000000	0.0
121	0x00000000	0.0
122	0x00000000	0.0
123	0x00000000	0.0
124	0x00000000	0.0
125	0x00000000	0.0
126	0x00000000	0.0
127	0x00000000	0.0

value_heads.value_heads.extrinsic.weight f4 [1, 128]
0	0x3d33f730	0.04393691
1	0x3e49fa06	0.19724283
2	0xbd2bc1bc	-0.041932806
3	0xbe348b4e	-0.17631266
4	0x3e4b2c30	0.19841075
5	0xbe41a63f	-0.18911074
6	0xbdecb939	-0.11558766
7	0xbc57ed40	-0.013179123
8	0x3dbf7530	0.093485236
9	0x3e274680	0.16335487
10	0x3d350028	0.044189602
11	0xbd97b0ac	-0.07406744
12	0x3d37d300	0.04487896
13	0xbd0b8648	-0.034063607
14	0xbd3f10c4	-0.04664685
15	0x3dcae788	0.09907442
16	0xbdf15199	-0.11783142
17	0x3d0ee310	0.034884512
18	0x3de4d664	0.11173704
19	0xbe1675f2	-0.1469343
20	0xbdf80c4b	-0.1211172
21	0x3dbf8f6c	0.093535274
22	0x3de43aac	0.11144003
23	0xbdab561a	-0.08366032
24	0xbc8790a0	-0.016548455
25	0x3dc2f994	0.095202595
26	0x3e5cc448	0.2155925
27	0xb99b8200	-0.0002966076
28	0x3e3ba36a	0.18324056
29	0xbe06fce3	-0.13182406
30	0x3de4b9a8	0.111682236
31	0xbdc4c828	-0.09608489
32	0xbe360aac	-0.17777508
33	0xbe3e9541	-0.18611623
34	0xbca10bf8	-0.019659027
35	0xbda9697e	-0.08272074
36	0x3d4532f0	0.04814428
37	0xbe5434b2	-0.20723227
38	0x3e318b62	0.17338327
39	0xbe4951aa	-0.19660059
40	0xbdae26fa	-0.08503528
41	0xbd6fc5dc	-0.058538303
42	0xbd710e58	-0.05885157
43	0x3d35e700	0.044409752
44	0xbd212068	-0.039337546
45	0xbd97b334	-0.07407227
46	0x3da9d2c4	0.082921535
47	0x3ce5a4e8	0.028032735
48	0x3e1e81f0	0.15479255
49	0xbe579605	-0.21053322
50	0xbe2b5a79	-0.16733731
51	0x3c8a42e0	0.016877592
52	0x3c1d7fe0	0.009613007
53	0x3ca18098	0.019714639
54	0x3e2aeace	0.16691133
55	0x3e25e640	0.16201115
56	0xbdf07f6b	-0.11743053
57	0xbd00a6cc	-0.03140907
58	0xbd812c98	-0.06307334
59	0x3e27e686	0.16396531
60	0xbded8de9	-0.11599333
61	0xbdc288b1	-0.09498728
62	0x3da2a2dc	0.07941219
63	0xbdd0e139	-0.10199208
64	0xbd0c7e00	-0.03429985
65	0xbdc2ee27	-0.0951808
66	0xbe1acece	-0.15117952
67	0x3d035908	0.03206733
68	0x3e4932ec	0.19648331
69	0x3d3e54a0	0.046467423
70	0xbd9bc452	-0.076058045
71	0x3c9e0d70	0.019293517
72	0x3e293f00	0.16527939
73	0x3dd2b688	0.10288721
74	0x3d376500	0.044774055
75	0x3e230a86	0.15921983
76	0xbdceeab5	-0.101033606
77	0xbda1a908	-0.07893568
78	0x3e29ef06	0.16595086
79	0xbd122ca4	-0.035687104
80	0xbd5b6bd8	-0.053569645
81	0xbe511912	-0.2041972
82	0x3ddd9e40	0.108211994
83	0x3d30c028	0.043152004
84	0xbe267c4c	-0.16258353
85	0x3da4ac2c	0.08040652
86	0x3e28f0a4	0.16498047
87	0xbdabd7b6	-0.08390753
88	0x3e248fda	0.160705
89	0x3e52694e	0.20547983
90	0x3b186280	0.002325207
91	0xbe4a58e6	-0.19760475
92	0xbe527a8e	-0.20554563
93	0x3e0ae648	0.13564408
94	0xbce89ec0	-0.02839601
95	0xbdf7acba	-0.12093492
96	0xbd9e865e	-0.07740472
97	0xbd028fcc	-0.031875417
98	0x3d1ddbb0	0.03853959
99	0xbccd8168	-0.02508612
100	0x3e3c5278	0.18390834
101	0x3e084734	0.13308412
102	0xbe4da79b	-0.20083468
103	0xbe1a6764	-0.15078503
104	0x3d0df258	0.034654945
105	0x3dd466f4	0.10371199
106	0xbd967352	-0.07346214
107	0x3e57cb94	0.21073753
108	0xbd002b98	-0.031291574
109	0xbcdf1bb8	-0.027234897
110	0x3cd2a418	0.025713012
111	0xbe188186	-0.1489316
112	0xbdfbdc21	-0.12297846
113	0x3df2a018	0.11846942
114	0xbd7c5638	-0.061605662
115	0xbe39af06	-0.18133172
116	0x3e0cc8fe	0.13748547
117	0xbe563353	-0.20918016
118	0x3ddc79c4	0.107654124
119	0xbc97d968	-0.018536285
120	0x3cb2a970	0.02180931
121	0x3de5ed20	0.11226869
122	0xbe12971a	-0.14315453
123	0xbe19b53e	-0.15010545
124	0xbc8fa660	-0.017535388
125	0xbdff8fae	-0.124785766
126	0x3e24758e	0.16060469
127	0xbe504251	-0.20337798
