AITests/results/Test4/MoveToGoal.onnx (onnx, 75098 bytes, 7 tensors)

network_body._body_endoder.seq_layers.0.weight f4 [128, 6]
00000000: 5e27 7a3e 2f61 9b3e 7155 083e e582 293d
00000010: 8cc7 883e b87c 92bf dcb6 82be a7e9 02be
00000020: a3b3 0abf cb92 953e b4a4 0dbe 894f f3be
00000030: 186a a1bd eb30 ad3e b808 973c 1d0e bb3e
00000040: 9d6a fc3e 940b 82be 4d50 31be bab8 53bd
00000050: 2dd8 193f 39e1 c93e 4642 7ebe 2b17 aa3d
00000060: 8b99 66be dc48 8d3d 6870 2fbe d61f 3bbf
00000070: 271d 84be 648b 86be 6f0f 60bf f802 ae3e
00000080: 8d74 2e3e 50b6 353f 439b 213f c108 013f
00000090: d1d9 6d3d 55d4 10bf 3836 193e a5ce 6b3c
000000a0: c545 483e 2e66 313f 2a80 423e 4a5e a83c
000000b0: c6ac 13bc 291a 9f3e c25b 89be f360 f3bd
000000c0: 5d78 25bf b959 58be 7adb 2a3f e0de 20bf
000000d0: 2b53 a33d d5ca c33e 78b4 99be 924a e03e
000000e0: 0047 e83d b305 bf3e 6a36 1cbf fb16 023f
000000f0: 520b 24bf 32fe 1f3f 32f2 743e c1fe 05be
00000100: b0f3 38bf ce29 26bf e7ac 953d f509 ff3e
00000110: c49e 0f3e 2a21 153f c095 173f 895e c0be
00000120: 6d1e 1bbf 1a63 13be 85ec 983d 1f61 93be
00000130: f35e 923e c364 1e3e 0224 023f 6843 abbc
00000140: 953d abbe 76f7 c9be 7b48 22bf 2a56 0bbf
00000150: 8498 2cbd 9015 2b3e 97d9 a73e ce14 28be
00000160: f93d ddbd b585 283f 3630 43bf 3598 e33e
00000170: 7f1b b6bc 4a8e 56bd 29d6 0a3f aa89 93be
00000180: bb8a 5e3d 3963 a63e 8c28 87bd 1836 a03e
00000190: 1f11 873e d47f b23e 5f5e f5be aec9 6d3e
000001a0: 96ca 9d3e 6db9 dc3e 4f34 483e 9383 093d
000001b0: fe73 133f da97 39bf fe7a 0a3e ff59 333e
000001c0: 5626 69bf 6a95 5bbe f287 afbe d9c9 aa3e
000001d0: d0b5 74bd cfcb 083f c3e2 23bd f785 dcbe
000001e0: a4dc 603e ce12 fe3e 8ace 873e 5d28 ffbe
000001f0: 8780 3b3e 8e50 a13e 891b 32bf dd2f a4bd
00000200: df5f b3be 21c8 d43d 618c 363f 784c 693f
00000210: f5a9 8abf 6a0a 1cbf f4b4 223e b072 c0bd
00000220: 263c 69bd ba27 4b3a 3a62 333c 905a 273f
00000230: 81be 3cbd c948 96be d828 89be 4661 fa3e
00000240: 8f62 ecbe 0605 08be e2b7 a93e 1aca f8be
00000250: 2f35 10bd 3678 a93e 16e0 c53e 03fa 00be
00000260: 2d45 0fbf 808d b83d 0cfd db3e 2b1e 293e
00000270: 9ca7 ffbe 4fc4 753e 3220 c7bd cde0 aebe
00000280: 1d4a 7fbe ab88 ef3e a292 7d3d 071c 9ebd
00000290: 3f28 8e3d 186f 73be 6746 003f 531f 183c
000002a0: a82e 103f 8635 dcbe 6468 fb3e 526f 09bf
000002b0: 34a1 21bf cdc4 5d3b d127 9e3d fe9b 72be
000002c0: bd58 043d 8397 01be 65f3 93be deea 18bf
000002d0: 55e6 e0bd 15b3 33bf 435c 003e 8b3b 11bf
000002e0: 3426 323f 5dd8 1c3e 2f8a 9c3e 4514 72bd
000002f0: e3bc 8e3c 49d5 0cbf e5fd 0fbf 3ba0 943e
00000300: db8f ebbe d757 abbe 5691 96be e49c 28bf
00000310: 6fe5 0ebf 2c4e 983e 9f6d 8a3e 6dd2 bf3e
00000320: 1970 d03e 8324 20bf ec6e 51bf 7e2a 7bbc
00000330: e0fa cbbd 5373 09bf 8ec0 c53e 40c3 c03e
00000340: b6eb aabe 446f 49be 857a b9be 5294 1f3f
00000350: dde7 a3bd aca8 3dbe a0ae 94bd ab2f 9ebe
00000360: bdce 41bb 5dbd 8bbd 9640 093f 8df0 e5be
00000370: 349e 323f 9866 1cbf 4713 4abe 0764 d6bd
00000380: 387b 593f a140 a5be d5f8 d53e c24e 103f
00000390: 88f9 363e 0de8 cf3e 4f4d 983e b3d7 76be
000003a0: a240 8fbe 5891 553e 1870 05bf 2c70 2abe
000003b0: ed52 4c3f 7b74 173d 8252 15be c083 453f
000003c0: f4a8 1fbf 203e f73d 5c29 9fbe 23b1 353e
000003d0: f0a6 f43e c1f0 023f 6054 163e 1bae 24be
000003e0: ca28 04bf 9cd3 8bbd 6a2f 41bf 2f30 673e
000003f0: dda6 493e c593 4ebf 1d96 17be cf61 05bf
0.2442908 0.30347583 0.13313843 0.041384596 0.26714742 -1.1444311 -0.25530136 -0.12784444
-0.54180354 0.29213557 -0.1383236 -0.47521618 -0.07881564 0.33826384 0.018436775 0.36534205
0.4930009 -0.25399458 -0.17315789 -0.05168984 0.60095483 0.39429644 -0.24829969 0.083052
-0.2251951 0.068986624 -0.17132723 -0.7309545 -0.2580349 -0.26278222 -0.8752355 0.3398664
0.17036648 0.7098131 0.63127536 0.5040398 0.058069054 -0.5657399 0.14962089 0.01439253
0.19557865 0.6929654 0.18994203 0.020552773 -0.00901336 0.31074646 -0.26827818 -0.11883726
-0.64636785 -0.21127976 0.66741145 -0.6284008 0.079748474 0.38240686 -0.300205 0.43806893
0.11341667 0.37309036 -0.6102053 0.50816315 -0.64079773 0.62497246 0.23920515 -0.13085462
-0.7224684 -0.6490754 0.07308369 0.49812284 0.14025408 0.5825373 0.59212875 -0.37572125
-0.605933 -0.14393273 0.074669875 -0.28785035 0.28588066 0.15468125 0.50836194 -0.020906165
-0.3344542 -0.3944661 -0.63391846 -0.5442835 -0.042137638 0.16707444 0.32783195 -0.16414186
-0.10802836 0.6582902 -0.7624544 0.44452062 -0.022229908 -0.05238179 0.5423303 -0.28815967
0.054331522 0.32497576 -0.065995306 0.3129127 0.2638025 0.3486315 -0.47923562 0.23221466
0.30818623 0.4311022 0.19551204 0.033572745 0.57598865 -0.7249733 0.1352348 0.175148
-0.9107412 -0.21443716 -0.34283406 0.33357123 -0.059743702 0.5343599 -0.04001118 -0.43070957
0.21959168 0.49623722 0.26524764 -0.49835482 0.18310748 0.3150677 -0.69573265 -0.08016942
-0.3503408 0.10389734 0.7130795 0.9113231 -1.0833117 -0.6095339 0.1588934 -0.09396875
-0.056942128 0.0007749755 0.010948712 0.6537256 -0.046080116 -0.29352406 -0.26788974 0.4890234
-0.46168944 -0.13283166 0.33148104 -0.4859169 -0.03520697 0.33099526 0.38647527 -0.12595372
-0.5596493 0.09011364 0.42966497 0.16515414 -0.49932563 0.24000667 -0.09722938 -0.34155884
-0.24930616 0.46783957 0.061907418 -0.077201895 0.0694127 -0.23772848 0.50107425 0.009284812
0.5632119 -0.43009585 0.4910308 -0.53685486 -0.631366 0.0033839226 0.07722438 -0.23692319
0.03231119 -0.12655453 -0.28896633 -0.5973338 -0.10981432 -0.7019513 0.12535195 -0.5673148
0.69589543 0.15316911 0.30574176 -0.05910136 0.017424053 -0.5501295 -0.5624679 0.29028496
-0.4600819 -0.33465454 -0.29407758 -0.65864396 -0.5581884 0.2974714 0.2703676 0.3746523
0.40710524 -0.6255571 -0.8180988 -0.015329955 -0.0995996 -0.53691596 0.3862347 0.37648964
-0.33382958 -0.1967135 -0.36226287 0.62335694 -0.08003209 -0.18521374 -0.072598696 -0.30895743
-0.0029572689 -0.068232276 0.53614175 -0.44910088 0.6977265 -0.61094046 -0.19733916 -0.104682975
0.8495364 -0.3227587 0.41791406 0.56370175 0.17868626 0.40606728 0.29746482 -0.2410572
-0.27978998 0.20856225 -0.52124166 -0.16644353 0.79814035 0.03697632 -0.14582255 0.7715416
-0.62367177 0.12072396 -0.31086242 0.17743354 0.47783613 0.5114861 0.14680624 -0.16082041
-0.5162474 -0.06827471 -0.75462973 0.22576974 0.1969256 -0.8069423 -0.14803357 -0.5210237

network_body._body_endoder.seq_layers.0.bias f4 [128]
00000000: df07 eaba c07a 983c c975 403b 7834 343b
00000010: 027b 4c3b ea2b 523b 7c79 35bb 2446 0bba
00000020: 4a2b 5b3a 6f14 95bb 6603 f3ba f84f 42bb
00000030: 7f3c 14bb baaa f3ba 4cd9 89bb f64a b4bb
00000040: 06b7 8cbb 3041 0fbb 5b6f 7aba d2b3 483b
00000050: 70b7 1a3b 4481 3b3b 8282 a53b d0d8 413a
00000060: 70b2 2fba 1351 79bb 1c33 ecbb ac09 fb3a
00000070: aa5c 093c 86c2 fd3a 93cc 74bb d073 083a
00000080: 4a7f eb3a b166 b6ba 368e dd3b 6d92 813b
00000090: dd76 03bb 81d4 293b 29ec 22ba afb9 993b
000000a0: a6d7 513b 0c22 893b 6e9d 40bb 8a5d 44bb
000000b0: 5bc9 d83a 97a4 223a 3905 cd39 a0b1 ed3b
000000c0: 76e5 11bc 2797 e73b 6962 083b 2ca6 60bb
000000d0: a168 b53a 3510 893a 3876 8a3b 25c9 353b
000000e0: 84c9 213b 5af5 70bb 6c54 b93b 6f5b 203b
000000f0: ded0 2dbb 9b4a 9d3a 9537 c8bb bf0a f2bb
00000100: 68c6 5ab9 1f93 d9ba 76bb 063c 74a9 633a
00000110: 8950 70ba 9a86 30bb ab81 42ba 3ef4 183b
00000120: f521 9b3b 6350 daba d131 04bb d479 153b
00000130: a735 afbb 68b3 36bb 5752 a53a 0f3c c23a
00000140: b972 90bb 4727 bfbb 24d2 d3b8 75d3 81bb
00000150: 9070 ac3b 2bf7 793a 5486 49bb 2372 bcbb
00000160: c6ec 1e3c 607d abba 96d3 0cbb f74d d33b
00000170: c048 273b 2049 82ba 4383 9b3b 5e40 823a
00000180: a471 0f39 a1bd 243a eeee 95b9 d23c 53ba
00000190: 6089 483b 7fa0 f838 ae7d b23b 69dc 253c
000001a0: be07 cf39 1c8f b23a d6d1 31bb 797e 8fbb
000001b0: dd93 a23a baa3 83bb d13d 983b fb99 08bb
000001c0: 5c4d 35b9 6405 a2bb 1db8 adbb 8254 ce3a
000001d0: 8520 88ba 86e7 7d3b 6c18 a03b 216a b83a
000001e0: 5924 70bb 8ba5 84ba fbfb ffba e951 1dbc
000001f0: 886d 02ba fab2 c83a 4bd9 f63a 448f 60bb
-0.0017855129 0.01861322 0.002936708 0.0027497094 0.0031201248 0.0032069632 -0.0027690819 -0.0005312881
0.00083606376 -0.004549555 -0.0018540442 -0.0029649716 -0.0022619066 -0.0018590309 -0.004206812 -0.0055021
-0.004294279 -0.0021858923 -0.00095533364 0.003062476 0.0023607872 0.0028610984 0.005050958 0.00073946733
-0.00067023095 -0.0038042709 -0.007208241 0.0019152663 0.008383909 0.0019360341 -0.003735338 0.00052052457
0.0017967012 -0.0013916102 0.0067613376 0.003954223 -0.0020059862 0.0025914016 -0.0006215 0.0046913247
0.0032019406 0.004184967 -0.002939071 -0.002996298 0.0016539501 0.00062043354 0.00039104538 0.0072538406
-0.008904805 0.0070675793 0.002081061 -0.0034278734 0.0013840386 0.00104571 0.0042255186 0.00277383
0.0024686763 -0.0036767335 0.005655816 0.0024468561 -0.00265222 0.0012000384 -0.0061101415 -0.007386535
-0.00020864012 -0.0016599632 0.008223405 0.0008684613 -0.0009167274 -0.0026935698 -0.0007419835 0.002333894
0.0047342726 -0.0016656037 -0.0020171294 0.002280821 -0.005346972 -0.002787793 0.001261304 0.0014818924
-0.0044082073 -0.0058335396 -0.00010100406 -0.003961975 0.005262442 0.0009535427 -0.0030750232 -0.005750911
0.009700006 -0.0013083629 -0.002148842 0.006448503 0.002552554 -0.0009940006 0.004745872 0.0009937396
0.00013679877 0.00062843604 -0.0002859751 -0.0008058074 0.003059946 0.00011855456 0.005447111 0.010123351
0.00039487885 0.0013622972 -0.0027133129 -0.0043790904 0.0012403686 -0.0040173205 0.004646041 -0.0020843733
-0.00017290324 -0.0049444903 -0.005301489 0.0015741738 -0.0010385668 0.0038742735 0.004885724 0.0014069715
-0.0036642759 -0.0010120136 -0.0019530052 -0.009602048 -0.0004975428 0.0015312128 0.0018833069 -0.003426508

network_body._body_endoder.seq_layers.2.weight f4 [128, 128]
00000000: 7aac 023d 5ad4 45bc 32f8 8fba 5cf6 35bd
00000010: 8a91 e93d 5ac4 87bd 2556 ca3d 7e61 e03c
00000020: 25b4 523c ab86 843d 1151 4bbd cbb5 243c
00000030: 301d 543d bc69 d73d b1a5 f1bc 2124 933d
00000040: 0ca0 c0bd 405f 45bd d452 b43d 82ee a53b
00000050: 34cf 4e3e a4ff aebd 6079 9a3d 4f9f c73d
00000060: e295 cbbd 41ad 0a3d 702a 603d d21b 70be
00000070: 89d5 523c 9f76 4fbe 3d7a cabd 84d5 303d
00000080: 0298 b5ba 3b02 abbc 72e3 9abc 9024 aa3c
00000090: b57a c0bd d3bf 82bd bda7 5ebd 8554 983c
000000a0: 4540 5a3c 9101 db3d e11e 92bd cd76 0bbe
000000b0: 870c fabd cd2b 52bc 53c5 acbd 93c4 ceba
000000c0: 577f edbc f504 ec3b 84c4 a83d c4f2 83bd
000000d0: 1fd3 86bd abc5 3cbd e972 d0bd 14da 11be
000000e0: 5e85 40be f966 1fbd 2308 d6bc 012f bbbc
000000f0: 6195 113e 3d66 9dbc 720e 72bd 080c a1bd
00000100: c8fe a43d 05d8 613d 1cca e63d 053b e43d
00000110: d514 91bc 191a 063d 3db2 ef3d b3f0 93b9
00000120: 5ca2 7ebd 1bab 403e 5511 30bd de88 c4bc
00000130: e3cf 1bbd b9c4 b53c 56d8 80bc 4fa3 963d
00000140: 1a36 37bd 62e9 5f3d 759d 11be dae1 fc3c
00000150: 1ae4 183c 00b8 093e 0b76 163e fc1e e1bc
00000160: 3436 10be 27c4 b83d 333d 42bd 3eed ff3d
00000170: 5ab0 73bd 847d 13bd 7f69 cc3d b798 cfbd
00000180: 73b9 ab3d 74f1 643b f9a9 813d e48d 833d
00000190: 2ea4 173d 36b6 423d 71bd 193d 69e0 a5bd
000001a0: 980f 7a3d 0f7d 01bc 644c b9bc c95d 173c
000001b0: 3f95 353d 0727 233e f829 233d c268 de3d
000001c0: 06f7 7eb9 5b48 3b3e 1516 833d ce6f a1bc
000001d0: 40a5 96bd b9ec 443e c760 203d d65d 08be
000001e0: 1ab3 353d d08a b43d ac2c 5abd 20d6 0b3c
000001f0: dd2e f4bd 4e87 a2bc 4e9e 783d a119 153e
00000200: e6aa 943d b1ec de3d 0c7a d33c 9c55 563d
00000210: 70e7 6bbd dd18 ea3d 9610 97bd 4606 d33c
00000220: c08c 82bd ccd2 79bd a093 3c3d c7de 6bbd
00000230: 29a1 ac3d eda9 e23d 639c eb3c 5dcd bb3d
00000240: c5d6 ad3b f40d 35bd 979c 9d3c 151f 31be
00000250: bc7f 01be f19c 02be 9670 8dbd 4ce6 cfbc
00000260: 6e01 c43d 8806 9f3c c83f 2b3e 2b26 f4bb
00000270: 182e bfbd f9c6 df3d e98f 6c3c e300 0bbc
00000280: bbd6 c53d 9eab 8bbe f446 f7bc 6a79 173d
00000290: 9efe c4bc bbf9 5d3d b44a 003d 5017 933d
000002a0: 17c9 40bd 8f7a abbc 7925 e3bc 4c7a 053e
000002b0: c313 ac3d 3c7a 813d 1ac2 db3d eb75 cfbd
000002c0: 2064 b7b9 281c de3d 59f6 cabc 66c5 e83b
000002d0: 30d4 d0bd e056 0abd 4e7f 16bb d78d a23c
000002e0: 3987 393e b35f 9cba 09b4 833c a9ec 24bd
000002f0: d22b 13be 8379 573c e670 b2bd 2171 5b3d
00000300: 22ba 88bd 1be8 a73c 14ab 143e 7641 8ebd
00000310: 0b2a 71be 7293 a8bd 5ed0 85bd a988 88bc
00000320: ce06 4d3c 6a71 abbd fbc0 c0bd 1629 933d
00000330: 80d6 0abe 00f3 0c3e 2246 82bd 9b57 12be
00000340: 225a 8b3c 1439 ea3d 03cf 9bbd 5536 c43c
00000350: f92c 973d 6820 b63d 3c96 ab3c 6729 773c
00000360: ad23 8b3b e163 b9bd 3332 3dbd b190 2cbe
00000370: 36de 94bd 5363 ecbc ae2a a83c 1d88 7abd
00000380: 697e d8bd a359 f9bd 8667 b03c b513 88bd
00000390: 7e58 04bd 242b 55bd a307 c03d 8604 14be
000003a0: 1b6b fd3d 4d57 e93c 098b 8dbd b477 303e
000003b0: 8a22 05bd 4714 c23c ec8f 8d3b 2d07 893d
000003c0: f5fc 82bd f963 69bd 1ba5 34bc cf43 ab3b
000003d0: 6480 2b3e e0b1 1a3e 2197 833c 5ad5 853d
000003e0: 113f 97bc 1776 6b3c e9c1 4bbd aeb5 013d
000003f0: c9c6 13bd 58a4 9ebc a3d6 adbd b25b 6ebd
0.031902768 -0.012074554 -0.0010984002 -0.0444244 0.114047125 -0.06629248 0.09879712 0.027390238
0.012860333 0.064709984 -0.049637858 0.010053108 0.051785648 0.10518214 -0.029497953 0.071846254
-0.094055265 -0.04818654 0.08804861 0.0050638327 0.20196229 -0.08544853 0.07542682 0.097471826
-0.09940697 0.033856634 0.05472797 -0.23448113 0.012868294 -0.20260094 -0.09886596 0.043172374
-0.0013854506 -0.020875087 -0.018907283 0.020769387 -0.093984045 -0.06384244 -0.054359186 0.01859499
0.013320987 0.10693658 -0.07134796 -0.13619538 -0.12209421 -0.012827826 -0.08436074 -0.0015775136
-0.028991384 0.0072027394 0.082406074 -0.06442788 -0.06583237 -0.04608695 -0.101781674 -0.14243346
-0.18800876 -0.03891656 -0.026126927 -0.022849562 0.1421714 -0.01921379 -0.059095807 -0.07863623
0.08056408 0.055137653 0.11269018 0.111440696 -0.017710129 0.032739732 0.11703918 -0.0002821736
-0.062166557 0.18815272 -0.04298528 -0.023991045 -0.038040053 0.022188531 -0.015728157 0.073553674
-0.04472933 0.05466593 -0.14220221 0.030869413 0.009331727 0.13449097 0.14693467 -0.027480595
-0.14083177 0.09021788 -0.047421645 0.12496422 -0.059494354 -0.036008373 0.09981059 -0.1013655
0.08384981 0.0034933956 0.06331248 0.06423548 0.03702181 0.04753705 0.03753418 -0.080994435
0.061050028 -0.007903351 -0.022619434 0.009238669 0.044331785 0.15932857 0.039834946 0.10859825
-0.00024315351 0.1828932 0.06400696 -0.019706633 -0.07355738 0.19230928 0.039154794 -0.13317046
0.044360258 0.08815539 -0.05326526 0.008534938 -0.11923001 -0.019839909 0.060697846 0.14560558
0.07259159 0.10884989 0.025815032 0.052327737 -0.057593763 0.114305235 -0.073762104 0.025759827
-0.06374502 -0.060992047 0.046039224 -0.057585504 0.08429176 0.11067567 0.028761094 0.09170029
0.0053051435 -0.04420276 0.019239707 -0.17297013 -0.12646383 -0.12755181 -0.0690624 -0.025378369
0.09570585 0.019412294 0.1672355 -0.007450839 -0.093349636 0.10926623 0.014438608 -0.008484098
0.09660097 -0.2727937 -0.0301852 0.036981024 -0.024047192 0.05419324 0.031321242 0.07182181
-0.047066774 -0.020932464 -0.02772783 0.13034934 0.08402207 0.063221425 0.10730381 -0.10129913
-0.0003497908 0.10845214 -0.02477567 0.00710361 -0.101967216 -0.033774257 -0.0022964063 0.019843025
0.1811799 -0.0011930376 0.016077058 -0.04026476 -0.14372185 0.013151529 -0.0871294 0.053574685
-0.06676127 0.020496419 0.14518386 -0.069460794 -0.23551194 -0.08231248 -0.065338835 -0.016666727
0.012513829 -0.083712414 -0.09411808 0.07185571 -0.13558388 0.13764572 -0.06361033 -0.14291231
0.017010752 0.11436668 -0.07607844 0.023951689 0.07381625 0.088929 0.02094566 0.015085555
0.0042461962 -0.090522535 -0.04619045 -0.1685207 -0.07268946 -0.028855955 0.020528164 -0.061164964
-0.10570986 -0.121753 0.021533739 -0.06644384 -0.032310955 -0.052043095 0.093764566 -0.1445485
0.12373944 0.028484011 -0.069112845 0.17233163 -0.032503642 0.02369131 0.0043201353 0.06690822
-0.06395904 -0.056980107 -0.011025692 0.0052265893 0.16748196 0.15106916 0.016063275 0.06534834
-0.01846269 0.0143714165 -0.049745474 0.031667404 -0.03607825 -0.019365475 -0.08488204 -0.058192916

network_body._body_endoder.seq_layers.2.bias f4 [128]
00000000: 7cfb 46bb 7244 32bb cb56 41bb a162 6e3c
00000010: e8cc 603b 8c85 143b fd33 6dbb 71f1 84bb
00000020: 242d 4cbb 975e 82bb 5f0c 54bb 49ef 4abb
00000030: 519d 3a3a 6420 f93a 8392 533b 8003 103b
00000040: de36 993b b30a 76bb 2714 12bb 23a9 f5ba
00000050: dcb9 363a c83f 15ba 158f 0ebc b2ca 34bb
00000060: 143a b038 163d 31bb 6bc3 56bb 2a03 883b
00000070: 8e6d 563b a94c 8a3b 7e86 58bb 98f6 483a
00000080: aae0 1fbb ecc1 81bb b39b 413b e7f6 023c
00000090: e76f 6cbb 276b 9eba 3bc1 f53a 2a4d 903b
000000a0: 2a4c 9fbb fe0a 9e3a 64b4 06bb bc82 263b
000000b0: 4cad 09ba 8646 0b3b 7840 b4bb dce3 8eb8
000000c0: 1a87 a53b 706b 273b 3009 df3a a211 8239
000000d0: 1e0d a7bb cdd5 b63a 3d00 723a 9d22 42bb
000000e0: b84c 4ebb fc07 11bb b4e3 dbba 6eb4 f139
000000f0: 21dd 443a 54e9 593b 70f3 18bb 6497 aa3b
00000100: ae33 5bbb 40ba 72bb 4537 06bb c2e1 a53a
00000110: 6d46 05bb 895d 7139 e596 1139 4075 5dbb
00000120: 32c5 003b e278 233b 2c48 62ba 7abc 4f39
00000130: b4b3 87bb 58d1 aabb 566a e83a 3ca2 833a
00000140: 832a 5c38 3ad2 4fb9 615e e8bb 0245 1c3b
00000150: ca25 de3b 2bec 183b ce9d 5bbb bd50 e8ba
00000160: 9913 f03a 4267 e8ba fb0d 48bb 8d05 a5bb
00000170: b9d0 f53a 761d be3a dc40 8fb8 afd1 8d3a
00000180: 1df0 673b 36e4 4a3c 02d9 38bb 330b f3ba
00000190: cef8 8dbb 8520 fcba 03b6 35bb d4a8 08bb
000001a0: 5ccc 30ba 1f6f 96bb 7b1e 17ba 381a 38bb
000001b0: 85f3 2fbb e3e8 e5bb d0fe 483a 280c 7b3b
000001c0: 3311 e53a 99fa 1abb 9b7c 753a 9937 4bbb
000001d0: cc3e a53a 9b3a 97bb 32be ca39 477a 5dba
000001e0: 420c c53b 11c7 29bb 0e62 953b 4043 a9ba
000001f0: 0adf 78bb 59ed b2b9 3205 1bbb 0f3c 09bb
-0.0030362299 -0.002720144 -0.0029501196 0.014549882 0.003430182 0.0022662608 -0.0036194318 -0.0040571024
-0.0031154836 -0.003978561 -0.0032356007 -0.003096538 0.0007118779 0.0019006846 0.0032283373 0.0021974742
0.00467573 -0.0037542998 -0.0022289844 -0.0018742423 0.0006970444 -0.0005693403 -0.008701106 -0.0027586636
8.403152e-05 -0.0027044467 -0.0032770287 0.004150768 0.0032719108 0.0042205644 -0.0033039148 0.000766614
-0.0024395385 -0.003959885 0.0029542267 0.007993436 -0.0036077441 -0.0012086377 0.0018749604 0.00440373
-0.0048613744 0.0012057719 -0.0020554299 0.0025407514 -0.00052519585 0.0021251752 -0.0055008493 -6.81353e-05
0.0050515058 0.0025546215 0.0017016288 0.0002480867 -0.0050979992 0.0013949216 0.0009231603 -0.0029622682
-0.0031478833 -0.0022130003 -0.0016776235 0.00046101533 0.00075097574 0.0033250647 -0.002333846 0.0052060355
-0.0033447552 -0.0037037283 -0.002047972 0.0012655782 -0.0020336166 0.00023018396 0.0001388449 -0.003379181
0.0019648788 0.0024943878 -0.000863197 0.00019811271 -0.0041412953 -0.005212944 0.0017731886 0.0010042856
5.249168e-05 -0.00019819374 -0.007091329 0.0023844843 0.006779407 0.0023334126 -0.0033510807 -0.0017724257
0.0018316387 -0.0017730969 -0.003052591 -0.005036062 0.0018754221 0.001450463 -6.830852e-05 0.0010819937
0.0035390921 0.012383511 -0.0028205519 -0.0018542766 -0.0043326383 -0.0019235766 -0.0027726896 -0.0020852583
-0.0006744319 -0.0045908834 -0.0005764735 -0.00280918 -0.002684803 -0.0070162877 0.00076673646 0.0038306806
0.0017476439 -0.0023647903 0.0009364576 -0.003100848 0.0012607216 -0.0046151406 0.0003867015 -0.00084487017
0.006013424 -0.0025906006 0.004558808 -0.0012913719 -0.0037974739 -0.00034127643 -0.002365422 -0.0020940339

action_model._continuous_distribution.log_sigma f4 [1, 2]
00000000: 0a41 943a 9bb9 ef3b
0.0011310887 0.007315827

action_model._continuous_distribution.mu.weight f4 [2, 128]
00000000: 6db9 15bc e84d 36bb a060 a63c 929c 0cbb
00000010: 60fd 083c 3d17 d53c e98a e0bc 3adc 8ebb
00000020: ab8d 023c 6a10 d4bc ab16 22bd 4b93 9cbb
00000030: fed8 883b 62a0 f33b db1f edbb 738a ee3b
00000040: 149b c63b 96e4 113a 416d 0cbc 7fdd 07bb
00000050: 330c ae3b 96aa 063c 4d89 24ba 8d34 2abc
00000060: af27 ebbb 5451 cdbc 7311 a6bc 557a 97bc
00000070: 939d c3ba 0699 b0bc 3dba 0c3b 1bbf 033c
00000080: da19 3c3c 518e b1bc a733 cf3c 2423 cebc
00000090: 30b9 ab3b 51b7 0cbc 1066 b13c 49a7 47bb
000000a0: 5cc5 9b3c bf84 073d ad3b c0ba 578a f93c
000000b0: 8fe1 83bb a809 873c 9146 473a daf2 e03c
000000c0: 8e73 ec3b 448d 753a 4b99 fd3a 81e4 49bd
000000d0: beff 1dbc eab7 4c3c 946b 45bc 07ae 26bc
000000e0: 64c7 52b9 4b23 953b 0d28 9abc 71d7 413b
000000f0: b18e e93b 7f79 99bc ee89 c7bc 79a4 523c
00000100: eba1 89bb e1f1 71bc 901e 383c 6f42 8f3c
00000110: 5ac5 193c 5df2 77bc 2393 3a3c 0803 91bc
00000120: 9c19 96bc 33dc 343c b758 20bc 003f 7a3c
00000130: e557 e6ba bf45 583b ad9a 90bc e68f 043c
00000140: cdef 6cbb a58f 2ebc 3526 54bb 8454 25bc
00000150: 4d00 1dbc f983 4e3d f978 bcbb 37f2 e6bc
00000160: 9b8e ccbb 46ea 653c 6414 1fbc ab9c bb3b
00000170: b6ad 703b fa05 7e3c 65ad 863c a5fb de3c
00000180: 2213 27bc b5cf 983b 6968 9dbc 61cd c3bc
00000190: 0e8d 323a c761 2c3c e18d 10bc b8fa 973c
000001a0: 4fd0 993c 0363 f1bc 5a1e a9bc ba3d 553c
000001b0: 925f 6f3c e7b9 7ebc 403c 16bd e39d de3b
000001c0: 2b3b c93c 3939 c7bb 6041 3bbc 9b5c ec3a
000001d0: 9a5f 9c3c d1de 363c 4edc 283b 1aef 523b
000001e0: 9ca7 d3bc 859b e6bc dfd8 7bbc 3d59 863c
000001f0: 9865 a1bb e140 a8bb de07 a6bc 1ce8 c5bc
00000200: 3590 823c b128 993a b3d3 213c f21d e03c
00000210: d866 e9bc 4029 3dbc e911 fa3c 60aa 77ba
00000220: 8803 dc3b 1b1b 423c 6344 b93b 21e4 ee3b
00000230: 666c a1bb 71d3 e03b f317 65bc 6ad8 66bb
00000240: bfa2 efbb f987 153b d98b bd3c 0f76 bf3c
00000250: b114 e0bc 96ea 4eba 5ace 8fbc 5eb5 903a
00000260: 1ceb 993c c60e 233c cc4d ca3c ad44 6abc
00000270: 3d11 c6bc dfc9 963c b832 8abc 71fb 983b
00000280: 9519 663c 7f84 823c 0c20 06bc 8274 90bc
00000290: 2b0d 3b3c efe6 bdbb 11dc 1d3b 1b9d 86bc
000002a0: 884d 9cbc b79c 4ebb b2a9 88ba edf6 abbb
000002b0: 8132 153b c549 8abc 69bf 443c 39f1 3a3c
000002c0: 9c8e 873c 7a58 aabc a413 ed3b 65c0 51bb
000002d0: 0434 813c 9b79 233a f5ad 65bc 325b 1f3c
000002e0: 4310 a2bc a624 a03c fa90 953c eb5f 5e3c
000002f0: 4516 50ba 5005 5b3c 8a06 733c d1e1 693c
00000300: 2bfc 653c c0f7 8c3b c7ee 533c f83b 533b
00000310: 0b3b ce3c 3c26 9b3c 15da 133a fb5e 75bb
00000320: 2aae 893c c4fc cbbc 42c7 44bc a2d9 153d
00000330: 2840 0e3b 0ade 233c 02d2 0fbd 0cc5 183d
00000340: 9904 edbb 6065 583c 4ef7 29bc 379e 9d3c
00000350: a5f3 863c 1d40 73bb 42ba cc3b 84c5 833c
00000360: c772 c9bc ff1c d7bb 4e61 9d3b 0377 51bc
00000370: d51b d8bb 7631 9b3a b3f0 ddbb 30f8 c43b
00000380: d5c8 e63b 4bba 8e3c 12d6 043c 940d 563c
00000390: 9055 ae3c a8de fe3b ad1f c73c e8aa 893c
000003a0: 0f8c 9d3c df0e 2e3c 7756 d33b 5ab8 22bb
000003b0: 3578 92bb 004b 603b 672f 0b3d e3bd bebc
000003c0: 4f78 a0bb bae9 e93b 46e5 ef3c 8a3c b33b
000003d0: 0781 7aba df42 93bb 64b1 9dbb 681e 873c
000003e0: 386f ca3c 02bb 423c 5b4c 2a3c 6811 42bc
000003f0: 0f3c d63b 5f87 803c 4352 593c d760 9b3b
-0.009138447 -0.0027817432 0.020309746 -0.0021455628 0.008361191 0.026012057 -0.027409988 -0.004359749
0.007968347 -0.025886733 -0.0395724 -0.004778301 0.004176258 0.0074348906 -0.0072364635 0.007279688
0.006060967 0.0005565373 -0.00857097 -0.0020731387 0.005311513 0.008219382 -0.0006276563 -0.010388506
-0.0071763615 -0.025063194 -0.020271992 -0.01849095 -0.001492428 -0.021557342 0.0021473311 0.008041169
0.011480773 -0.021674307 0.025293184 -0.02516324 0.005240582 -0.008588628 0.021655113 -0.00304647
0.019015007 0.03308558 -0.0014666222 0.030461473 -0.0040246914 0.016484097 0.0007601763 0.02745955
0.0072159236 0.00093670585 0.0019348053 -0.049290184 -0.009643493 0.01249502 -0.012049574 -0.010173327
-0.0002010144 0.0045513264 -0.018817926 0.0029577876 0.007127606 -0.018734692 -0.024357762 0.012856596
-0.0042002103 -0.014767141 0.011237755 0.017487733 0.009385431 -0.0151334675 0.011387619 -0.01770164
-0.018322758 0.011038828 -0.009786776 0.015273809 -0.0017573802 0.0033000556 -0.01765188 0.008090949
-0.0036153675 -0.010654365 -0.0032371406 -0.010090951 -0.009582591 0.050418828 -0.0057517258 -0.028191669
-0.006242586 0.014032906 -0.009709451 0.0057254634 0.0036724634 0.015504355 0.016440103 0.027219603
-0.010197433 0.0046634325 -0.019214826 -0.023901643 0.000681118 0.010521359 -0.008822889 0.01855217
0.018776087 -0.029466158 -0.020644356 0.013015205 0.014610188 -0.015547252 -0.036678553 0.006793724
0.024564346 -0.0060798195 -0.011429161 0.001803297 0.019088555 0.011161522 0.0025766077 0.0032185973
-0.025836758 -0.02815033 -0.01537153 0.016399974 -0.004925441 -0.0051346873 -0.020267423 -0.02415853
0.015937904 0.0011685101 0.009877133 0.027358029 -0.028491423 -0.011545479 0.030526118 -0.000944769
0.006714288 0.011847283 0.0056539043 0.0072903787 -0.004926252 0.0068611433 -0.013982761 -0.0035224208
-0.007313102 0.0022816642 0.023137974 0.023371724 -0.027353616 -0.00078932324 -0.01755445 0.001104038
0.018788867 0.009952253 0.0246953 -0.0142986 -0.024178142 0.018406807 -0.016869888 0.004668646
0.014044185 0.01593232 -0.0081863515 -0.01763368 0.011416714 -0.0057953517 0.0024087469 -0.016432336
-0.019079939 -0.0031526515 -0.001042655 -0.0052479417 0.0022765698 -0.01688088 0.012008526 0.011410051
0.016547494 -0.020794142 0.0072350074 -0.0032005545 0.015771873 0.0006236077 -0.014018525 0.0097263325
-0.019783145 0.019548725 0.018257607 0.013572673 -0.0007937889 0.013367966 0.014833102 0.01427503
0.014037172 0.004301995 0.012935347 0.003223179 0.025174638 0.01893913 0.0005640102 -0.0037440646
0.01680668 -0.024900801 -0.012010397 0.036584504 0.002170572 0.010001669 -0.03511239 0.037297294
-0.007233214 0.013207763 -0.010373903 0.019240482 0.0164736 -0.0037117072 0.0062477896 0.016085394
-0.024590863 -0.006564736 0.0048028594 -0.012784722 -0.0065951147 0.0011840302 -0.0067730783 0.0060110316
0.007042984 0.017422816 0.008107679 0.013064761 0.021281034 0.0077780075 0.024307096 0.016805127
0.019231824 0.010623663 0.0064495164 -0.002482912 -0.004469896 0.003422439 0.033980753 -0.023283904
-0.0048971544 0.007138458 0.02928413 0.0054698633 -0.000955597 -0.0044940556 -0.0048124064 0.016493991
0.024711236 0.011885406 0.010394181 -0.01184497 0.0065379213 0.01568955 0.013264242 0.004741769

action_model._continuous_distribution.mu.bias f4 [2]
00000000: 5aab f23a bcbf 1cbb
0.0018514202 -0.0023917994
